training program/model_LSTM.tflite (tflite, 56104 bytes, 16 tensors)

sequential/dense_1/BiasAdd/ReadVariableOp f4 [28]
-0.73191816 0.539847 0.4034338 1.5246274 -0.16626027 -1.3417698 -0.24178964 0.8937748
0.098442756 -0.49076375 -0.19524099 0.2514314 -0.7423031 -1.0211402 -0.54268557 0.90794116
1.1182363 -0.12493986 1.0195572 0.6698258 -1.4418976 0.053369723 1.6819733 -1.2076812
-0.7192923 0.040797345 -0.6567922 1.1565711
00000000: fd5e 3bbf 6a33 0a3f e08e ce3e fe26 c33f
00000010: 2240 2abe 1dbf abbf b497 77be 6dce 643f
00000020: 5b9c c93d 6345 fbbe 41ed 47be 9ebb 803e
00000030: 9307 3ebf b9b4 82bf 71ed 0abf d56e 683f
00000040: 5e22 8f3f 78e0 ffbd da80 823f b479 2b3f
00000050: 1a90 b8bf 369a 5a3d e74a d73f 4c95 9abf
00000060: 8a23 38bf 1e1b 273d 8923 28bf 860a 943f

sequential/dense/BiasAdd/ReadVariableOp f4 [32]
0.29822078 0.38872913 0.24896786 -0.6098111 -0.034722503 0.026413605 -0.03552429 -0.041730978
0.20359026 0.38379994 0.45211968 0.07026647 0.0460263 0.18847664 0.7725197 0.15725039
-0.14065836 -0.4182489 0.03696859 -0.15645039 0.23047784 0.59281164 0.45079207 0.874368
0.21758664 -0.3614093 -0.024871208 -0.050160974 0.034747463 0.20048514 -0.09708158 0.39696032
00000000: 65b0 983e 8107 c73e 6ef1 7e3e 951c 1cbf
00000010: 2f39 0ebd 5861 d83c eb81 11bd 1aee 2abd
00000020: f779 503e 6d81 c43e 3b7c e73e dee7 8f3d
00000030: 1386 3c3d 0500 413e dac3 453f 3f06 213e
00000040: bf08 10be b824 d6be 606c 173d 8834 20be
00000050: 6202 6c3e 81c2 173f 38ce e63e 95d6 5f3f
00000060: 08cf 5e3e a40a b9be b4be cbbc 9875 4dbd
00000070: 5b53 0e3d fa4b 4d3e b5d2 c6bd 623e cb3e

arith.constant f4 [48, 48]
-0.17752957 -0.051750053 0.2953301 0.37967488 -0.49379873 -0.3369171 0.79246074 -0.42753145
0.12102597 1.0745201 -0.3326114 0.6785935 0.4584938 -0.6497804 0.76172924 -0.10622894
0.37147126 -0.8179405 -0.42056766 0.18022113 -0.53854007 -0.4532078 -0.17751037 -0.3941251
-0.524676 0.38578323 0.1182248 -0.6196654 -0.34239805 -0.38155276 0.5801829 -0.39972377
-0.3546111 -0.1692815 0.16144677 -1.0046188 -0.0111087635 -0.405525 -0.17676736 -0.15689175
-0.9771594 -0.038440544 -0.50812674 -0.3338131 1.0242403 -0.17257832 -0.9480427 -0.40254608
0.1994202 0.5203141 0.072152704 -0.4605294 -0.65693676 -0.034642853 0.6984141 0.21989031
0.044175867 -1.5488441 0.13851522 0.11541171 -0.42656338 0.470204 -0.14178035 0.6028473
0.32793227 -0.2069377 -1.0443597 -0.39907905 -1.2148505 -1.3100734 -0.2003674 -0.6148022
-0.2801449 -0.44528738 0.88329667 0.0010980809 -0.6739416 0.37604174 0.26135176 -0.6656184
-0.080874205 -0.14317718 0.4174459 0.2749948 -0.5430137 -0.69210136 0.78961873 0.13133658
0.60552835 0.0864764 0.88545406 0.7575578 -0.74819356 -0.060468674 -0.0119404765 -0.25621858
-0.80269676 0.80428195 -0.30668783 -0.30149934 0.021747457 0.2127513 -0.2965259 0.46719396
0.32943726 -0.41071382 0.15914705 -0.6830679 -0.20740262 0.03277683 -0.14748235 0.27578044
-0.20758654 -0.4622202 0.23440841 -0.7137893 -0.5224047 0.12558565 -0.36535332 -0.31327537
-1.0209061 -0.8603938 1.1511108 0.29702187 -1.0607029 0.26566932 0.12461576 -0.102411844
0.01297149 0.62158763 1.0165653 -0.425094 -0.32553208 -1.0623423 0.063499615 -0.2652563
-0.7273163 0.9207003 1.3770335 -0.042161662 -0.27586225 0.14687802 -0.12641849 -0.7078595
0.32886648 0.46154696 -0.27605268 -0.029867934 -0.5337783 -0.77143556 -0.13212891 -0.36279264
-0.6836141 0.022785788 0.7244159 1.5473367 0.7201882 -0.20041464 1.0102648 -0.29939443
-0.08308397 -0.8239373 -1.1606756 0.13479865 -0.06810127 0.6214454 0.8625198 -1.0764198
0.058071908 -0.28821996 0.6794524 -0.7668575 0.45490524 0.40827927 -0.37515578 0.17392467
0.9492921 0.7111781 -0.1638465 -0.33215836 0.7639701 -0.13413881 -0.25692233 0.5874145
-0.09393829 0.59834635 0.4501078 0.58512586 -0.17031653 -0.16429268 -1.3379221 0.47358197
-0.5448128 0.15818308 -0.45053527 -0.21879709 -0.6040316 0.7362609 -0.2132605 0.07681072
-0.22718494 -0.1278219 -0.44956353 0.07373097 0.2571315 0.2953396 0.3004447 -0.30777657
-0.49597168 0.36935145 0.380697 0.09006444 -1.3949797 -0.24914306 -0.19264182 0.6071071
-0.13098165 -0.26592055 0.5509228 0.67494476 0.124661915 0.17784472 0.2559619 0.09211108
0.2543304 0.3825066 -0.16297635 0.057983402 -0.85330045 0.026080897 0.9484399 0.027149403
0.20461786 1.2636974 0.6433404 0.52371335 -0.23348272 -0.65713227 -0.15045796 0.027617782
0.416937 0.5099507 -0.41337106 0.00068432355 0.7124694 0.17060119 0.60915494 -0.2621107
-0.08260831 -1.0734433 0.22878559 -1.5138551 0.27650732 0.6064173 0.24925609 0.68946195
00000000: 50ca 35be ddf7 53bd 8235 973e bf64 c23e
00000010: 30d3 fcbe 6680 acbe b5de 4a3f 67e5 dabe
00000020: 77dc f73d e089 893f 0b4c aabe 4eb8 2d3f
00000030: b3bf ea3e 0258 26bf b000 433f 8f8e d9bd
00000040: 7b31 be3e 8c64 51bf a554 d7be e38b 383e
00000050: c3dd 09bf da0a e8be 47c5 35be c4ca c9be
00000060: 2b51 06bf 6185 c53e d81f f23d 64a2 1ebf
00000070: cc4e afbe e25a c3be de86 143f 98a8 ccbe
00000080: 968f b5be 2158 2dbe 4d52 253e 5997 80bf
00000090: 8801 36bc f9a0 cfbe 8102 35be 3ba8 20be
000000a0: 1e27 7abf d573 1dbd 9814 02bf 8de9 aabe
000000b0: 4e1a 833f 5fb8 30be edb2 72bf 851a cebe
000000c0: cf34 4c3e 4e33 053f ccc4 933d 82ca ebbe
000000d0: 022d 28bf aae5 0dbd 44cb 323f ed2a 613e
000000e0: c1f1 343d 8640 c6bf efd6 0d3e fa5c ec3d
000000f0: 8466 dabe 94be f03e de2e 11be 3354 1a3f
00000100: bde6 a73e 7ae7 53be 94ad 85bf 1754 ccbe
00000110: 3980 9bbf 7cb0 a7bf 1d2d 4dbe ad63 1dbf
00000120: 276f 8fbe b5fc e3be bb1f 623f 7bed 8f3a
00000130: 7087 2cbf 8b88 c03e e6cf 853e f865 2abf
00000140: 60a1 a5bd 0a9d 12be 78bb d53e 1ecc 8c3e
00000150: f202 0bbf 8e2d 31bf 7424 4a3f 197d 063e
00000160: e803 1b3f 8a1a b13d 1ead 623f 4fef 413f
00000170: 9d89 3fbf 00ae 77bd fda1 43bc 152f 83be
00000180: 897d 4dbf 6ce5 4d3f 3006 9dbe 1f5e 9abe
00000190: b927 b23c 7adb 593e 3ed2 97be 0c34 ef3e
000001a0: 00ac a83e 1549 d2be 72f7 223e 8add 2ebf
000001b0: 5a61 54be ff40 063d 9d05 17be 1833 8d3e
000001c0: 9191 54be 20a8 ecbe c208 703e e5ba 36bf
000001d0: 50bc 05bf 8699 003e 970f bbbe a165 a0be
000001e0: 0dad 82bf c542 5cbf 9957 933f 4013 983e
000001f0: 1dc5 87bf cf05 883e 8c36 ff3d 4dbd d1bd
00000200: 5f86 543c 5e20 1f3f d01e 823f eca5 d9be
00000210: 24ac a6be d5fa 87bf 160c 823d accf 87be
00000220: 6731 3abf 04b3 6b3f a242 b03f b5b1 2cbd
00000230: d13d 8dbe 3167 163e d973 01be 4836 35bf
00000240: 3061 a83e e24f ec3e c756 8dbe 99ad f4bc
00000250: b2a5 08bf cd7c 45bf cd4c 07be f5bf b9be
00000260: 5501 2fbf 43a9 ba3c 5273 393f 210f c63f
00000270: 415e 383f 7f39 4dbe 5b50 813f 3a4a 99be
00000280: ee27 aabd 8eed 52bf 0591 94bf a808 0a3e
00000290: ae78 8bbd 0c17 1f3f 19ce 5c3f 20c8 89bf
000002a0: cfdc 6d3d 9191 93be 98f0 2d3f c650 44bf
000002b0: 57e9 e83e fb09 d13e 6b14 c0be 4f19 323e
000002c0: cf04 733f c50f 363f 60c7 27be a910 aabe
000002d0: 8b93 433f af5b 09be 538b 83be cc60 163f
000002e0: b862 c0bd 3a2d 193f 8874 e63e cfca 153f
000002f0: 7567 2ebe 573c 28be 0841 abbf 5679 f23e
00000300: da78 0bbf bffa 213e 8fac e6be 580c 60be
00000310: d1a1 1abf 987b 3c3f f660 5abe f04e 9d3d
00000320: 2ba3 68be bfe3 02be 312d e6be 4300 973d
00000330: bda6 833e c136 973e e3d3 993e e494 9dbe
00000340: 00f0 fdbe a21b bd3e b8ea c23e b573 b83d
00000350: b28e b2bf 5c1f 7fbe e643 45be 5f6b 1b3f
00000360: 0e20 06be bd26 88be 4709 0d3f 2ec9 2c3f
00000370: bf4e ff3d ed1c 363e 700d 833e bca4 bc3d
00000380: 9837 823e e8d7 c33e 46e3 26be 0180 6d3d
00000390: e671 5abf 9ba7 d53c f5cc 723f 6d68 de3c
000003a0: 5887 513e d6c0 a13f f5b1 243f 1412 063f
000003b0: 1816 6fbe d239 28bf a711 1abe b03e e23c
000003c0: c478 d53e 218c 023f 5fa5 d3be 2d64 333a
000003d0: 6564 363f 14b2 2e3e 94f1 1b3f 6033 86be
000003e0: 8c2e a9bd 9766 89bf c546 6a3e 01c6 c1bf
000003f0: 5e92 8d3e 2a3e 1b3f fd3c 7f3e 9480 303f

arith.constant1 f4 [48, 48]
0.4259497 0.28710067 0.05469943 -0.23667231 -0.11010843 -0.027521657 0.07301288 0.02735442
0.33870617 -0.09670053 -0.0015857645 -0.17243616 -0.11864623 -0.026462806 0.09338454 -0.11718908
0.34514627 0.20892082 -0.33630183 0.43862104 -0.15190728 -0.17639682 0.11730995 -0.17218633
-0.5331267 -0.059445627 -0.14004648 -0.11674958 -0.2411971 0.4755774 0.57891357 0.2574278
0.20534399 -0.10970211 0.33609915 -0.11033524 -0.32143283 -0.22254267 -0.09982952 0.35939398
-0.28513375 -0.30257958 -0.50275624 0.044508763 0.14870864 0.19854403 0.12179836 0.57290214
0.2508165 -0.044839583 -0.25917193 -0.06013827 0.26831907 1.0587742 -0.08319587 0.124187194
0.10364392 0.13786836 0.025558278 -0.4748152 0.1603045 0.2724491 -0.4320044 -0.02253421
0.14842793 0.4561294 0.53047734 0.16736755 0.06839686 0.044294152 -0.63360643 -0.2579479
0.010965454 0.41988873 -0.061476357 0.08176858 -0.19011088 0.20061429 -0.24709824 0.32700753
0.39513418 -0.09170168 -0.0687748 0.27293494 -0.7918744 -0.41185242 0.0038605453 0.10314147
0.18486777 0.22380064 0.23634346 0.1564589 -0.45881933 -0.36242354 0.17140786 0.52677095
0.22740844 -0.1132953 -0.23055911 -0.19423358 -0.17694715 -0.15606135 -0.37717998 0.19835904
0.33127007 0.0040327287 0.10526069 0.42069334 0.27334067 0.043982726 -0.38091075 -0.28410673
0.12956364 -0.41892794 0.09054969 0.32673344 -0.2608261 0.21054226 -0.0074688285 -0.451089
-0.14203344 -0.09200321 0.004750826 -0.7051213 -0.27645192 0.29208082 0.2358752 0.30223686
-0.2260482 0.26552656 0.024489328 -0.2366 0.15336497 0.5449221 -0.23314396 0.20547621
0.31777677 0.47430548 -0.02200516 0.29867086 -0.30074447 0.3730083 0.14939216 0.19225684
-0.4252638 0.18859898 0.16407871 -0.05846224 -0.061404575 0.43330422 0.06894602 -0.20212123
-0.20235777 -0.17336014 -0.08922586 0.32801577 -0.08107522 -0.033657644 -0.58302236 -0.2638316
0.17298597 0.052995276 -0.31260943 0.105011955 0.59142363 0.2477581 0.3569847 0.45881018
0.560484 -0.18005404 -0.18384545 0.2036852 -0.08062232 -0.438064 0.35331407 -0.49197102
0.021327483 0.2317118 -0.18338117 -0.15668309 0.24656649 -0.1478481 -0.34720346 0.15765372
0.18790855 0.13581805 -0.21828164 0.28397053 -0.06538376 0.08571379 0.0054955827 -0.03929201
-0.8648436 0.008594606 0.39440617 0.07254145 -0.037510898 0.25236782 -0.4757819 0.3390948
-0.030880813 0.103633285 0.16650952 -0.1272432 -0.3283991 0.17036289 0.011794433 0.12153173
0.17269464 0.27775818 0.12203089 0.13496067 -0.45052785 0.32557324 0.02053805 0.69214594
-0.0466005 0.3670287 -0.026271138 0.29088244 -0.101556435 0.0065257438 0.18809627 -0.105851516
-0.2818817 -0.24995247 0.060500387 -0.49296504 -0.10386632 0.303166 0.4369279 0.24889939
0.95979226 -0.5235228 -0.21639103 -0.09666801 -0.21545903 -0.021626672 0.28237656 -0.041561786
-0.19033432 -0.01992906 0.27056935 -0.049181487 -0.28231618 0.0048085856 -0.67437404 0.30044255
-0.13214992 0.06033153 -0.12243971 0.110683955 -0.36028588 -0.010231443 -0.49002996 -0.5271322
00000000: 1416 da3e dcfe 923e 820c 603d 3a5a 72be
00000010: 8780 e1bd 1975 e1bc c787 953d 6016 e03c
00000020: e56a ad3e ed0a c6bd 6dd9 cfba 1b93 30be
00000030: cbfc f2bd 87c8 d8bc 6540 bf3d d400 f0bd
00000040: 03b7 b03e 57ef 553e c12f acbe f092 e03e
00000050: 958d 1bbe 5ea1 34be 3340 f03d 9d51 30be
00000060: fe7a 08bf 427d 73bd 5868 0fbe 671a efbd
00000070: 5ffc 76be e27e f33e ae33 143f 94cd 833e
00000080: b245 523e 80ab e0bd 3015 ac3e 71f7 e1bd
00000090: d892 a4be 3ae2 63be 6b73 ccbd 7d02 b83e
000000a0: 0dfd 91be b6eb 9abe a2b4 00bf d24e 363d
000000b0: 1447 183e 204f 4b3e 6b71 f93d b7a9 123f
000000c0: 056b 803e b6a9 37bd 2fb2 84be 8c53 76bd
000000d0: 1e61 893e ea85 873f 9962 aabd db55 fe3d
000000e0: 4343 d43d 5d2d 0d3e 985f d13c fa1a f3be
000000f0: dd26 243e 737e 8b3e ae2f ddbe aa99 b8bc
00000100: 7efd 173e cb89 e93e 5dcd 073f 6662 2b3e
00000110: a713 8c3d c96d 353d 0834 22bf bf11 84be
00000120: 73a8 333c a8fb d63e a2ce 7bbd 4976 a73d
00000130: 6dac 42be d56d 4d3e 5207 7dbe 886d a73e
00000140: 074f ca3e 17ce bbbd cdd9 8cbd 21be 8b3e
00000150: 48b8 4abf 52de d2be 3401 7d3b d63b d33d
00000160: fa4d 3d3e ff2b 653e 0504 723e c336 203e
00000170: 5eea eabe 948f b9be 8b85 2f3e 76da 063f
00000180: c2dd 683e 5e07 e8bd b017 6cbe 2be5 46be
00000190: a231 35be 8cce 1fbe bc1d c1be a21e 4b3e
000001a0: 3b9c a93e fb24 843b eb92 d73d 1e65 d73e
000001b0: 4ff3 8b3e 3b27 343d bc06 c3be 7076 91be
000001c0: 55ac 043e b97d d6be 1e72 b93d 9b49 a73e
000001d0: 008b 85be 6498 573e 13bd f4bb 23f5 e6be
000001e0: 3771 11be 2e6c bcbd d1ac 9b3b d482 34bf
000001f0: 1b8b 8dbe 9e8b 953e 4589 713e cabe 9a3e
00000200: 2e79 67be 19f3 873e d89d c83c 4547 72be
00000210: b50b 1d3e 0480 0b3f 4abd 6ebe 5b68 523e
00000220: a3b3 a23e 2bd8 f23e 2a44 b4bc 63eb 983e
00000230: 2efb 99be f2fa be3e 42fa 183e fade 443e
00000240: 2dbc d9be 1720 413e 4004 283e 1a76 6fbd
00000250: 5d83 7bbd 0dda dd3e 9233 8d3d def8 4ebe
00000260: e036 4fbe 5285 31be 0cbc b6bd aff1 a73e
00000270: c40a a6bd 99dc 09bd f440 15bf ef14 87be
00000280: 3c23 313e 9311 593d 580e a0be 8210 d73d
00000290: 8a67 173f 4db4 7d3e b3c6 b63e 2be9 ea3e
000002a0: e17b 0f3f 1660 38be fb41 3cbe da92 503e
000002b0: 511d a5bd ed49 e0be 95e5 b43e a0e3 fbbe
000002c0: f9b6 ae3c dc45 6d3e 46c8 3bbe 8871 20be
000002d0: ed7b 7c3e 7e65 17be a7c4 b1be fa6f 213e
000002e0: 196b 403e e313 0b3e 3985 5fbe 9664 913e
000002f0: ece7 85bd b68a af3d 4a14 b43b a9f0 20bd
00000300: 6466 5dbf 64d0 0c3c 9bef c93e 9d90 943d
00000310: 07a5 19bd 5b36 813e af99 f3be d59d ad3e
00000320: c2f9 fcbc b03d d43d 7981 2a3e 0b4c 02be
00000330: ed23 a8be 9c73 2e3e 703d 413c a1e5 f83d
00000340: ddd6 303e 5236 8e3e 55eb f93d 2133 0a3e
00000350: 96ab e6be 89b1 a63e 6a3f a83c 7a30 313f
00000360: 2ae0 3ebd 30eb bb3e 9236 d7bc 8bee 943e
00000370: d2fc cfbd e8d5 d53b 4f9c 403e aec8 d8bd
00000380: cc52 90be 8af3 7fbe 41cf 773d ea65 fcbe
00000390: ddb7 d4bd 9338 9b3e 04b5 df3e 7bdf 7e3e
000003a0: f2b4 753f 9705 06bf 9c95 5dbe e1f9 c5bd
000003b0: 4ba1 5cbe 6b2a b1bc a993 903e b13c 2abd
000003c0: 00e7 42be 4542 a3bc 1188 8a3e 8772 49bd
000003d0: bf8b 90be 5791 9d3b c7a3 2cbf 9bd3 993e
000003e0: 4f52 07be 321e 773d acc1 fabd 45ae e23d
000003f0: 6477 b8be c8a1 27bc 35e5 fabe 23f2 06bf

arith.constant2 f4 [48, 48]
-0.30331016 -0.19997522 0.33793914 0.79006964 0.70939136 -0.81649834 0.8463405 0.22532678
-0.41379663 -0.62022644 0.07875098 -0.26986256 0.8075074 -0.53238016 0.44980943 -0.002406279
0.06931451 -0.22357784 -0.4237626 0.6680818 -0.67842335 -0.09507665 -0.2524555 -0.06530357
1.1323073 0.43460298 -0.45330387 -1.2265673 0.3985549 0.77523285 0.5858492 -0.012812076
0.6191322 0.574763 2.002273 0.1051696 -0.2811075 -0.73935395 0.6800101 -0.37974438
0.6418739 -0.0029109842 0.11592932 -0.39335403 1.313477 -0.51180696 0.016640805 1.6658039
-0.2395445 0.25382656 0.16617484 -0.6736832 0.35357767 0.1137625 -0.40084237 0.40010986
-0.27580538 0.030727733 0.29680803 -0.26746273 0.5469287 -0.24767889 -0.26440105 -0.74751234
-0.1904533 0.35554078 0.064416446 -0.08526183 0.53360325 -0.09424494 -0.46779922 -0.18530127
0.24285683 -0.75961685 -0.25914514 0.4357846 0.4280738 -0.44885176 -0.59560245 0.3515766
0.021481065 -0.287371 -0.22259222 0.0061167944 -0.8167203 -0.27019536 0.38069594 0.75455856
-0.28307137 -0.16829118 0.2900399 0.017052555 -0.7187126 0.9838491 0.41942784 0.026524512
-0.946721 -0.1550037 0.36444014 0.17700884 -0.036066953 -0.22922602 -0.0944357 -0.3617915
-0.30230752 -0.052996293 -1.2651466 -0.14769995 -0.5494619 0.18128233 -0.14197141 0.686395
0.054287765 -0.45988107 0.3215882 0.10183043 -0.34111455 0.85159653 0.13935322 -0.35082027
-0.29039896 -0.52053756 0.3022113 0.81620055 -0.5921907 -0.14715984 0.036784545 -0.96855444
-0.12365643 0.08432537 0.106728055 -0.4133562 0.654823 -0.18267961 0.38943326 0.44961664
0.20065846 -1.1414286 0.6419064 0.11313464 0.1815778 0.015298191 0.4843438 -0.3950743
-0.29999804 0.7905128 -0.005031596 0.6521153 0.13648109 -0.030904705 0.12918194 -0.03923577
-0.5705878 -0.12962276 0.27855372 0.45713675 0.8058029 -0.8952569 0.42720136 0.3050037
-0.36952835 -0.66717947 -0.18130289 -0.1849618 -0.7296893 -0.22908878 -0.2568346 0.1760951
0.009404909 0.41930965 -0.17852435 -0.6962207 0.8475694 0.19710612 -0.77221125 -0.14764673
-0.18839678 0.27607086 0.5381888 -0.3333073 0.494053 0.22938518 0.19936657 0.73945296
0.29088506 0.108229466 -0.34739497 0.5942862 -0.44980532 -0.42503682 0.46541572 0.25982407
0.18379937 -0.070777364 -0.44243607 0.19815114 -0.36422184 1.2929382 0.7420179 0.18391618
-0.0001557816 -0.034116056 0.32435834 -0.12626003 0.33698377 0.19631255 -0.03617241 0.23196743
-0.23486815 0.42154658 0.31236133 0.2980157 -0.55281824 0.44340098 0.05527739 -0.40862298
0.3946095 -0.73061687 -0.26653048 0.94992894 -1.111771 -0.19970523 0.73205626 -0.03888315
0.19693103 0.14896518 0.21112207 0.7683904 0.06856759 0.2010685 -0.0086995615 -0.13388555
-0.049371097 0.41998 0.018590273 0.15199882 0.34028536 0.15968049 0.0418516 -0.16511066
0.67115015 0.21589814 -0.26311535 -0.33075252 -0.14045143 0.30682376 0.51702857 0.020053271
0.42043036 0.19509414 0.5454538 -1.2593539 0.4202311 -0.053513497 0.4025153 0.10342799
00000000: 784b 9bbe 4ec6 4cbe 5c06 ad3e 0142 4a3f
00000010: ac9a 353f 0906 51bf c5a9 583f 10bc 663e
00000020: 27dd d3be 29c7 1ebf 3248 a13d 6d2b 8abe
00000030: ceb8 4e3f 114a 08bf 6c4d e63e aab2 1dbb
00000040: c4f4 8d3d 97f1 64be 69f7 d8be 6907 2b3f
00000050: 27ad 2dbf 8cb7 c2bd d941 81be e1bd 85bd
00000060: 72ef 903f 4884 de3e 7217 e8be 2800 9dbf
00000070: 630f cc3e a975 463f 37fa 153f bee9 51bc
00000080: 737f 1e3f ab23 133f 3e25 0040 2963 d73d
00000090: 52ed 8fbe 4d46 3dbf 2415 2e3f db6d c2be
000000a0: d951 243f 36c6 3ebb 5a6c ed3d b365 c9be
000000b0: 0420 a83f c805 03bf 4c52 883c 1039 d53f
000000c0: 274b 75be 8ef5 813e bd29 2a3e 8176 2cbf
000000d0: 2208 b53e 50fc e83d 363b cdbe 33db cc3e
000000e0: 5d36 8dbe bab8 fb3c 39f7 973e e0f0 88be
000000f0: 8503 0c3f 899f 7dbe 935f 87be f85c 3fbf
00000100: 3106 43be 7109 b63e c5ec 833d c19d aebd
00000110: 399a 083f 7e03 c1bd 6183 efbe 9ebf 3dbe
00000120: 76af 783e 4076 42bf acae 84be 291f df3e
00000130: 7d2c db3e e6cf e5be 6779 18bf d901 b43e
00000140: 0ff9 af3c 4b22 93be 37ef 63be 646f c83b
00000150: 9514 51bf 0c57 8abe 94ea c23e c02a 413f
00000160: bbee 90be 8654 2cbe 1c80 943e cdb1 8b3c
00000170: 8dfd 37bf 89dd 7b3f 3fbf d63e ef49 d93c
00000180: 4f5c 72bf 4ab9 1ebe e697 ba3e ce41 353e
00000190: f1ba 13bd 3aba 6abe 8167 c1bd bc3c b9be
000001a0: 0dc8 9abe a412 59bd 53f0 a1bf a83e 17be
000001b0: 89a9 0cbf 13a2 393e f460 11be 95b7 2f3f
000001c0: d95c 5e3d 8875 ebbe 35a7 a43e 798c d03d
000001d0: 91a6 aebe 3b02 5a3f 9cb2 0e3e b79e b3be
000001e0: 2caf 94be f341 05bf 71bb 9a3e 85f2 503f
000001f0: cf99 17bf 12b1 16be 64ab 163d 2ff3 77bf
00000200: 953f fdbd c8b2 ac3d 3d94 da3d 6da3 d3be
00000210: 7ba2 273f 5d10 3bbe cc63 c73e 2734 e63e
00000220: 6979 4d3e 551a 92bf fa53 243f 22b3 e73d
00000230: 88ef 393e 44a5 7a3c e9fb f73e 2e47 cabe
00000240: 5899 99be 0c5f 4a3f 16e0 a4bb 07f1 263f
00000250: b3c1 0b3e dd2b fdbc 4548 043e b0b5 20bd
00000260: 0b12 12bf d4bb 04be 989e 8e3e d40d ea3e
00000270: 1949 4e3f 8e2f 65bf 23ba da3e 7229 9c3e
00000280: d232 bdbe 46cc 2abf 77a7 39be a066 3dbe
00000290: ebcc 3abf 4096 6abe d37f 83be 4652 343e
000002a0: 0c17 1a3c c1af d63e 16cf 36be 853b 32bf
000002b0: 4ffa 583f 30d6 493e a3af 45bf b430 17be
000002c0: 16eb 40be 2959 8d3e bec6 093f 41a7 aabe
000002d0: 84f4 fc3e f3e3 6a3e c026 4c3e ca4c 3d3f
000002e0: e3ee 943e 69a7 dd3d c1dd b1be 2423 183f
000002f0: e24c e6be 6d9e d9be f84a ee3e a907 853e
00000300: e735 3c3e b9f3 90bd fb86 e2be 22e8 4a3e
00000310: 497b babe 007f a53f e3f4 3d3f 8654 3c3e
00000320: 4e59 23b9 47bd 0bbd 4c12 a63e 4f4a 01be
00000330: 2389 ac3e 2806 493e 8529 14bd df88 6d3e
00000340: 4781 70be f4d4 d73e d3ed 9f3e 8495 983e
00000350: 7f85 0dbf 7405 e33e 8b6a 623d 0837 d1be
00000360: 420a ca3e b509 3bbf af76 88be 8b2e 733f
00000370: 834e 8ebf 877f 4cbe 0a68 3b3f f043 1fbd
00000380: 4aa8 493e 548a 183e 6230 583e 3cb5 443f
00000390: 2a6d 8c3d e7e4 4d3e 9b88 0ebc 4b19 09be
000003a0: 5939 4abd 9e07 d73e a14a 983c 94a5 1b3e
000003b0: e239 ae3e 4883 233e 956c 2b3d c512 29be
000003c0: 7fd0 2b3f 6714 5d3e 0eb7 86be 6558 a9be
000003d0: 80d2 0fbe 0118 9d3e fc5b 043f c246 a43c
000003e0: a642 d73e c2c6 473e dca2 0b3f 8232 a1bf
000003f0: 8828 d73e f830 5bbd 7c16 ce3e 0ed2 d33d

arith.constant3 f4 [48, 48]
0.8105313 -0.35464862 -0.31650004 0.58275473 0.08896586 -0.3754071 0.5391632 0.16426067
0.24052039 0.7911857 0.110175505 0.61720514 -0.06520426 0.42985383 0.02804395 0.4397808
0.07563129 0.5773807 -0.41213518 -0.3189208 1.311104 -0.5990798 0.090642445 -0.13867624
0.06307371 -0.03684678 -0.24398255 -0.20578161 0.330929 -0.63493407 -0.2839927 -0.50855976
0.14798382 0.07723173 0.76011366 -0.6282251 -0.24220702 -0.7159035 0.47778663 0.26579168
-0.7292866 -0.36486387 0.002233323 0.4441953 -0.05957505 0.43765655 0.09209483 0.870857
-0.6525973 -0.38783535 -0.51762104 0.9140128 -1.2591414 0.15268305 0.92108446 0.7741353
0.14088732 -0.8916831 0.09802805 0.79895914 -0.5534517 0.73411703 -0.7782661 0.57255405
-0.46813974 -0.60239303 -0.766754 0.5695113 -0.592914 0.0082485555 0.26380393 0.05731539
0.17965177 -0.099591926 0.51484203 0.30564025 -0.66150105 -0.08683244 0.3877087 -1.0458226
-0.17064047 0.15077527 0.03014182 0.06040914 0.05965718 -0.8390968 0.4484869 0.18159372
-0.5449865 0.5962457 0.12233693 0.038017236 -0.05375514 -0.7055631 0.15998118 0.2577342
-0.3893423 0.55383116 0.68699706 0.3545748 -0.8827899 0.17197943 -0.18255122 0.41979426
-1.019489 -0.5113865 0.051663045 -0.94164914 -0.45454127 -0.35315776 0.25609785 -0.54260945
-0.17394674 -1.5108082 0.39029503 1.4244236 -0.14776412 -0.9488313 0.5162251 -0.23171633
-0.45614117 0.36301568 -0.13789691 0.24552141 0.13317081 -0.09928691 -0.71304405 -0.024810344
1.4683952 0.60319036 0.7769143 -0.9153118 -0.5930521 -1.48401 -0.66805506 0.18634129
-0.38834676 -0.1956292 0.98171985 -0.51642156 0.33014196 -0.4383304 -0.9218034 0.0066059274
-0.0064771175 -0.09613075 0.7124312 -0.88674587 -0.5208508 0.13829407 -0.3373571 -1.046101
1.0887648 0.65911293 -0.13677283 0.9176815 -0.13550776 -0.13037106 0.103554636 -0.278863
-0.5882145 -0.3224405 0.04442539 0.1232576 0.6010455 0.2732777 -0.24350052 -0.43992662
0.32744405 -0.23789193 -0.80797607 -0.39766613 0.11874851 0.65291935 -0.5857114 -0.044850234
-0.464632 0.08594998 0.16072378 -0.0763796 0.64204895 0.30440894 -0.33512047 0.124787435
-0.14955272 0.6712879 0.09512672 0.5897242 0.5668614 0.9012773 -0.6021443 -0.18728265
-0.9001258 0.30436045 -0.10179546 1.4235001 -0.2738432 0.2568391 -1.0262508 -1.0536475
-0.030533994 -0.31285754 -0.15158208 1.0462413 -0.7191482 -0.45056212 -1.0762312 -0.8182919
-1.0286461 -1.67493 -0.14081194 -0.3517861 -0.8933942 -0.3762169 -1.0710245 0.21486412
0.116594665 0.05915251 0.51527387 0.28414458 0.18480606 -0.020528857 0.5694454 0.17487182
0.8397334 0.4090601 -0.3925242 -0.007946046 -0.4294009 -0.11082874 -0.013881942 0.043038044
-0.11482091 1.2668332 0.6014899 0.504057 -0.054376647 -0.731905 0.22478591 0.11276724
-0.14371951 0.17738368 -1.0963906 0.02335918 -0.8953926 -0.9873644 0.22424755 -0.094000086
-0.1437496 -0.59681934 0.17259032 0.62392277 0.23703636 0.6092729 0.7247804 0.7341554
00000000: fb7e 4f3f 8194 b5be 4b0c a2be 6a2f 153f
00000010: bc33 b63d 5c35 c0be 9906 0a3f f333 283e
00000020: fa4a 763e 258b 4a3f b2a3 e13d 2801 1e3f
00000030: d089 85bd cd15 dc3e 6dbc e53c f32a e13e
00000040: 94e4 9a3d 39cf 133f 6203 d3be 9649 a3be
00000050: 42d2 a73f 4b5d 19bf bfa2 b93d 2501 0ebe
00000060: ca2c 813d a6ec 16bd 90d6 79be 6ab8 52be
00000070: 876f a93e 0a8b 22bf 7e67 91be f930 02bf
00000080: 1289 173e ab2b 9e3d cf96 423f 5cd3 20bf
00000090: 1e05 78be 7445 37bf 73a0 f43e d915 883e
000000a0: 87b2 3abf 70cf babe f15c 123b 916d e33e
000000b0: f804 74bd 8514 e03e 379c bc3d 7cf0 5e3f
000000c0: 9e10 27bf 5b92 c6be d082 04bf befc 693f
000000d0: 8c2b a1bf f258 1c3e 31cc 6b3f bb2d 463f
000000e0: c444 103e 5845 64bf eec2 c83d 9688 4c3f
000000f0: 03af 0dbf 18ef 3b3f 723c 47bf e792 123f
00000100: 03b0 efbe 6e36 1abf fd49 44bf 7ecb 113f
00000110: 36c9 17bf f324 073c 4f11 873e 8bc3 6a3d
00000120: a2f6 373e daf6 cbbd b0cc 033f e17c 9c3e
00000130: 2258 29bf 35d5 b1bd c181 c63e 84dd 85bf
00000140: 60bc 2ebe d564 1a3e faeb f63c 936f 773d
00000150: 165b 743d 0ccf 56bf 13a0 e53e b4f3 393e
00000160: 3c84 0bbf 8fa3 183f c98b fa3d f6b7 1b3d
00000170: 5a2e 5cbd c99f 34bf 1bd2 233e bdf5 833e
00000180: e057 c7be e1c7 0d3f 0adf 2f3f d48a b53e
00000190: 85fe 61bf 601b 303e b5ee 3abe 46ef d63e
000001a0: 9e7e 82bf 3aea 02bf a19c 533d eb0f 71bf
000001b0: a2b9 e8be 18d1 b4be 421f 833e 74e8 0abf
000001c0: 181f 32be 2a62 c1bf c0d4 c73e 8353 b63f
000001d0: 7a4f 17be 9ce6 72bf 5427 043f 0c47 6dbe
000001e0: 568b e9be 31dd b93e d934 0dbe f769 7b3e
000001f0: ee5d 083e ef56 cbbd 0e8a 36bf 103f cbbc
00000200: 60f4 bb3f af6a 1a3f dbe3 463f e051 6abf
00000210: 43d2 17bf 0af4 bdbf a805 2bbf 40d0 3e3e
00000220: 63d5 c6be 0553 48be fe51 7b3f 3434 04bf
00000230: 5e08 a93e d86c e0be 4ffb 6bbf 8976 d83b
00000240: 003e d4bb 33e0 c4bd e461 363f c701 63bf
00000250: 7a56 05bf f69c 0d3e 12ba acbe a3e6 85bf
00000260: a55c 8b3f a0bb 283f 2d0e 0cbe 2ded 6a3f
00000270: 8cc2 0abe fe7f 05be 7414 d43d 22c7 8ebe
00000280: 3a95 16bf ec16 a5be 66f7 353d 7b6e fc3d
00000290: 1ede 193f 0eeb 8b3e 3358 79be 103e e1be
000002a0: bfa6 a73e f199 73be 85d7 4ebf e59a cbbe
000002b0: 6b32 f33d b925 273f 2ff1 15bf e1b4 37bd
000002c0: 3fe4 edbe 8b06 b03d c694 243e e86c 9cbd
000002d0: 525d 243f 7ddb 9b3e e994 abbe 8e90 ff3d
000002e0: 5924 19be 86d9 2b3f ccd1 c23d 2af8 163f
000002f0: d41d 113f 1cba 663f 2126 1abf 06c7 3fbe
00000300: a56e 66bf 22d5 9b3e 237a d0bd 4035 b63f
00000310: 2d35 8cbe 6a80 833e 305c 83bf ecdd 86bf
00000320: 6d22 fabc dd2e a0be 5538 1bbe 3ceb 853f
00000330: 191a 38bf 14b0 e6be f2c1 89bf 947b 51bf
00000340: adaa 83bf 1b64 d6bf 0131 10be 4f1d b4be
00000350: 7bb5 64bf 809f c0be 5517 89bf 5705 5c3e
00000360: 2fc9 ee3d e749 723d fde8 033f 667b 913e
00000370: cd3d 3d3e 222c a8bc 2cc7 113f 9911 333e
00000380: c5f8 563f 5370 d13e eff8 c8be 2230 02bc
00000390: 6fda dbbe 2efa e2bd 1671 63bc a948 303d
000003a0: 3a27 ebbd 9727 a23f 3efb 193f e109 013f
000003b0: 0cba 5ebd 205e 3bbf 472e 663e 83f2 e63d
000003c0: 352b 13be 11a4 353e 8756 8cbf c05b bf3c
000003d0: 7338 65bf eac3 7cbf 26a1 653e 1e83 c0bd
000003e0: 1833 13be 27c9 18bf 84bb 303e 67b9 1f3f
000003f0: a9b9 723e 4ff9 1b3f 358b 393f 9cf1 3b3f

arith.constant4 f4 [48]
-0.25842252 0.19933416 0.029280197 0.59552455 0.3665833 0.81301737 0.60830235 0.3215692
0.41908252 0.08456596 0.14236324 0.17545046 0.42865145 0.24990827 0.3833438 0.49601865
0.7715218 0.04014114 0.20641221 0.105510585 0.663741 0.26582366 0.4236341 0.41820472
1.1503259 0.74931824 -0.2447144 -0.08561067 0.030005258 0.48692945 0.43659288 0.49408552
0.21451655 0.11395189 0.64229727 0.5240882 -0.07222333 0.2806317 1.216553 0.0941457
0.28602403 0.54251957 -0.033274565 0.16002947 0.38578662 0.27318996 0.82935125 0.6950552
00000000: f54f 84be 411e 4c3e 06dd ef3c 4c74 183f
00000010: ceb0 bb3e e821 503f b4b9 1b3f b8a4 a43e
00000020: fc91 d63e eb30 ad3d abc7 113e 49a9 333e
00000030: 3478 db3e f4e7 7f3e a345 c43e 28f6 fd3e
00000040: 7482 453f 096b 243d b95d 533e ef15 d83d
00000050: eeea 293f 0a1a 883e 92e6 d83e ee1e d63e
00000060: e13d 933f 52d3 3f3f 6996 7abe a654 afbd
00000070: 96cd f53c d14e f93e 1a89 df3e c7f8 fc3e
00000080: 3aaa 5b3e 9c5f e93d 986d 243f a52a 063f
00000090: d3e9 93bd f5ae 8f3e 02b8 9b3f 76cf c03d
000000a0: be71 923e 90e2 0a3f e94a 08bd c4de 233e
000000b0: d385 c53e 8edf 8b3e 5d50 543f 23ef 313f

arith.constant5 f4 [48]
0.01775305 0.08945545 -0.16056381 -0.01880745 -0.11753622 -0.016276278 -0.009551924 0.8481321
-0.10738485 -0.595555 0.1752274 0.24362358 -0.08946806 -0.015554253 -0.0070935097 0.039736222
0.06433948 -0.11614885 0.18563388 -0.20971793 0.017774358 -0.10810704 0.058527358 0.09877631
0.1191089 -0.21185707 0.22839852 0.13628735 -0.12393581 0.12704898 -0.03611162 -0.09607036
0.094720125 0.053651627 -0.20629875 -0.04219315 -0.41205996 -0.008845717 0.16760045 -0.05908593
-0.2558081 0.12415852 0.2242475 -0.08818819 0.10991817 0.0060188975 0.22869943 -0.050500818
00000000: d86e 913c 6b34 b73d d76a 24be 1512 9abc
00000010: d4b6 f0bd d455 85bc ac7f 1cbc 2f1f 593f
00000020: 97ec dbbd 4b76 18bf d06e 333e 7678 793e
00000030: 083b b7bd 44d7 7ebc ac70 e8bb 73c2 223d
00000040: 6bc4 833d 73df edbd cf16 3e3e 4cc0 56be
00000050: 889b 913c 3967 ddbd 62ba 6f3d 3c4b ca3d
00000060: 5eef f33d 0ff1 58be 4de1 693e e98e 0b3e
00000070: 0fd2 fdbd 2119 023e c7e9 13bd 89c0 c4bd
00000080: a0fc c13d cfc1 5b3d fb3f 53be b9d2 2cbd
00000090: 86f9 d2be a0ed 10bc 749f 2b3e 1704 72bd
000000a0: 47f9 82be d246 fe3d 23a1 653e 029c b4bd
000000b0: c71c e13d 2c3a c53b 2f30 6a3e f2d9 4ebd

arith.constant6 f4 [48]
1.3179101 0.8501666 1.2948622 0.9410969 1.157963 0.60932994 1.3204058 1.273355
1.482827 1.239186 1.4778973 0.8323229 1.0397848 0.81757987 0.8982093 1.3007945
0.8652656 1.0129926 1.4048587 0.57741904 1.0372397 1.2079871 0.85205215 1.2236456
1.026113 0.6573606 1.0383185 1.0933249 1.6986628 1.6363804 0.9898319 0.9082335
0.9220852 1.2580599 0.8965934 0.89544576 1.5082587 1.1489862 1.6416286 0.7927785
1.8262748 0.75745064 1.4058665 1.0144206 1.1345935 1.0141943 1.5614352 0.8734272
00000000: 47b1 a83f 85a4 593f 0bbe a53f baeb 703f
00000010: 2238 943f 0cfd 1b3f 0f03 a93f 4cfd a23f
00000020: 46cd bd3f a69d 9e3f bd2b bd3f 1d13 553f
00000030: ab17 853f ea4c 513f 0bf1 653f 6f80 a63f
00000040: 0c82 5d3f bea9 813f 69d2 b33f bcd1 133f
00000050: 45c4 843f 529f 9a3f 1720 5a3f 6ba0 9c3f
00000060: ac57 833f c948 283f 9fe7 843f 12f2 8b3f
00000070: c86d d93f ea74 d13f a065 7d3f fe81 683f
00000080: c70d 6c3f 1b08 a13f 2587 653f ef3b 653f
00000090: 9f0e c13f fb11 933f e320 d23f 88f3 4a3f
000000a0: 5fc3 e93f 49e8 413f 6ff3 b33f 89d8 813f
000000b0: 5c3a 913f 1ed1 813f 1cdd c73f ed98 5f3f

arith.constant7 f4 [48]
0.20017499 -0.14223869 0.8827107 0.10667923 0.23999065 0.25785118 -0.2105872 -0.18638398
-0.19824235 0.049951352 0.8030936 0.54152393 1.3817333 0.5980733 -0.1140311 0.508999
-0.04049147 0.029496497 0.13918442 0.47638422 -0.3235938 0.29788762 0.41789913 0.08408219
-0.108778566 1.0263002 0.16891512 0.11946594 0.15135428 -0.12702326 0.7693603 0.6839158
0.19974962 0.7380787 0.40111867 0.39598858 0.03610833 0.09946885 -0.3150233 1.0061617
0.025789205 0.1760153 0.0101239765 0.67301583 0.5260225 0.4934532 0.36890697 0.39530706
00000000: acfa 4c3e 05a7 11be 54f9 613f a47a da3d
00000010: 1cc0 753e 1205 843e 2ca4 57be 71db 3ebe
00000020: 0b00 4bbe ca99 4c3d 8b97 4d3f 50a1 0a3f
00000030: a3dc b03f 551b 193f 2389 e9bd c24d 023f
00000040: 62da 25bd a3a2 f13c 5c86 0e3e a2e8 f33e
00000050: 16ae a5be ba84 983e e0f6 d53e 4933 ac3d
00000060: 4cc7 debd ce5d 833f 16f8 2c3e 8faa f43d
00000070: 9efc 1a3e 6312 02be ccf4 443f 1b15 2f3f
00000080: 2a8b 4c3e baf2 3c3f 6d5f cd3e 04bf ca3e
00000090: 54e6 133d 53b6 cb3d bc4a a1be e8c9 803f
000000a0: e243 d33c 5b3d 343e 09df 253c c44a 2c3f
000000b0: 69a9 063f e6a5 fc3e 60e1 bc3e b065 ca3e

arith.constant8 f4 [48, 6]
-0.3910737 0.06217541 0.14555016 -0.97693616 -0.013785127 -1.018384 -0.07537876 -0.09192086
-0.1179244 0.6856867 1.1008648 -0.97905153 -0.24648094 -0.023251433 0.21030231 -0.57404894
0.28224397 -0.31955725 0.12968339 0.035221215 -0.2617396 0.06270256 0.49897543 0.5128933
-0.0077603688 -0.26462725 -0.91114736 -0.2572393 -1.3539771 -0.08073553 0.14718676 -0.016208567
-0.25142908 0.46654662 1.4868443 0.21787912 -0.16709912 0.09263682 0.077123545 2.0549781
-0.23830655 0.33537766 0.053798012 0.053531237 -0.099050164 -2.378911 -0.7118018 0.9964993
0.09570584 0.061493978 0.12981741 -0.022907378 -1.0612079 1.2249928 0.11111436 -0.09301787
-0.54211414 1.4707385 -0.6019225 -0.24252233 0.20424978 -0.036447536 0.21354021 -2.230679
1.5425409 0.8929928 -0.0066919858 -0.011082965 0.10203102 0.3381006 1.086424 -0.08775436
-0.07625749 -0.09499333 -0.041465715 -1.2849095 2.4760594 0.8885422 0.12899059 0.0028556394
0.0008422995 -0.766185 1.5466776 1.3613958 -0.08169549 0.019715356 0.1122057 -1.7238075
0.86543477 0.42909655 -0.038047124 0.022639079 0.009001672 -0.82821625 0.45623928 0.5043733
0.04039048 -0.002869086 -0.1178519 0.27519655 1.5063169 1.1726778 -0.033867408 0.45648304
-0.13625817 -0.21809565 -0.9936208 0.8135226 0.118840694 -0.18575725 0.2255465 1.461363
-0.81674385 -0.2403356 0.06112518 0.03985379 0.07675822 -0.97157055 0.45520964 0.37541857
0.1732691 -0.119141564 -0.26840955 -0.39271805 0.46912828 -1.5371271 -0.1771245 0.19133735
0.13757002 -0.6410122 0.41115066 1.0674244 0.2929922 0.05411272 0.07868841 0.10981036
-1.6659913 -0.25191236 0.14674775 -0.31699827 0.17974806 0.22278075 2.2241619 -0.6754065
-0.06987657 -0.0036037609 0.020753086 -0.95697784 -1.2391543 1.6675555 0.1764661 -0.08641058
-0.09253355 -1.321405 0.6098588 1.9227172 0.026938936 0.0065205814 -0.03589868 2.2378142
-4.1104393 1.7444791 -0.17967238 -0.111192115 0.15181457 -1.031773 1.960337 0.10851765
0.11327536 0.09886899 0.23442346 -0.29604858 0.73491657 1.9673795 0.05372549 0.18815288
0.19811396 -0.9417611 -2.4230137 0.74275297 0.08143041 0.012933481 -0.13809876 -1.5732656
2.4902947 1.1616544 -0.34854808 0.087375626 0.046230096 -0.7889214 0.8406155 -0.61876166
0.13186313 0.28926656 -0.19629306 1.5424913 -0.49687403 0.0059904163 0.2277183 -0.0058401343
0.24103281 1.6837543 0.8737986 -1.1164141 -0.13062654 -0.062847845 0.2394906 0.53045994
1.0395994 -0.40216023 -0.38930285 0.074838646 0.017065605 -0.7890009 -0.95434284 1.3963991
0.040300056 -0.007896298 -0.10247382 -0.5205442 -0.43735886 1.3897135 -0.0613585 -0.06958286
0.033376038 -0.5102963 1.4618406 -0.68603754 0.04091758 0.014545448 -0.0667471 0.08447563
2.356826 0.1026991 0.28295463 -0.20011891 0.050217737 0.11389978 1.5736053 0.20804356
-0.0419986 -0.0307031 -0.032308996 0.8556294 -1.4706652 0.8073339 0.01577066 0.14793621
0.29324433 -0.9831535 -0.30611718 0.63486165 0.21598588 -0.26057243 0.14622277 0.21549815
00000000: d03a c8be a5ab 7e3d 1a0b 153e 7d18 7abf
00000010: 03db 61bc 685a 82bf 2e60 9abd 0141 bcbd
00000020: 5982 f1bd 2a89 2f3f 23e9 8c3f 1fa3 7abf
00000030: 8065 7cbe ca79 bebc 7d59 573e dff4 12bf
00000040: 4882 903e 029d a3be b9cb 043e 1f44 103d
00000050: bc02 86be 336a 803d b579 ff3e fa4c 033f
00000060: b14a febb 397d 87be f440 69bf dfb4 83be
00000070: 1f4f adbf ab58 a5bd 20b8 163e d4c7 84bc
00000080: 50bb 80be 33df ee3e ea50 be3f b41b 5f3e
00000090: 081c 2bbe 60b8 bd3d f3f2 9d3d c384 0340
000000a0: a206 74be 9fb6 ab3e 4e5b 5c3d 9243 5b3d
000000b0: d0da cabd 1440 18c0 a538 36bf 941a 7f3f
000000c0: 6c01 c43d 1ce1 7b3d dbee 043e 41a8 bbbc
000000d0: a9d5 87bf 90cc 9c3f ed8f e33d 2780 bebd
000000e0: fec7 0abf 2941 bc3f 9817 1abf c657 78be
000000f0: db26 513e 034a 15bd 49aa 5a3e 72c3 0ec0
00000100: fb71 c53f 2d9b 643f 7248 dbbb 5395 35bc
00000110: a4f5 d03d 861b ad3e f10f 8b3f 8fb8 b3bd
00000120: e32c 9cbd dd8b c2bd f4d7 29bd ea77 a4bf
00000130: c277 1e40 8077 633f 1c16 043e ae25 3b3b
00000140: c3cd 5c3a b324 44bf 88f9 c53f 3842 ae3f
00000150: f74f a7bd 1982 a13c 1acc e53d b9a5 dcbf
00000160: 228d 5d3f 8bb2 db3e 4dd7 1bbd 9775 b93c
00000170: c07b 133c fb05 54bf 3298 e93e 9c1e 013f
00000180: 7d70 253d 4707 3cbb 565c f1bd 90e6 8c3e
00000190: fece c03f 4e1a 963f 8db8 0abd 25b8 e93e
000001a0: 4387 0bbe 7754 5fbe ef5d 7ebf 0443 503f
000001b0: c062 f33d 2637 3ebe a9f5 663e f10d bb3f
000001c0: 2016 51bf 891a 76be 665e 7a3d ba3d 233d
000001d0: 6a33 9d3d d9b8 78bf 3d11 e93e dd36 c03e
000001e0: 746d 313e 7e00 f4bd fa6c 89be 5712 c9be
000001f0: 9531 f03e 95c0 c4bf 2060 35be f0ed 433e
00000200: 28df 0c3e 6019 24bf 5782 d23e 5da1 883f
00000210: 1303 963e 4da5 5d3d 6427 a13d 41e4 e03d
00000220: 343f d5bf a8fa 80be 0b45 163e 994d a2be
00000230: e00f 383e a320 643e ab58 0e40 71e7 2cbf
00000240: 721b 8fbd 132d 6cbb 6002 aa3c 80fc 74bf
00000250: 9c9c 9ebf 7572 d53f 88b3 343e 08f8 b0bd
00000260: 3b82 bdbd cd23 a9bf b51f 1c3f 991b f63f
00000270: 0baf dc3c 9aaa d53b 7f0a 13bd 5938 0f40
00000280: b888 83c0 174b df3f 09fc 37be b1b8 e3bd
00000290: 4775 1b3e 2311 84bf 53ec fa3f 803e de3d
000002a0: e9fc e73d d37b ca3d b40c 703e ae93 97be
000002b0: 7e23 3c3f 17d3 fb3f 420f 5c3d 26ab 403e
000002c0: 63de 4a3e 4117 71bf a812 1bc0 0f25 3e3f
000002d0: fdc4 a63d f3e6 533c c369 0dbe c460 c9bf
000002e0: fd60 1f40 17b1 943f e574 b2be fef1 b23d
000002f0: c55b 3d3d c1f6 49bf 9432 573f 2a67 1ebf
00000300: 2107 073e bf1a 943e 0c01 49be 5b70 c53f
00000310: 4666 febe 414b c43b fc2e 693e 995e bfbb
00000320: 4ed1 763e 4385 d73f 44b1 5f3f a8e6 8ebf
00000330: f7c2 05be 5fb6 80bd 063d 753e 39cc 073f
00000340: 9811 853f f2e7 cdbe b452 c7be 0145 993d
00000350: 2bcd 8b3c f7fb 49bf d04f 74bf 35bd b23f
00000360: ac11 253d 795f 01bc cbdd d1bd 6242 05bf
00000370: 80ed dfbe 22e2 b13f 0d53 7bbd 7581 8ebd
00000380: 50b5 083d c7a2 02bf 981d bb3f 28a0 2fbf
00000390: 3199 273d 0850 6e3c b4b2 88bd 8f01 ad3d
000003a0: 3dd6 1640 e853 d23d 6edf 903e f9eb 4cbe
000003b0: 1db1 4d3d 4a44 e93d e66b c93f 5f09 553e
000003c0: b906 2cbd 1185 fbbc 7056 04bd 870a 5b3f
000003d0: c23e bcbf 6fad 4e3f 7931 813c 977c 173e
000003e0: 1f24 963e f3af 7bbf 64bb 9cbe 4b86 223f
000003f0: 672b 5d3e c069 85be 6cbb 153e 8cab 5c3e

arith.constant9 f4 [48, 6]
-0.15154022 0.028478334 0.085916445 -1.2341459 0.4133509 -0.6159419 -0.13382585 0.029376391
-0.3189422 -0.34020758 1.8408962 0.46110567 -0.018648826 -0.15036961 -0.12049472 1.5474777
-0.01009401 -0.55000484 -0.09479012 0.057656813 -0.055189 -1.2653621 2.6213038 2.360016
-0.07586996 0.02852715 0.19071314 -0.30213964 -0.6190645 1.235114 -0.049834136 0.27401364
-0.22315331 -0.17823046 2.0703743 0.116268225 0.0030165236 0.0035548736 0.040213935 -0.8459099
0.12050156 1.6362237 -0.011088842 0.0032372829 0.0141206635 0.56856376 1.5175109 0.4518359
-0.20600715 0.18351004 -0.053153705 0.094383836 -0.43957406 -0.7625586 0.09577964 -0.113366194
-0.02920932 1.4629078 0.54937476 -1.379194 -0.10360458 0.22838739 0.06474616 -1.5576206
1.8520608 0.1343859 -0.008457533 0.0067575066 -0.10358371 1.0836755 1.7120243 0.3527006
-0.16356847 -0.13382202 -0.4349267 -0.1800398 0.13061225 0.4276556 0.097406834 -0.11251218
0.13122392 0.7115426 1.0808893 -0.48504102 0.17356768 -0.12511635 -0.06753801 -0.5923051
-0.8141968 -0.15659659 -0.29555315 0.033272192 0.12089263 1.3912042 0.9171366 -0.6745736
0.086297125 -0.08759922 0.22212857 1.5738447 -1.6493113 -0.8511523 -0.23554838 0.064457625
0.18626726 -0.6322597 0.0069620097 0.35620183 -0.009014447 -0.10020186 -0.0730752 1.466992
-0.5298905 -2.2543268 0.12057075 -0.24262807 -0.014888534 0.48547027 1.1042817 0.14810789
-0.15820715 -0.0336477 0.07517531 0.5296154 -0.9840541 -0.07959028 0.14887111 0.12730667
0.032708887 -0.41612333 2.0828001 1.4463967 -0.06968429 0.081886254 0.15520123 1.9641452
-0.20391506 0.03197236 -0.11287049 0.041047566 0.07325362 -0.984176 1.149098 -0.21906985
0.1752552 0.057470083 0.39807796 0.40891817 0.4794906 0.41553065 -0.007735953 0.012214475
0.04586595 1.9443189 1.0030204 -1.7023147 -0.17844583 -0.18543284 -0.014112733 -0.16034012
0.57701325 1.4615333 0.21797776 -0.18882611 0.14912647 0.104340866 0.82931614 1.897635
0.15101095 0.05020259 -0.1333046 0.13919145 -0.60803837 0.44576883 -0.0060411766 -0.04575463
-0.048481066 0.29311574 0.38260975 -0.1749189 0.17674501 -0.2558326 -0.20230876 0.009588856
-0.15787502 -0.34176427 0.12000838 -0.15123828 0.22411527 -1.1920836 -0.6367991 0.6490334
0.26345712 -0.11679247 -0.08510953 -2.1509726 1.8744873 0.6854197 0.133592 -0.071619436
0.008349077 0.45759255 0.5801434 -0.53436166 -0.1581411 -0.06145443 0.03114068 -0.24578927
0.7282599 0.4561479 0.09588853 0.14246991 -0.026294531 -0.40261582 1.6261929 0.7590758
0.013019184 0.0151670035 0.013467115 1.157539 -1.4520369 -0.7758341 -0.15654263 -0.0810102
0.11884796 1.3273721 -1.7885176 -1.0005884 -0.022339003 0.020076783 0.08696205 -1.182379
-1.5542935 -0.044614237 -0.038210075 0.15281232 0.19335397 -0.36015213 1.4424883 -0.47336414
-0.024962634 -0.0067606186 0.034418177 1.0719038 -1.8481283 -0.5863091 0.17522557 -0.13932742
-0.12672055 -0.535435 -1.7253848 -0.25684637 0.20939426 -0.039373707 0.21404369 1.2472354
00000000: 5c2d 1bbe 654b e93c f6f4 af3d 7ef8 9dbf
00000010: bba2 d33e 5eae 1dbf a509 09be c2a6 f03c
00000020: 644c a3be b02f aebe 7da2 eb3f 0b16 ec3e
00000030: 6cc5 98bc 7efa 19be f0c5 f6bd c013 c63f
00000040: 5961 25bc 1ecd 0cbf 5321 c2bd 8d29 6c3d
00000050: dc0d 62bd 63f7 a1bf 71c3 2740 810a 1740
00000060: b661 9bbd c5b1 e93c 4e4a 433e 0cb2 9abe
00000070: 037b 1ebf 3718 9e3f e11e 4cbd 844b 8c3e
00000080: 4d82 64be 0c82 36be 0381 0440 091e ee3d
00000090: deb0 453b e2f8 683b 5eb7 243d 8d8d 58bf
000000a0: 86c9 f63d c76f d13f f9ad 35bc 9828 543b
000000b0: 5b5a 673c 658d 113f cc3d c23f 0957 e73e
000000c0: 8af3 52be 0eea 3b3e b3b7 59bd 504c c13d
000000d0: da0f e1be 0a37 43bf 1e28 c43d 892c e8bd
000000e0: 6248 efbc 9040 bb3f d3a3 0c3f 6e89 b0bf
000000f0: a32e d4bd 62de 693e a299 843d 1d60 c7bf
00000100: 5410 ed3f 759c 093e 7791 0abc 136e dd3b
00000110: b223 d4bd e1b5 8a3f 9d23 db3f 2c95 b43e
00000120: 7e7e 27be a408 09be b6ae debe 5a5c 38be
00000130: 38bf 053e adf5 da3e 3c7d c73d c96c e6bd
00000140: 905f 063e a827 363f 955a 8a3f 4c57 f8be
00000150: babb 313e 801e 00be 5e51 8abd 4fa1 17bf
00000160: 346f 50bf db5a 20be be52 97be 6c48 083d
00000170: 8e96 f73d fb12 b23f 77c9 6a3f dbb0 2cbf
00000180: 8cbc b03d 3867 b3bd ac75 633e be73 c93f
00000190: a21c d3bf 1ee5 59bf 9833 71be 5c02 843d
000001a0: d8bc 3e3e c6db 21bf 9221 e43b 1660 b63e
000001b0: 55b1 13bc a236 cdbd 73a8 95bd 65c6 bb3f
000001c0: e7a6 07bf e446 10c0 cced f63d 7e73 78be
000001d0: 0aef 73bc 8f8f f83e 1a59 8d3f 98a9 173e
000001e0: 0e01 22be 2cd2 09bd 83f5 993d e094 073f
000001f0: f8ea 7bbf 3b00 a3bd ab71 183e ae5c 023e
00000200: c1f9 053d 1e0e d5be 994c 0540 8723 b93f
00000210: a3b6 8ebd fbb3 a73d 12ed 1e3e 1c69 fb3f
00000220: 1ccf 50be 73f5 023d a528 e7bd 7e21 283d
00000230: fe05 963d f5f2 7bbf a515 933f d953 60be
00000240: 1976 333e c065 6b3d e0d0 cb3e b95d d13e
00000250: cb7f f53e 6fc0 d43e e17d fdbb 391f 483c
00000260: efdd 3b3d 71df f83f f962 803f 73e5 d9bf
00000270: 81ba 36be 1be2 3dbe 1839 67bc 3330 24be
00000280: 24b7 133f 8613 bb3f 9035 5f3e a25b 41be
00000290: 9cb4 183e aab0 d53d 104e 543f b4e5 f23f
000002a0: 9da2 1a3e 3ba1 4d3d 0081 08be 3488 0e3e
000002b0: 67a8 1bbf d03b e43e 10f5 c5bb 3569 3bbd
000002c0: 1594 46bd 4413 963e 6de5 c33e f11d 33be
000002d0: a5fc 343e 7efc 82be 072a 4fbe 941a 1d3c
000002e0: fda9 21be bafb aebe f4c6 f53d 35de 1abe
000002f0: 797e 653e 3296 98bf 4405 23bf 0e27 263f
00000300: dae3 863e e430 efbd e84d aebd 89a9 09c0
00000310: 33ef ef3f aa77 2f3f 57cc 083e 36ad 92bd
00000320: 91ca 083c 9249 ea3e 4784 143f edcb 08bf
00000330: beef 21be a4b7 7bbd bd1a ff3c 2fb0 7bbe
00000340: 3e6f 3a3f 388c e93e 3561 c43d a2e3 113e
00000350: a167 d7bc a923 cebe 1727 d03f cb52 423f
00000360: 6a4e 553c 067f 783c 2da5 5c3c 3d2a 943f
00000370: 58dc b9bf 109d 46bf b64c 20be ade8 a5bd
00000380: 8f66 f33d 54e7 a93f 25ee e4bf 4813 80bf
00000390: 4900 b7bc 1178 a43c 2919 b23d 3258 97bf
000003a0: 17f3 c6bf 6bbd 36bd 2b82 1cbd d57a 1c3e
000003b0: 95fe 453e dc65 b8be 75a3 b83f c95c f2be
000003c0: 707e ccbc 2e88 ddbb 13fa 0c3d 2534 893f
000003d0: 788f ecbf 5a18 16bf 556e 333e d9ab 0ebe
000003e0: 08c3 01be 4512 09bf 69d9 dcbf 5e81 83be
000003f0: 736b 563e 5346 21bd 452e 5b3e 69a5 9f3f

arith.constant10 f4 [48, 6]
0.055663645 0.019927915 0.01547256 -0.3087604 3.186889 0.8275959 0.05030248 -0.028894477
0.12678844 -1.5911788 3.3633354 0.2767726 -0.06420527 0.0049100434 0.025983918 -0.15955918
-1.268746 1.8150002 -0.038071945 -0.030609792 -0.07487477 -0.10989466 1.0260528 0.15953276
-0.085142806 0.121033594 -0.02194788 -1.0167207 1.3347827 1.4230771 -0.012515646 -0.29490238
-0.26278144 -0.5838573 2.7201178 -0.20303726 -0.026631529 0.0088285105 0.07467618 -0.13768202
-1.5390801 1.2269783 -0.056455623 0.012581013 0.01785092 -1.4638544 -2.00349 1.7021873
-0.034334064 -0.035436377 -0.019536458 -0.97790104 -0.17657095 0.67697555 0.037077423 0.038092375
0.015976898 -0.2694267 1.263023 0.7187861 0.01497725 -0.029537942 0.03669138 -2.5226648
1.8528332 0.08086112 0.035426848 0.018505981 -0.07047587 -0.088049546 -0.87602794 0.7128299
0.06133788 -0.23556638 -0.28143537 -0.13828 0.09942383 -0.08718599 0.08117758 -0.014431767
0.012139474 -0.86579084 -0.25961623 0.18468423 -0.03747187 -0.015319463 0.042946618 -1.8472348
-1.6155968 4.4268446 0.16227031 0.08847093 0.13519336 -0.46090612 0.24252479 -0.111420885
-0.60232806 0.032064717 0.13949649 0.23059586 1.550019 -0.36520845 0.020079484 0.013714937
0.020184895 -1.8053328 0.9464646 0.3596562 -0.007973556 0.0018947542 0.007916136 0.56950545
-0.2161161 1.6447778 -0.63625884 -0.13203083 0.15827386 -0.5349493 -0.58476096 1.9638832
0.035574514 -0.01577199 -0.08213693 -0.37112555 0.35152707 0.01802098 -0.10798354 -0.015106021
0.15172681 0.33642218 -1.7929475 2.0374672 -0.05142406 -0.029879536 0.003733465 -1.4085047
-2.1185234 1.8123062 -0.0039256285 -0.016504392 -0.01153337 -1.2716616 0.5403229 -0.27424204
0.14777379 0.11504838 -0.009343038 0.67115796 -2.5910041 -0.87366116 0.16456918 0.09723758
0.13284467 -0.4809202 1.6761466 1.2121313 -0.005321672 -0.003764992 -0.04403665 0.68891686
-2.6994588 1.5851041 0.07090328 0.020079603 -0.008792772 -0.56387013 2.9338531 0.27340552
-0.014791568 0.007980433 0.06875399 0.0144206425 0.33370572 1.7041963 -0.008901898 -0.0067659677
-0.01425501 -2.0490174 -2.492223 0.7039302 0.048232228 0.03892265 -0.08173127 0.25246638
2.1892102 0.17867513 0.07892298 -0.2162472 -0.07939942 1.0713445 0.3605878 -0.45960805
0.14068942 0.04048886 0.06461625 0.1309711 1.0283548 -0.11816489 0.0039053322 -0.0046372893
-0.020927176 -0.27352506 0.19241174 1.292619 -0.111081235 0.03605141 0.16647255 0.06420493
-1.1054252 2.3855739 -0.017483328 -0.10667265 0.00853007 -1.1754968 2.0603263 -0.26441234
-0.04299417 -0.025046846 0.027394487 -0.0726997 -0.6854911 1.7883922 0.029329266 0.0051259957
0.014946096 -1.065674 -0.1472581 0.5909697 0.028091867 -0.02302337 -0.031679075 -2.0511327
1.1695573 1.9663544 0.123256914 0.12322631 -0.2273588 0.44774196 2.3133492 1.190931
-0.016019814 -0.006137026 -0.026367614 2.0290115 0.60225797 0.17912738 -0.08885838 0.2534599
0.37160853 -1.4028044 -0.15441999 -0.41576463 0.08343187 0.01027302 -0.0061859353 0.81738776
00000000: 90ff 633d de3f a33c 9f80 7d3c d815 9ebe
00000010: fdf5 4b40 53dd 533f f909 4e3d 1cb4 ecbc
00000020: d4d4 013e bfab cbbf e340 5740 23b5 8d3e
00000030: 0d7e 83bd 6ee4 a03b 3adc d43c 7b63 23be
00000040: 4566 a2bf ed51 e83f 54f1 1bbd 63c1 fabc
00000050: f257 99bd 7410 e1bd b355 833f 8e5c 233e
00000060: 5a5f aebd 76e0 f73d 0acc b3bc e723 82bf
00000070: 29da aa3f 6427 b63f 6d0e 4dbc 72fd 96be
00000080: 4a8b 86be ac77 15bf 6916 2e40 00e9 4fbe
00000090: 5d2a dabc 75a5 103c d3ef 983d 84fc 0cbe
000000a0: 9400 c5bf a00d 9d3f 033e 67bd 9820 4e3c
000000b0: 183c 923c 955f bbbf 2e39 00c0 46e1 d93f
000000c0: e0a1 0cbd bc25 11bd ec0a a0bc b957 7abf
000000d0: 04cf 34be 454e 2d3f 7fde 173d c006 1c3d
000000e0: fce1 823c 4cf2 89be bdaa a13f 5e02 383f
000000f0: 2463 753c 8ef9 f1bc b349 163d 5773 21c0
00000100: a329 ed3f 849a a53d be1b 113d db99 973c
00000110: a755 90bd 5253 b4bd 5e43 60bf 057c 363f
00000120: 6e3d 7b3d 5038 71be 4c18 90be 4699 0dbe
00000130: b99e cb3d 918e b2bd 6e40 a63d 3873 6cbc
00000140: a5e4 463c 78a4 5dbf 6bec 84be dd1d 3d3e
00000150: 1b7c 19bd 7cfe 7abc cbe8 2f3d 3172 ecbf
00000160: e0cb cebf b6a8 8d40 302a 263e 3f30 b53d
00000170: 2170 0a3e e3fb ebbe 6b58 783e a230 e4bd
00000180: 2c32 1abf 4b56 033d 2bd8 0e3e 5221 6c3e
00000190: 0667 c63f 9afc babe bb7d a43c 9db4 603c
000001a0: cb5a a53c 2515 e7bf 814b 723f dc24 b83e
000001b0: 85a3 02bc 6759 f83a aeb2 013c 1ccb 113f
000001c0: 8a4d 5dbe 1488 d23f dce1 22bf 1733 07be
000001d0: 8b12 223e 70f2 08bf e5b2 15bf 8660 fb3f
000001e0: 95b6 113d 4334 81bc 6837 a8bd 2b04 bebe
000001f0: 5bfb b33e bca0 933c 7926 ddbd 3f7f 77bc
00000200: 465e 1b3e 873f ac3e 4e7f e5bf dd65 0240
00000210: 09a2 52bd eec5 f4bc 26ad 743b e249 b4bf
00000220: e395 07c0 a6f9 e73f 8fa2 80bb 3834 87bc
00000230: 76f6 3cbc cfc5 a2bf 9a52 0a3f 7469 8cbe
00000240: 0352 173e 7c9e eb3d 8b13 19bc 02d1 2b3f
00000250: 03d3 25c0 42a8 5fbf d384 283e 7f24 c73d
00000260: 6f08 083e 2c3b f6be f98b d63f 1e27 9b3f
00000270: 6c61 aebb 16be 76bb c65f 34bd db5c 303f
00000280: efc3 2cc0 b1e4 ca3f bd35 913d fb7d a43c
00000290: 8f0f 10bc cb59 10bf 40c4 3b40 cffb 8b3e
000002a0: 5558 72bc 5dc0 023c e4ce 8c3d 8f44 6c3c
000002b0: 7adb aa3e 1b23 da3f 44d9 11bc 0db5 ddbb
000002c0: d88d 69bc 1a23 03c0 9580 1fc0 c534 343f
000002d0: 288f 453d 5b6d 1f3d b962 a7bd 4643 813e
000002e0: 051c 0c40 9df6 363e 5fa2 a13d e86f 5dbe
000002f0: 2a9c a2bd d121 893f f79e b83e bf51 ebbe
00000300: e310 103e a6d7 253d 8655 843d 4a1d 063e
00000310: 21a1 833f 6f00 f2bd 9af0 7f3b 67f4 97bb
00000320: 786f abbc 7a0b 8cbe 9507 453e 8a74 a53f
00000330: 8f7e e3bd a5aa 133d c877 2a3e e07d 833d
00000340: 937e 8dbf 3ead 1840 3239 8fbc 3177 dabd
00000350: b5c1 0b3c ae76 96bf 63dc 0340 0e61 87be
00000360: a81a 30bd 0b2f cdbc 676a e03c 95e3 94bd
00000370: 587c 2fbf 09ea e43f ee43 f03c f8f7 a73b
00000380: 78e0 743c 0168 88bf d4ca 16be ca49 173f
00000390: ea20 e63c 829b bcbc ebc1 01bd c245 03c0
000003a0: 0eb4 953f 80b1 fb3f 1f6e fc3d 135e fc3d
000003b0: bfd0 68be 6f3e e53e ea0d 1440 6d70 983f
000003c0: fc3b 83bc 1b19 c9bb e500 d8bc 53db 0140
000003d0: 942d 1a3f 2b6d 373e 62fb b5bd 7fc5 813e
000003e0: 7943 be3e 188f b3bf 4620 1ebe 1adf d4be
000003f0: 54de aa3d 2b50 283c 63b3 cabb 5340 513f
