training program/model_LSTM.tflite (tflite, 56104 bytes, 16 tensors)

sequential/dense_1/BiasAdd/ReadVariableOp f4 [28]
00000000: d580 633f de43 f1be 0d54 423e 52c2 b93f
00000010: 4d57 de3d 7474 80bf e9bf 2e3f 7898 343e
00000020: b759 e9be 5dc1 0cbf 6c68 cebe 62e8 2dbe
00000030: f6ea 283f 1114 49bf 6a73 15be a2a1 3b3f
00000040: d05b 8dbd db97 b0bd 9c22 853e 9ff2 ed3f
00000050: 824c 06be 3250 c43e 8a39 e13e d8ff 60bf
00000060: 1e08 82be d32d 873d ead1 45bf 7557 98be
0.8886846 -0.4712209 0.18977375 1.4512427 0.10856495 -1.0035539 0.6826158 0.17636287
-0.4557626 -0.5498255 -0.40314043 -0.16983178 0.6598352 -0.78546244 -0.14594808 0.7329351
-0.069022775 -0.08622714 0.26002967 1.8589667 -0.13115123 0.38342434 0.4398921 -0.87890387
-0.25396818 0.06600537 -0.7727343 -0.29754224

sequential/dense/BiasAdd/ReadVariableOp f4 [32]
00000000: aa34 3f3e 90aa 8d3e 405f 84bd 7137 093f
00000010: 4281 1f3e b507 353e 9015 303d 47f9 b3be
00000020: 6c58 8e3e 08bc aebe 0b08 193f 90a4 983d
00000030: e954 5c3e 0b80 6f3e 7db6 063f 3107 86bd
00000040: 5710 efbd a0bc 443e 9953 60be d4da 953d
00000050: 2084 bebd d338 cebd f8bf ba3e e564 d03e
00000060: de8f 6b3e f7cf 373e d9ea 343f 466e 763e
00000070: b5c3 f73e 9fdd b9bd 0e8b bc3d 46f5 cb3e
0.18672433 0.2766919 -0.0646348 0.5360022 0.15576652 0.17678721 0.042989314 -0.3515112
0.27801836 -0.3412783 0.597779 0.07453263 0.21516766 0.23388688 0.52622205 -0.065443404
-0.116730385 0.1921258 -0.2190689 0.07317129 -0.093025446 -0.10069432 0.36474586 0.40701976
0.230041 0.17950426 0.7067085 0.24065503 0.483915 -0.09075474 0.0920621 0.39835566

arith.constant f4 [48, 48]
00000000: b802 a93b 2657 00bf 1282 86bc 8627 0b3c
00000010: fe2f b13e 1a1f 82bd 59d0 f1be a719 1ebe
00000020: fdd3 a6be f1a6 cf3e 524a 023f 36c7 e1be
00000030: 1326 cbbe fbbf 15bf 5a89 903d 48e6 25bf
00000040: c2db 39bf fcf1 3cbf a666 a838 e0b9 473f
00000050: 69f2 a53d 5ef4 083e 6dd6 803e 3736 85bf
00000060: aa7d 85be cb86 983e fb17 503e 8205 c6bd
00000070: 99e1 c13e 5522 6e3e 1a58 f8bd 165e 2f3f
00000080: 9be6 153e df41 773c 5d2c 8cbb 0874 4dbf
00000090: adfb 7d3f eb97 073f fac4 47bf a6c0 0abf
000000a0: 9c1a 583f 0cbd c33e e24f e53e 4888 af3e
000000b0: 8376 e0be ff2c 49bf ea8f 90be a233 833e
000000c0: 3ee2 ec3e b593 0d3f d4b5 58be 05f4 dcbe
000000d0: becf 8f3d 7145 63bf ab1c e1bd ffb9 aa3d
000000e0: 338c f2be 1814 acbd e33d 07bf 9bfd 823f
000000f0: ad09 b33d 1686 82bf dda8 3ebe 6ca7 0d3e
00000100: 4374 89be 1f47 1e3f b3ee 563f 0693 54be
00000110: 7bde 1abf 96b3 43bf a020 c3be 7b91 eebe
00000120: ea88 d5be 3a4c 433e 021f c43e 8675 bfbd
00000130: c516 333c ec2f bc3f 21f5 f03e 8ed3 3e3e
00000140: 02fd 49bf 3afc 52be ab07 123f 276c c53e
00000150: 61c3 f9be 3b5e ce3e 5352 193f 8c2b 17bf
00000160: 78f6 e43f 15da fe3d 24aa 973e d707 ccbd
00000170: 4d98 35bf 28ee 9fbf 9aef adbf 6e51 4bbf
00000180: ce30 333f 1f10 49bf ee8e 02be 87ae c8bf
00000190: 3bd8 21be 6bed af3d 30c7 703e 113e 9a3e
000001a0: e721 f7bd bf38 843e d065 b03f 00ce 513e
000001b0: 1724 a03d 7a94 c9be 6b0b 87be 80ac 1cbf
000001c0: 9982 21bf cc1a 643e 5038 acbe ba3b f03e
000001d0: 60b6 fbbb 16ce ee3e 97fb 3d3e ea5d 55be
000001e0: 63b8 3fbf dd69 cebe 2b0d 263f 78ea 2bbf
000001f0: f596 35be 988d c13f 52a0 b0be 4877 fc3e
00000200: c304 acbe 14d5 e0be 4906 4f3f 6a8d 413f
00000210: 47be 873f fc9b d03f 2e51 4c3e d7b7 79be
00000220: 0da7 9e3e 45a7 1f3f c81c 623e 60d9 873e
00000230: 262d 73be 8702 663e ea33 07bf f529 6e3a
00000240: 5fbb 4b3e b8b7 87bf 8779 123f 4beb b1be
00000250: 36e7 dfbe 543b 4abf 6bda 453f 6e81 b6bd
00000260: 1c7d 143e 23c4 233e 50b3 95bf 8ea1 a43f
00000270: 1193 a1bf a0b7 b3bf b8c7 e4be 2b63 fbbf
00000280: 0a52 d5bf b7cb 9c3f b5e3 313f 9cb9 eb3f
00000290: c22b 713f eb98 a5be 91a6 10c0 9ec3 1dbf
000002a0: 731f 06bf ed5d a5bf 4017 f63e 1391 3ebf
000002b0: bbe7 073f 9645 5f3f df25 8fbf fe02 c0bf
000002c0: 2117 b8bd 6ebd 1dbe dae3 7e3c 8d8f 87be
000002d0: 2803 e33e d84f 9fbf 7bce 283e 1492 e0bf
000002e0: 8240 d33e ce47 863f 2726 9c3f 08bb ac3c
000002f0: b019 49bf 4ca1 cbbe 1e27 adbf d24e 873e
00000300: a22a b0be 9b8c 273f f1fc 52bf d13b a5bf
00000310: 35f3 3e3d 0e07 a93d 9461 e43b 0a7d e83e
00000320: c72e 65be 6fdb c13e 0bd3 543e 218e 9d3f
00000330: 68b1 00bf d852 b63e 7aa0 94bf ffb2 3c3e
00000340: f694 76bf d4ba 6e3f ab77 80be dcb0 94be
00000350: e893 633f 8698 14bd d639 41bf dd3e aabe
00000360: de0b 06bf c41f 073f 5243 a23e 8764 d2be
00000370: f006 7d3f a7e3 d43e a420 af3e ac41 7c3e
00000380: 98f4 0fbf 11fd 66bc bf72 3b3e cb45 6dbf
00000390: 5058 41bd 0dd7 48bf e749 ba3e 4b0e 983d
000003a0: bf0d 203f 371f c33e 8773 1dbe eb12 0abf
000003b0: c2d8 e2be bfb6 b23e 8741 afbe c18f 86bf
000003c0: a16c dabe d176 f3be 137a 22bf 6d9c 42bf
000003d0: 1fe9 5cbe 4cb8 313f 6389 513f 1da5 24be
000003e0: af4a 6d3e 7dbd 8a3d 92c7 ab3f b7c2 cdbd
000003f0: 6e99 8dbe 13f3 47bf ce10 093e 6892 78be
0.005157795 -0.5013298 -0.016419444 0.00849331 0.34606928 -0.063535884 -0.4722927 -0.15439473
-0.3258361 0.40557054 0.50894654 -0.44097298 -0.39677486 -0.58496064 0.07057448 -0.64804506
-0.7260095 -0.7380674 8.029984e-05 0.78018 0.08102877 0.13374469 0.25163594 -1.040717
-0.26072437 0.2979034 0.20321648 -0.09669019 0.3786743 0.23255284 -0.12126179 0.6850294
0.1463875 0.0150913885 -0.0042777495 -0.80255175 0.9921215 0.52966183 -0.7803494 -0.5420021
0.844156 0.3823017 0.44787508 0.34283662 -0.43840417 -0.78584284 -0.28234798 0.2562533
0.4626636 0.5530351 -0.21163112 -0.43154922 0.070220456 -0.88777834 -0.10991796 0.08336257
-0.4737259 -0.0840227 -0.52828807 1.0233644 0.0874208 -1.019717 -0.18619104 0.13833398
-0.26846513 0.6182727 0.83957976 -0.2075921 -0.6049573 -0.764459 -0.38110828 -0.46595368
-0.4170602 0.19072047 0.38304907 -0.09348588 0.010930722 1.4702125 0.4706202 0.18635389
-0.78901684 -0.2060403 0.5704295 0.38559076 -0.48781875 0.40306267 0.5989124 -0.5905082
1.7887716 0.124439396 0.29621994 -0.09962433 -0.7093552 -1.2494555 -1.3588746 -0.79421127
0.69996345 -0.78540224 -0.12749836 -1.5678262 -0.15805142 0.08590206 0.23513484 0.30125478
-0.12067013 0.25824544 1.3781071 0.20488739 0.078193836 -0.3937109 -0.263759 -0.61200714
-0.630899 0.22275847 -0.33636713 0.46920568 -0.007681653 0.46641606 0.18553005 -0.20836607
-0.74890727 -0.40315142 0.6486384 -0.67154646 -0.17733367 1.5121336 -0.34497315 0.49309754
-0.33597383 -0.43912566 0.80868965 0.75606406 1.0604943 1.6297603 0.19952843 -0.24386536
0.30986825 0.6236461 0.22081292 0.2653303 -0.23747692 0.22461902 -0.5281359 0.00090852316
0.19895695 -1.0602942 0.57216686 -0.34749827 -0.43731087 -0.7899678 0.77286404 -0.089114055
0.1450085 0.15992789 -1.1695347 1.2861803 -1.2623006 -1.4040413 -0.44683623 -1.9639639
-1.6665661 1.2249669 0.6948808 1.8416018 0.94207394 -0.3234323 -2.2601664 -0.61626613
-0.5239174 -1.2919289 0.48064613 -0.74440116 0.5308797 0.87215555 -1.1183432 -1.5000913
-0.089887865 -0.15404293 0.015557254 -0.26476708 0.44338346 -1.2446241 0.16485016 -1.754458
0.41260153 1.0490663 1.2199143 0.021085277 -0.7855482 -0.39771497 -1.3527563 0.26427323
-0.34407526 0.6544892 -0.8241721 -1.290888 0.04661866 0.08253299 0.00696964 0.45407897
-0.22381125 0.37862727 0.20783632 1.2308999 -0.502707 0.3561008 -1.1611474 0.18427657
-0.96321046 0.9325383 -0.250913 -0.29041183 0.8889756 -0.03627827 -0.75478876 -0.33251086
-0.5236186 0.52782845 0.31691986 -0.4109232 0.9883871 0.41579935 0.3420459 0.24634427
-0.56232595 -0.014098422 0.18305491 -0.9268462 -0.047203362 -0.7845314 0.36384508 0.07424601
0.62520975 0.38109753 -0.15376101 -0.53935117 -0.44305998 0.3490505 -0.3422968 -1.051262
-0.42661002 -0.47551587 -0.6346752 -0.76019937 -0.21573304 0.6942184 0.8185026 -0.1607861
0.23173021 0.06774423 1.3420279 -0.100469045 -0.2765612 -0.78105277 0.13385317 -0.242746

arith.constant1 f4 [48, 48]
00000000: c627 6c3e 567a 5f3e 5871 be3e 747f 803e
00000010: 21f9 b2be 940c 00be 71ba 9cbe db71 e0be
00000020: 9079 eabe ce69 fa3e c02a a9bd 14d7 69bd
00000030: f71d ebbe 5906 38bd 3c9e 513e 6ea1 3cbf
00000040: d156 bf3e a7ff 913c 18e3 003e 5d99 2abe
00000050: 6813 47be d581 5c3e 0882 59be 6ba5 19be
00000060: 1b62 1d3f f84e 4cbe 3aab 333e 9bdb a5be
00000070: f9a2 a1bd c675 27bf f787 55be a13d 8dbe
00000080: 62c7 373e db44 853e 25b8 02bf b3c2 023e
00000090: d7ff 5c3e c84b 65be 4ceb dc3c dfd0 223e
000000a0: 9e9f 19bf c0e8 11bf 1b39 f7be d07e 85be
000000b0: c73a 81be fbc8 b5be 6efa 3d3e aedb e8be
000000c0: af6e 223f 893b 1d3c f9db 2fbe 2161 7abc
000000d0: 292c 043e 8bec e93e 18e5 a6be 28f7 a53e
000000e0: 48fb 103d 045a ffbe f6de 413f 52d8 3c3e
000000f0: e3a8 5a3e 6ff1 003e 89b0 2bbe a3d6 5a3e
00000100: 5490 d63e 7cf1 013e 83fa 163d 134e 5d3e
00000110: c72f 73be 4331 0fbe b23e e53c fff9 8dbe
00000120: b5ea 5fbd c864 093e d8d5 9d3e 0027 c13e
00000130: d7b8 203e 7f96 edbd 9ba6 d83d 818e a73c
00000140: 0764 20bf b5be f13d ed4e 443f 1318 b13e
00000150: 4651 133e 9de9 91be e2aa 80bd 3dab 6dbe
00000160: be03 683e b85c 413f 7fe6 4dbf 8ce0 0dbf
00000170: dfdb 23be 4203 9b3e bd0b 16bf 58ee 5ebe
00000180: 7875 57bd 4c92 19bd 6aff 043e 6446 5cbe
00000190: 1e50 17bf e807 5c3e 8442 803e 0055 88be
000001a0: 3da3 0abf 2840 5ebb 4051 07be 8be0 69bd
000001b0: 4a73 a2be 2497 8c3e f0dd 0dbe 11b0 11bd
000001c0: 6222 1cbe 3e45 a93e a972 08bf a651 b0bc
000001d0: ca91 b7be ca82 b03e efab 2cbe c6f6 8abe
000001e0: abc7 bb3e 74ec dbbe 440c 35be 0502 2c3f
000001f0: d46f 123e b5b2 fabc 42cc f63c 8a01 06bf
00000200: cf6a 84be 1553 803d 5b0d 9b3e b6d7 0fbd
00000210: 0dfe 333e 4e1e b93e d8d2 583e a6f9 1f3d
00000220: b44c 6e3d 329d a83d 7f17 b73e f47a d73e
00000230: 41d8 1b3e d4fe 69be e4ce 973e f6b3 d7be
00000240: 7744 25be 07c9 05be f29b 4e3e 8204 d6be
00000250: caef acbe 6874 783d 0e41 5f3d 54ff 113e
00000260: 6110 ed3d 2289 f23c df6b 653e b027 8ebe
00000270: 79ef 20be 0e3b 003f a610 093f 1a73 39be
00000280: 9e6a 6b3d 474c 9abd 9c48 23bd 9de7 8fbe
00000290: 48bd f4bd ae6b 063f ff56 23be 7f3b b73e
000002a0: f3ae 29bd e17a 8ebd 9be8 27be 6ec2 afbe
000002b0: 278f 4b3d da9b 35be 3033 04be 001b 6d3d
000002c0: fe3f aebe 3a53 13be a151 dbbb 5173 cdbd
000002d0: 9c61 b5bd 93bf e3bd 0674 acbe 6e05 14bf
000002e0: 583d 25be 921b 963c 495d 0ebd 8a55 91bd
000002f0: 5045 913d 2e1c bbbe 0375 8a3e a78b 86be
00000300: 17df 683f 8bbb b63e 0dbe a83c 2cc3 d13e
00000310: 88bb ae3e e9e2 16be 12f0 383e 897a 823e
00000320: 8fed a8be 4c4b 16bf cc47 193f 44fd 97be
00000330: 090e 3e3e 37e5 123f 3984 84be c600 bc3e
00000340: d2a0 183b 9efd 3bbf c8d5 04bf 7745 19be
00000350: b7f1 85be 27c8 86bd ad39 e23b 5996 003f
00000360: 6101 b13d a1ce 9f3e 9814 de3e adb0 513e
00000370: 9f85 cc3d 21ed 7e3e 884b 9ebd 13c5 2b3f
00000380: 508f 863d 6bf3 d63e 76d8 523f 8515 4e3e
00000390: d3c0 f6bd 685e a53e 1ee6 e4be 5400 b13e
000003a0: b44e 7fbe 5a3c 11bf fd1f 9ebe 439d 033e
000003b0: cd87 4f3f 1f43 043f a3f9 7c3f e339 c1be
000003c0: 19fc c43e bb70 8ebd fbcc 15bf 9af6 493d
000003d0: 7351 da3e 5ce1 a4be 6d28 b0be 3da8 0abe
000003e0: 99e3 f93e 9af0 9fbe 84d6 c53e b78c ae3b
000003f0: 1bf0 d83e 8ee2 ef3e 7305 6a3e 4348 84be
0.23062047 0.21824011 0.3719585 0.2509724 -0.34955695 -0.12504798 -0.30610994 -0.43836865
-0.4579587 0.48908848 -0.08260107 -0.05708988 -0.459213 -0.04492793 0.20470518 -0.7368382
0.37370923 0.0178221 0.1258663 -0.16660066 -0.19440997 0.21533902 -0.21241009 -0.15004508
0.6147782 -0.19951999 0.17545786 -0.32394108 -0.07892413 -0.65414083 -0.20852648 -0.27586082
0.17947152 0.26029095 -0.5106223 0.12769584 0.2158197 -0.2239219 0.026967667 0.1589999
-0.6000918 -0.56995773 -0.48285756 -0.26073313 -0.25240156 -0.35504898 0.18552563 -0.45480102
0.6345014 0.009596714 -0.17173757 -0.015281946 0.12907471 0.4568828 -0.3259666 0.32415128
0.03539589 -0.49873364 0.75730836 0.18441895 0.21353488 0.125921 -0.16766562 0.2137094
0.4190699 0.12689775 0.03686 0.21611814 -0.23748694 -0.13983636 0.027983997 -0.27729794
-0.054667193 0.13417351 0.30827212 0.37725067 0.15695511 -0.116009705 0.105786525 0.020453693
-0.6265263 0.118039526 0.7668293 0.3458868 0.14386472 -0.28498545 -0.06282593 -0.23209853
0.22657678 0.755321 -0.80429834 -0.55420756 -0.16001843 0.30275923 -0.5861166 -0.21770608
-0.05260226 -0.037493035 0.12988058 -0.21511227 -0.59106624 0.21487391 0.25050747 -0.2662735
-0.5415533 -0.0033912752 -0.13214588 -0.057098906 -0.31728584 0.2745906 -0.13854194 -0.0355683
-0.15247491 0.3306064 -0.5329996 -0.021523308 -0.35853416 0.34474784 -0.16862462 -0.27141398
0.36675772 -0.42953837 -0.1768046 0.6719058 0.14300472 -0.030602792 0.030126695 -0.523461
-0.25862738 0.06265847 0.30283627 -0.035117827 0.17577381 0.36155933 0.2117418 0.039056443
0.05817862 0.082331076 0.35760114 0.42085993 0.15219213 -0.22851115 0.29650033 -0.42129487
-0.16139399 -0.13064967 0.20176676 -0.41800314 -0.33776695 0.06065789 0.0545054 0.14257556
0.1157539 0.029606406 0.22404431 -0.27764654 -0.15716352 0.5009011 0.5354103 -0.18110314
0.057474725 -0.0753408 -0.039864168 -0.28106394 -0.11950165 0.52508056 -0.15951155 0.3578758
-0.04142661 -0.06957031 -0.16397326 -0.34328026 0.049697068 -0.17735234 -0.12910151 0.057887077
-0.34033197 -0.14387217 -0.0066930805 -0.100317605 -0.08856508 -0.11120524 -0.3368227 -0.57820785
-0.16136682 0.018323693 -0.034756932 -0.070963934 0.070932984 -0.36544937 0.27042398 -0.2627842
0.9096541 0.3568996 0.020598436 0.40969217 0.3412745 -0.14734997 0.1806033 0.25484112
-0.32993743 -0.58708644 0.5987518 -0.29685414 0.18560041 0.57381004 -0.25882128 0.3671934
0.0023289216 -0.73433864 -0.51888704 -0.14967905 -0.26160976 -0.06581145 0.006903848 0.5022941
0.08642841 0.31212333 0.43375087 0.20477553 0.09986424 0.24895145 -0.0772925 0.67097586
0.065703034 0.41982588 0.82361543 0.20125397 -0.12048497 0.3229859 -0.44706815 0.34570563
-0.24932367 -0.56732714 -0.3088378 0.1285296 0.8106659 0.5166492 0.98818415 -0.37739477
0.38473585 -0.069550954 -0.585159 0.049307443 0.42640266 -0.32203186 -0.34405842 -0.1354074
0.48806456 -0.31238252 0.38640225 0.005326833 0.42370686 0.46852535 0.22853641 -0.2583638

arith.constant2 f4 [48, 48]
00000000: 818e 4b3e 338c 28bd 8684 f93e 853a 483e
00000010: 1082 0a3f 5329 903d 0ed8 203b 654b 0f3d
00000020: 448e 6abe fd1e 663e 97d6 123f 891c e0be
00000030: 218d 133c 147d d5bd 7b18 02bf 523d 9b3d
00000040: 8b1d 483f d9f1 703f 863f 333f a9c5 23bf
00000050: 2ad8 aebe 328c ebbe a4a8 903e fffe 1e3c
00000060: 7adf 37be f40a 1a3f ac93 bb3e 27c7 a6be
00000070: 5046 31bf ffaa 003f a6fd d33e 3a0a 5e3d
00000080: b254 d6bb 0eb6 f63e 0e64 e93c 7e13 10bf
00000090: 062d 06bf 4053 9abe 7483 8d3e f1a8 98be
000000a0: 74d6 c43f 53d5 07bd 41ec 173f 13b9 8e3e
000000b0: 2b93 4bbf 5f38 ecbe bfc8 56bb 34ad ea3e
000000c0: 0c3f 523c 6cf0 03bd 5eea 2ebd d4cc 363e
000000d0: 66e4 fabd 9b91 603e c978 4a3d d712 0f3f
000000e0: a608 8f3e f1ad 53bf 85e1 1ebf bd9a 5f3e
000000f0: 69db c6bd 2c7f 0b3f b74c bfbe 2a2b 733f
00000100: b70e 31be 496a 67be 8b8c 0cbf c174 1ebf
00000110: 239e 413f c11e 8a3e 7b56 d2be 777e 8dbe
00000120: 50c8 a63e 3ca2 67be 6dc5 80bf 2fd0 533f
00000130: b4c4 9dbe 227d b63e 9df1 083f 9d8e 6e3e
00000140: d176 27bf 04c3 97be af4a 14be 7844 5fbf
00000150: 26fc b7be e01a 09bf 11f2 f83d 607d ab3e
00000160: 4a26 263f 0a48 c63e a629 923e 0054 3d3e
00000170: 3612 ee3d 1930 b53e bdd3 8d3e 3dd6 383e
00000180: 9962 633f a929 de3e 5b40 173d 858f 59be
00000190: fe2f 393c 4a68 783e a1eb f9be 8019 21be
000001a0: 1b67 a43e 48bc 42bf 70a3 8c3e cd8d 143f
000001b0: cd0d 88be 8f5d a43e 706f 41be cc94 dfbe
000001c0: f97c 14bf 5ef2 6d3d 5772 e0be b26d f63d
000001d0: e73e e7bc a24e 71be 4b9f cabe 14a9 e6be
000001e0: 22e7 15be 5e87 1e3d 2ca3 90be 3fd8 15bf
000001f0: 0e36 ec3e 92c3 88be 2d57 a5bd 4bed 31bf
00000200: 3bce 863e fd2a ffbb bd81 dd3d b551 253e
00000210: 000a 09bf 21d7 d83e 0757 e0ba 4533 203f
00000220: 7d39 b83e 5ec0 a53f 7c55 413f 7cea 19be
00000230: 8596 45bd 06b2 15bf 7ea0 c6bf d24c 2ebe
00000240: 50d3 693f d485 febe 9360 373e bf2a 2abe
00000250: 27e1 0fbf d628 b1bd a6b6 1f3e 73f3 e8bd
00000260: d4db aa3e 8efe 913e 87e1 70be 8bbe a33d
00000270: d493 383c dbe9 92bc 0781 25bf 7e03 273e
00000280: 832f eebe 83d9 993e eaed d0be 315b 16bf
00000290: 1e89 83bd b5d3 e83e b112 113e 1e65 15bf
000002a0: b0a5 eebd ff78 66be c232 70bf 5e84 1ebd
000002b0: 972a a63e 908b d6be 4c42 393d c2c8 9fbf
000002c0: 37cd bd3d 7771 a0be c58a 1f3d 7da3 063f
000002d0: a2dc 113f e360 2cbf becc 313f dc0d ae3e
000002e0: 76cd 063f cfb6 2a3f e2df 25bf 284c 873e
000002f0: 6864 c9be 6a06 e2be f158 bdbe c32d 413f
00000300: 2eb7 a4be 1ced 42be 1332 a2bf b0eb 0cbe
00000310: 7fe8 5a3f a008 d1bc b79e 953f b665 2740
00000320: cc33 5dbf 2b89 b13f 5b46 3440 67d3 e03f
00000330: 715e e0bf 8ec3 53bf 7059 b8bf 7ee7 0f39
00000340: b156 36be 381e 28c0 20bc 25bf 82e6 333f
00000350: 4f30 37bf 4033 2bbe aad5 5ebf 3b7d ecbc
00000360: 626b bebf 6967 5abf 8add 6e3f c424 923f
00000370: f16c 95bd 6d39 e93f e32f f63f a045 ab3e
00000380: bb41 a6bf 7e86 8dbe f9ef b03d 5d4a 16bf
00000390: 9a61 323f 0e9a 9fbe 081d 0abf 3654 0dc0
000003a0: 69aa 963e c672 a73f 461e c03d 6a46 31c0
000003b0: df62 6d3e 00c0 223f 7779 cb3e 8b1e 14bb
000003c0: 7836 00bf fa0d 16be 170c 253f 094a ff3d
000003d0: fc46 9ebe fc19 66bf 4796 41bd cc73 713d
000003e0: 32c1 1e3e 08ea 213e eca8 163e 51fd 17bf
000003f0: 2157 243e 54b7 1b3e 3b0a a8be 9d4e 423f
0.1987858 -0.04114933 0.4873392 0.19553573 0.5410471 0.07039132 0.002454284 0.03498401
-0.22905833 0.22472759 0.5735869 -0.4377177 0.009005816 -0.104242474 -0.50818604 0.07580055
0.7817008 0.9411903 0.70018804 -0.6397348 -0.34149295 -0.46005398 0.28253663 0.0097043505
-0.17956343 0.60172963 0.36636102 -0.32573816 -0.69247913 0.5026092 0.41404456 0.05420897
-0.006540858 0.48185772 0.028490093 -0.5627974 -0.5241245 -0.3014164 0.27639353 -0.29816392
1.5377946 -0.033162426 0.5934487 0.27875575 -0.79521435 -0.46136758 -0.0032773463 0.45835268
0.012832414 -0.032211706 -0.04270398 0.17851573 -0.12250595 0.21930544 0.049431596 0.5588812
0.27936286 -0.8268729 -0.62062865 0.21836372 -0.09709818 0.54490924 -0.37363216 0.9498774
-0.1729077 -0.22599138 -0.5490195 -0.618969 0.7563192 0.26976588 -0.41081604 -0.27635548
0.325747 -0.22620481 -1.006025 0.8273954 -0.30814135 0.35642344 0.5349367 0.2329659
-0.65415674 -0.29640973 -0.14481615 -0.8721385 -0.35934561 -0.53556633 0.121555455 0.3349409
0.64902174 0.38726836 0.285474 0.18489075 0.11624567 0.35388258 0.27700606 0.18050475
0.88822323 0.4339116 0.03692661 -0.21246155 0.011302946 0.24258533 -0.48812583 -0.15732384
0.32109913 -0.76068544 0.27468443 0.5802887 -0.2657303 0.3210263 -0.18890166 -0.4366821
-0.58003193 0.058092467 -0.43837234 0.120326415 -0.028228236 -0.23565152 -0.39574656 -0.4505087
-0.14638951 0.038703315 -0.2824949 -0.5853309 0.4613499 -0.26711708 -0.08073268 -0.69502705
0.26329216 -0.007787107 0.10815761 0.1614445 -0.53530884 0.4235163 -0.001711578 0.6257823
0.3598136 1.2949331 0.75521064 -0.15030855 -0.04823925 -0.5847477 -1.5517728 -0.17021492
0.9133806 -0.49711478 0.17907934 -0.16617869 -0.5620293 -0.08650367 0.15597019 -0.11374559
0.3337084 0.28514522 -0.23523532 0.079953276 0.011265714 -0.017933777 -0.64650005 0.16309926
-0.46520624 0.3004876 -0.40806514 -0.587329 -0.064226374 0.4547402 0.14167286 -0.5835742
-0.11652696 -0.22507094 -0.9382745 -0.038700454 0.32454368 -0.41903353 0.04522924 -1.2483141
0.09267657 -0.31336567 0.0389507 0.52593213 0.56977284 -0.6733534 0.69453037 0.3399495
0.5265726 0.66685194 -0.64794743 0.2642529 -0.39334416 -0.4414552 -0.3698192 0.7546045
-0.32171005 -0.19035763 -1.2671531 -0.13761783 0.8551101 -0.025516808 1.1689061 2.615583
-0.8640716 1.3869985 2.8167942 1.7564515 -1.7528821 -0.8272027 -1.4402294 0.0001372378
-0.17806508 -2.6268444 -0.6474018 0.702736 -0.7155809 -0.16718769 -0.87044775 -0.028868308
-1.4876521 -0.8531404 0.9330679 1.141747 -0.072961695 1.822065 1.9233364 0.33451557
-1.2988809 -0.27641672 0.08639521 -0.5870722 0.6968018 -0.31172222 -0.5395055 -2.2082648
0.29426888 1.3081901 0.09380774 -2.7699227 0.23182248 0.6357422 0.39741108 -0.0022601213
-0.5008311 -0.14653769 0.6447157 0.12465293 -0.30913532 -0.898834 -0.047262456 0.058948323
0.15503386 0.15811932 0.14712876 -0.59370905 0.16048862 0.15206653 -0.32820305 0.75901204

arith.constant3 f4 [48, 48]
00000000: 1b90 40bf bd43 8cbe a817 823d 57ef 783e
00000010: 2ac5 07bf 3553 7c3f a046 a63e 4de9 663d
00000020: 81b9 fd3e 8ce4 bcbd fa2f 19be be50 103e
00000030: 3943 d33e 9dab 08bd ff34 153f 0788 cbbc
00000040: 3751 a1be 67c9 67bf 30f9 9338 55c1 15bd
00000050: d364 01bf 2673 11be cd0e 05bd 0263 9ebe
00000060: 1897 213f 3909 2f3d 9b07 2abf 46b4 e8be
00000070: b89d 103f 2d15 023f 491e d43d a934 9f3e
00000080: c58c 91bd a961 0cbd 3e5d 5dbf c99f 65bf
00000090: 15a3 9e3e a2f3 0c3f 743d 77be 8aa3 563e
000000a0: 862c 063e 0c3e 7c3e 7b67 473f 0b7f 233f
000000b0: 0bc5 3fbf 3a57 3dbf 9861 a63e cad5 20bd
000000c0: 0179 51be 192f 0b3c 8632 c1bc a976 2a3f
000000d0: d176 2cbe 0592 e63d feb0 89be 945d 59bd
000000e0: bf59 733e 9406 69bf 90dc 113f 56c5 8d3c
000000f0: 5b02 493f db11 e4be de50 a13f 8db4 7abe
00000100: 7df6 503e d21d 5c3f 3175 d1bd 8c19 dbbd
00000110: 3440 a4bf 12c5 93bd 8763 113f be72 52be
00000120: e8d3 eebe b7d1 67be 6d21 a8be 10c7 53bf
00000130: c187 bd3c 8a96 303d a08b 7dbf e57a 283f
00000140: c09f 5c3e e89f 943e 74f3 05bf fdd2 8abe
00000150: 5bca 3bbf 49df 3dbf 10c8 cf3e 3483 d3bd
00000160: 7c8b 34bf 95b1 d33d 9f33 813f 4710 d83e
00000170: 10ab 5dbe 4907 583e fc02 a43e cd9f d3bc
00000180: 8958 b3bd ef77 08bf 59fd 10be 4a0d a13e
00000190: 58cd 67bf 77cc 8c3e f12e 85be da87 27bf
000001a0: 6d06 ba3e b434 9dbe ab0c 56bf 245d dc3e
000001b0: c7c7 31bf f8e6 66bf a1c7 32be 5ace 63bf
000001c0: aead 3bbd 5477 183f bbc6 cb3e a42c dbbd
000001d0: 33c1 043f 8aa0 2b3e 196d 7ebf 6e54 1bbf
000001e0: 41b3 2ebf c79c 9dbf 925c bb3e 0913 0cbf
000001f0: 1a39 92bf 1600 26bf ea3f acbf 5220 a1be
00000200: 5476 ab3f 3ded 793f 8840 8d3f 3857 09bd
00000210: 1e92 e13e a6ca 2d3e 7521 933e 0ad2 7bbf
00000220: b4df 3ebf aa46 c83e 5b39 ae3f 8e38 db3e
00000230: da9f 013e 02ab a93e c246 24be 1d39 10bf
00000240: 5b2c 51bf e37c 40bf 048d b4bf 5321 123a
00000250: d2c5 c4be ee51 b33e 3550 2abe c4e1 153f
00000260: d085 0cbf 4d00 89bf 3cb6 0d3f 3618 51be
00000270: ac56 22bf 9bcb 8c3e 027c a6bf 4d09 76bc
00000280: b021 df3e 8752 6ebf 0508 17bf 36c2 283d
00000290: 1278 633f 2dd9 d8be d60a 0a3f ee62 24be
000002a0: 74c4 5fbf 8b12 41be 8e72 f4bd 53ea 51bf
000002b0: 0d3e 3abe af46 aebe 6705 853f cb7f 673e
000002c0: 6b42 83bf e388 11bf d0f3 bebe a750 a1bf
000002d0: 5bc4 85bd f34a b23f 8f0f 01bf 59c3 073c
000002e0: f347 063f 76af e63f 7a81 a53e 4ff6 d53d
000002f0: ba14 35bd 10e3 96be 9596 72bf 180e b33f
00000300: 8a16 91be b141 bbbf c4c3 853f 08ab 013f
00000310: 3c1a 633f 6240 9a3d d610 ab3e 35da af3e
00000320: b60c 93bf e74e 143f 0c27 38be a4f5 4ebf
00000330: 632e e3bd d2e6 0cbf d3f0 943d d95e 4dbf
00000340: e524 42be 511b 97be bb2f d53e 44da aa3f
00000350: 9562 24bf bc8c 97bd ec1f b1be f941 073d
00000360: 7a41 af3c 82e0 c0bd 89a0 7dbf 7d87 1c3b
00000370: e42f 2cbd 918f a3bd ee99 493e 9d2f 2d3f
00000380: 3dbc b7bf 791e b7bf 6216 6fbf 7010 fd3d
00000390: e285 8dbe 7fb1 163f f42c 9bbf 6d3e a63e
000003a0: 9b16 643d 83b1 ce3e 48f5 fa3e 7fab 023f
000003b0: e32b 0fbf 4b33 0d3c e8a6 80bd 585f 93bc
000003c0: 7991 983e 482b 7abf 50cb 383f bfc0 0abe
000003d0: bd94 11bf 5d2c 96bd 25a3 783c 0193 9c3e
000003e0: 336f 11bf 0fcb d9be dfab a33e e15d 59bd
000003f0: 77ab babf c82e a3be d468 f7be 6551 94bd
-0.7521989 -0.2739543 0.06352168 0.24310051 -0.53035223 0.98564464 0.32475758 0.056374837
0.4955559 -0.09223279 -0.14959708 0.140933 0.41262224 -0.03336679 0.5828399 -0.024845136
-0.31507275 -0.9054169 7.055921e-05 -0.03656133 -0.5054447 -0.14204082 -0.03248482 -0.30934912
0.63121176 0.042733405 -0.66417855 -0.45450038 0.5649066 0.5081356 0.10357339 0.31094864
-0.07106928 -0.034272823 -0.864704 -0.8969694 0.30983797 0.55059254 -0.24144536 0.20960823
0.13102922 0.24633044 0.77892274 0.6386573 -0.7491004 -0.7396122 0.32496333 -0.039266385
-0.20456316 0.008495116 -0.023583662 0.6658731 -0.168422 0.1125832 -0.26892847 -0.05306776
0.23764704 -0.9102566 0.56977177 0.017306011 0.7851922 -0.44544873 1.2602804 -0.24482937
0.20406528 0.85983 -0.102274306 -0.10698232 -1.2832093 -0.072153226 0.5679249 -0.20551583
-0.46646047 -0.22638594 -0.32838002 -0.8272562 0.023136022 0.043112315 -0.99041176 0.6581252
0.21545315 0.2902825 -0.52324605 -0.27114096 -0.73355645 -0.7416883 0.40582323 -0.103277594
-0.70525336 0.103366055 1.0093879 0.4219992 -0.21647286 0.21096529 0.32033527 -0.025833035
-0.08757121 -0.53308004 -0.14159144 0.3145545 -0.90547705 0.27499744 -0.26012376 -0.6544167
0.36333027 -0.30704272 -0.8361308 0.4303981 -0.6944546 -0.9019618 -0.17458965 -0.8898674
-0.04581993 0.5955708 0.39800057 -0.10701874 0.518573 0.1676046 -0.9938522 -0.60675704
-0.6824227 -1.231347 0.36594063 -0.54716545 -1.1423676 -0.6484388 -1.3457005 -0.3146997
1.3395486 0.9762762 1.1035318 -0.033530444 0.4405679 0.16971835 0.28736463 -0.9836737
-0.74560094 0.39116412 1.3611253 0.42816585 0.12658635 0.3313828 -0.16042617 -0.5633715
-0.81708306 -0.7519056 -1.4105535 0.00055744237 -0.38432175 0.35023445 -0.16632159 0.58547616
-0.5489168 -1.0703217 0.5535619 -0.20419392 -0.634135 0.2749909 -1.3006594 -0.015016866
0.4358039 -0.93094677 -0.5899661 0.04120084 0.8885509 -0.42353192 0.53922784 -0.16053364
-0.8740914 -0.1885473 -0.11935912 -0.81998175 -0.18187733 -0.34038302 1.0392274 0.22607343
-1.0254644 -0.568495 -0.3729539 -1.2602738 -0.065315925 1.3929123 -0.50414366 0.008286321
0.52453536 1.8022296 0.32325345 0.1044737 -0.04420922 -0.2947011 -0.9476102 1.3988676
-0.28337508 -1.4629422 1.0450368 0.506516 0.88711905 0.07531811 0.33411282 0.34346166
-1.1488254 0.57932895 -0.17983645 -0.8084357 -0.11092832 -0.55039704 0.07272496 -0.8022285
-0.18959387 -0.29513028 0.41637978 1.3347859 -0.64212924 -0.0739989 -0.34594667 0.0330219
0.021393526 -0.094178215 -0.9907308 0.0023884468 -0.04203786 -0.079863675 0.19687626 0.6765078
-1.4354321 -1.4306175 -0.9339353 0.12356651 -0.27641207 0.5886459 -1.2123094 0.32469502
0.05568562 0.40369806 0.4901526 0.5104293 -0.5592634 0.008618186 -0.06281835 -0.0179898
0.29798487 -0.9772229 0.7218523 -0.1355009 -0.5686758 -0.073326804 0.015175615 0.30580905
-0.568103 -0.42537734 0.31967065 -0.053068046 -1.4583577 -0.3187163 -0.48322165 -0.07242087

arith.constant4 f4 [48]
00000000: 52a3 053e dff4 5f3e 3f77 09be 52ab d23e
00000010: 5707 ce3e 5a63 6c3f addb 673f ad08 3b3f
00000020: 3b6d 0f3d c09f e83d 5e84 3a3f 4055 0f3f
00000030: 3762 34bd fd2b 4a3f 4523 083f d208 f13e
00000040: 36d6 c7bd 5556 593f 229e 01bd ded2 493e
00000050: dc4e 653f 2741 5d3c 089d 1b3e b0e0 9bbe
00000060: b616 47be 568c 173f 8d2c 86be fc64 a43e
00000070: 6551 323d 1e3d 53be 4d09 d43d 4616 5e3d
00000080: a12b ad3e d8cd 003e f905 2c3e 4343 e53e
00000090: e7c5 b43e be1c 6c3f 74ec 583e 285f d63f
000000a0: 3c38 353f f8dc d93e ac9a 0f3f 9cb4 973f
000000b0: e64c 353e 66a5 bb3e 23e9 f73d f1de 6d3f
0.13050583 0.21870755 -0.13424395 0.41146332 0.40239975 0.923391 0.90569574 0.73060113
0.03501628 0.11358595 0.72858226 0.55989456 -0.044038977 0.7897337 0.5317882 0.47077042
-0.09757654 0.8489736 -0.031644948 0.19709346 0.89573455 0.013504303 0.15196621 -0.3044486
-0.19442257 0.5919851 -0.26205865 0.32108295 0.043534655 -0.20628783 0.103533365 0.05422046
0.3382235 0.12578523 0.16799153 0.4477788 0.35307238 0.9223136 0.2118395 1.6747789
0.7078893 0.42551398 0.56095386 1.1851993 0.17705116 0.36649626 0.12105014 0.92918307

arith.constant5 f4 [48]
00000000: b812 d13c 092d 193e e332 013e 301f d13d
00000010: 650a 473f cc32 09bd 33ac 043c da56 173d
00000020: aabd babd 88b1 c2bc 7b66 87be 8af0 13be
00000030: 744b 203e 2d4e 41bd 6ed2 853e 9d35 2fbd
00000040: 4651 b03c 7470 fd3d e341 5c3e 7daa 143e
00000050: e16f 1ebe 8f96 a9bd 3fa9 b43d 45d8 7fbb
00000060: f684 69bd fc08 593e 1960 513e 281d ecbd
00000070: 4bc9 a9bd e032 333e 3d9a 8e3e df04 903d
00000080: 4ee2 aa3e 3b82 5dbe 0f87 48bd 6082 cb3c
00000090: 963d 0bbe 338d fd3d 1566 5dbe cbab 89be
000000a0: e8d6 863d 4641 a0bd e34b 963e 9d24 0abe
000000b0: 932b adba 4439 2ebe 62a2 b5be f0c9 7bbe
0.025521621 0.14958586 0.12617068 0.10211027 0.77750236 -0.03349571 0.008097696 0.036948062
-0.09118207 -0.023766294 -0.26445374 -0.14447227 0.15653783 -0.047193695 0.26137108 -0.04277574
0.02152313 0.12374964 0.21509509 0.14518161 -0.15472366 -0.0828067 0.08821344 -0.0039038819
-0.057011567 0.21194834 0.20446815 -0.115289986 -0.08290347 0.17499876 0.2785205 0.07032179
0.33375782 -0.2163171 -0.048956927 0.024842441 -0.13597712 0.12380447 -0.21620972 -0.2688888
0.06583959 -0.0782495 0.29354772 -0.1349053 -0.0013211839 -0.17014033 -0.3547545 -0.24588752

arith.constant6 f4 [48]
00000000: ec8b 423f 719d 613f 5d0e 9a3f 325d 763f
00000010: 105a f73f d2e5 573f ac63 243f 158f 9b3f
00000020: 9715 f13e 0c01 433f d837 c23f ab20 693f
00000030: fdcf b33f a483 b63f 1ee0 b03f 97a7 993f
00000040: c025 493f eef3 1840 5641 563f 0990 433f
00000050: 7d11 ec3f 47a9 813f eb5d 9d3f ff0c 333f
00000060: 3da9 843f 7e6b ae3f f793 a93f c860 7f3f
00000070: 2d21 363f c744 ad3f 27c5 583f 2b06 6d3f
00000080: cac8 2c3f c9b4 4d3f bfaf 823f 4c23 7c3f
00000090: b811 a23f 282c 853f ac8b c03f d195 863f
000000a0: 21a9 b13f 3fa1 973f 4e87 8e3f 1a29 b73f
000000b0: 0495 de3f c083 2c3f d893 873f b3a4 3b3f
0.75994754 0.8813086 1.2035633 0.96235955 1.932436 0.8433505 0.6421459 1.215304
0.47086784 0.7617347 1.5173292 0.9106547 1.4047848 1.4258924 1.3818395 1.2004269
0.78573227 2.3898883 0.83693445 0.76391655 1.8442837 1.0129784 1.2294286 0.69941705
1.0364147 1.3626554 1.324828 0.9975705 0.7114437 1.3536614 0.8467583 0.92587537
0.6749388 0.8035398 1.0209883 0.9849136 1.2661657 1.04041 1.5042624 1.051447
1.3879739 1.1846083 1.1135042 1.4309418 1.7389226 0.67388535 1.0591993 0.73298186

arith.constant7 f4 [48]
00000000: 4b37 013e c6e9 103e de88 403e 05b7 a43f
00000010: 86b9 2c3e 8205 b73e 6b23 073e ed9d 6f3f
00000020: 2f6a 0a3f 340c babf 9f86 67be fe3c 523e
00000030: fe3a d33d ce43 033f 3c3b e13c 299e 3fbd
00000040: f1b5 c33e 544b b03e 70a8 e33d 61c8 133f
00000050: 5e47 9bbe 807a bfbc 0f50 25be 5a8d 463d
00000060: c9d6 fe3d 4f0e b5be a20c d93e 863c a33e
00000070: f773 133f 7d25 0fbf 1b4a 693f 8735 ac3e
00000080: b591 4cbd 0ffe ab3e 1b32 433f 8a6d 353f
00000090: bb21 dc3d 1880 443f 644c 95bc e60b 333e
000000a0: 6488 97bd 1e98 a53e 0e86 053f 9d72 0fbe
000000b0: f85c eebd 9159 b0bd 7ff5 c53e 3df7 523e
0.12618749 0.14151677 0.1880221 1.2868353 0.16867647 0.3574639 0.13197105 0.9360035
0.54068273 -1.4534974 -0.22609948 0.20531079 0.10313986 0.51275337 0.027494065 -0.046781693
0.38224748 0.3443247 0.11116111 0.5772763 -0.30327886 -0.023373842 -0.16143821 0.048474647
0.12443311 -0.3536248 0.4239245 0.31882113 0.57598823 -0.5591658 0.911287 0.33634588
-0.049943645 0.3359227 0.7624833 0.7087027 0.10748621 0.76757956 -0.018224902 0.17485008
-0.07399061 0.3234262 0.52157676 -0.14008565 -0.11638826 -0.086108334 0.3866386 0.20602126

arith.constant8 f4 [48, 6]
00000000: 595f 93be 860e c53d a60f ecbd ae73 66bf
00000010: e57c a5be 937f 143c 1979 393e 6525 20bc
00000020: adc2 c73e 9ed4 4cbf 83d4 7b3f 5caa 02be
00000030: 0a51 5c3d e74d 05bd 7fbe 6b3d ed2e 7dbf
00000040: 4857 9cbe cb62 d93f ec3e 003d 88e1 81bb
00000050: 838b 08bd 505a 573f bf62 e03f 7e73 a03f
00000060: 6eba 08bd 8557 e53d 9338 3ebd 07ed 063f
00000070: dccf 613e 5128 8b3f e8e8 3fbd 87ca aa3e
00000080: c3fa 42be a071 323f 6b08 933f 1c5b 6e3f
00000090: 286a 383d de4e 6a3c 6dc4 32bd 20a3 c63f
000000a0: cdf8 7bc0 93e5 2a40 a5eb f7bd 4170 b7bc
000000b0: 7318 4f3c 7e65 24bf 69b4 9d3e 0b9f e33f
000000c0: 544f f3bd 6d7a 0abe 113f f9bd e8b8 0a40
000000d0: 8244 e2bf 04af 06bf 7dc4 efbc 92d1 e93b
000000e0: b4e7 4c3b 9710 37bf 19a0 c93f 8ab5 5140
000000f0: 3698 62bd 2663 be39 cf98 dabb 9882 4ebf
00000100: de80 a83f 13fc 6a3f eb46 aa3c d89f 41bd
00000110: 7f70 623d a9fe 19c0 3801 4240 d4bf 2cbf
00000120: 1d69 07bf 5d85 d9bd f47e 483e c7b9 093f
00000130: 8deb 2e3d 609a b93e 4b41 f13d c56a ea3d
00000140: 8c5c 383e 7a82 723f 0c87 d1bf 3633 903f
00000150: e579 0f3d 6ab3 843d b4ee adbd cba9 62bf
00000160: fa79 793f e470 4c3f cf11 22bd 15a7 78bc
00000170: 5fa9 7e3d 60cf efbf 4094 6b3f acd5 f13f
00000180: 056e 1a3e 5ae2 8c3e d8ea 4fbe c5d3 93bf
00000190: 3495 a13f dd8e c4bd d2d0 92bd 8914 e83d
000001a0: adaf 8dbc c9b0 95bf 4bce d63f 5411 a53f
000001b0: 4b3e 13bc f5ee c4bc 1959 6cbd 832d ed3f
000001c0: 1fc2 813f d5cf 11bf a929 1c3d f6d5 0cbe
000001d0: 6052 383e beee e53e c20d 52be a041 80bf
000001e0: 002d c9bd 8c40 c73d d4f2 3f3d 09ba 94bf
000001f0: 36b5 7c3f 3714 1f3f eb69 86bd 45f0 a5bd
00000200: d4c2 64be a9c1 75bd ef57 cb3f 3978 b33f
00000210: ca06 0b3d f137 c93e 1a2d e93d 135a c1be
00000220: 0d65 60bf 328a 173f bc76 b03d 96b1 0d3d
00000230: 7a6b fbbc 4a7f 803f 13f6 0040 8dd9 8d3d
00000240: 6ddb 9ebb 5537 a73e fefe ae3e e61e 133f
00000250: d29f c3bd 1817 d5bd 49af 473d 1ddb c13c
00000260: 5f43 eebc edf9 ccbe 5539 4240 2563 e53f
00000270: 5523 a5bc 53f3 c7bc 45b7 01bf eb76 013f
00000280: 3cb2 0cc0 57c0 1a3f b1e0 78bd 82b1 7abe
00000290: 9118 a5be a80e d43f 7438 8cbf e2b8 07bf
000002a0: 1bbd c03d 9d15 cf3c 25f4 55be b5ae 713f
000002b0: c25d f03f 1b26 48bf ddbc 053e fb5f 58bd
000002c0: 7f01 05be e8b5 603f d1b8 afbf 6ff6 4b3f
000002d0: 1827 063d 89f9 2fbd f51d 83bd a477 ba3e
000002e0: 80cb f2bc 7e95 7dbf d115 3f3d 21bd 773c
000002f0: 4173 57bd af89 d43e d868 4ebf 78a8 9cbf
00000300: 474c 86bd c5b5 5bbf ff6a d0bc 706e 6f3f
00000310: 2c1d e9bf 01cd 6cbf 0956 68bd 6381 923e
00000320: d959 f3bd 5b93 393e 108b 2c3f 1af8 7f3e
00000330: f6d7 d73d 8768 b1be 68fb db3d 094e b23d
00000340: bb46 37be 68f9 b53e 4117 3abe 6c7d d03c
00000350: ef66 9ebe 8017 b43f 912d 663e 7a36 eebe
00000360: 20cf c93d a049 163d f5d9 81be 03a9 ed3f
00000370: 4f03 443f e61b 02c0 8a24 3cbe 4f9b 35be
00000380: de6d 363e b7d3 c1be 4549 66b9 3fee 353f
00000390: bf38 053f 0f5c f9bd 6bcd f23d ae5f 7f3e
000003a0: 2be8 113d 5287 c4ba bc2f 01bd a4ab 50bc
000003b0: ebe7 363e 075b ffbf 3956 693e a33a 113f
000003c0: 6a7b b93d 1727 8cbe 344e aa3c 36d9 76be
000003d0: ef03 13c0 c52a ac3f 2ba1 023e 535b 443d
000003e0: cebb 193d 4631 493f c20b 473f b43d b33e
000003f0: a9a8 90bd 11f0 523d 4e35 d53c af99 a6be
-0.28783682 0.09621911 -0.11526422 -0.90020263 -0.3232185 0.009063619 0.18112601 -0.009774541
0.39015713 -0.8001193 0.9837114 -0.127603 0.053788222 -0.032544997 0.057554718 -0.9889973
-0.3053534 1.6983274 0.031310007 -0.003963653 -0.033336174 0.8412218 1.7530135 1.2535245
-0.03338092 0.11198334 -0.046440672 0.52705425 0.22051948 1.0871679 -0.046852976 0.3335764
-0.1904097 0.6970463 1.1486944 0.9310777 0.045023113 0.01430103 -0.043644357 1.5518532
-3.9370606 2.670262 -0.121054925 -0.022392394 0.0126401065 -0.64217365 0.30801705 1.7782911
-0.11880365 -0.13523264 -0.12170232 2.1675358 -1.7677157 -0.526108 -0.029268498 0.0071355784
0.0031266036 -0.7150969 1.5751983 3.2767053 -0.05532094 0.00036313495 -0.0066710482 -0.8066802
1.3164327 0.91790885 0.02078577 -0.04727158 0.055283066 -2.4061682 3.0313244 -0.67480206
-0.52894765 -0.1062114 0.19579679 0.537991 0.042705107 0.3625059 0.11780032 0.11446146
0.18004054 0.9473034 -1.6369338 1.1265628 0.035028357 0.06479533 -0.08492795 -0.88540334
0.97451746 0.7985976 -0.039567765 -0.015176554 0.062173244 -1.8735161 0.92023087 1.8893332
0.15081032 0.27516443 -0.2030443 -1.1549002 1.2623658 -0.095975615 -0.071687356 0.11332042
-0.017295683 -1.1694576 1.6781706 1.2895913 -0.00898702 -0.024039725 -0.057702158 1.8529514
1.0137366 -0.5695775 0.038125668 -0.13753495 0.18000174 0.44908708 -0.2051306 -1.0020027
-0.09823036 0.09729108 0.04686244 -1.1619273 0.98714006 0.6214022 -0.06563171 -0.081024684
-0.22339946 -0.05999914 1.588621 1.4021064 0.03394202 0.39300492 0.113855556 -0.37764034
-0.8765419 0.59195244 0.08616397 0.034593187 -0.030690897 1.0038846 2.0150192 0.0692626
-0.004847935 0.32659402 0.3417892 0.5746902 -0.09551968 -0.104047954 0.04875115 0.023664052
-0.02908486 -0.40034428 3.0347493 1.7920882 -0.02015845 -0.024408018 -0.5067027 0.5057208
-2.1983786 0.6044974 -0.060761157 -0.24481776 -0.32245305 1.6566973 -1.0954728 -0.53016484
0.09411069 0.02527886 -0.20893915 0.94407207 1.8778613 -0.78183144 0.13060327 -0.05282591
-0.12988852 0.87777567 -1.3728276 0.796729 0.032752126 -0.042962585 -0.06402198 0.36419404
-0.029638052 -0.9905623 0.046651665 0.015120775 -0.05260015 0.41511294 -0.8062873 -1.2238913
-0.065575175 -0.85824233 -0.025441645 0.9352789 -1.8212028 -0.9250031 -0.056722675 0.2861434
-0.118823715 0.18122618 0.6739969 0.24996987 0.10539238 -0.3465006 0.10741311 0.0870629
-0.17898075 0.35541844 -0.18172933 0.02545043 -0.30937907 1.4069672 0.2247832 -0.46525937
0.09853959 0.036691308 -0.253616 1.8567203 0.7656755 -2.0329528 -0.18373314 -0.17735027
0.17815349 -0.37856838 -0.00021961804 0.7106666 0.5203971 -0.12175762 0.118555866 0.24938843
0.035621803 -0.0014993942 -0.031539664 -0.012736235 0.17861907 -1.9949654 0.22786798 0.567301
0.090567425 -0.27373573 0.020789243 -0.24106297 -2.297115 1.3450552 0.12756793 0.047938656
0.03753262 0.7859081 0.77752316 0.35008013 -0.07063419 0.051498476 0.026026394 -0.32539126

arith.constant9 f4 [48, 6]
00000000: e136 a5bd 267b 18bd 1c2e 583e c34a 343d
00000010: b958 d1be df8f 92be 6742 81be 8517 19be
00000020: 0ea3 fd3d 7a68 0a3e e696 0bc0 9f57 bcbe
00000030: bb90 493c 98f1 153d 930e df3c 9fa5 cf3d
00000040: ebe2 2240 d511 443f 6f05 313e 3d71 03be
00000050: bb4a d73c 67c7 7d3f 14d5 a7be ab44 05c0
00000060: cb0a 643c 6da4 f5bb f64f d6bc 4a93 b8bf
00000070: 701a a63f 1f86 7e3f ba01 0dbd a28b c93d
00000080: a769 62be 1d39 10c0 49de 6a3f 8c2c 8dbf
00000090: 3ee6 acbe 996a b03d 11ea 2b3b 78eb 49bf
000000a0: ea5b 623f d5d3 6c3f 5816 11bd 4391 283c
000000b0: 2422 e43c be2b fcbf 7366 4440 cdc5 863f
000000c0: f314 d53d f19e 0cbe 7d8f 333b 11c8 713f
000000d0: f75e e1bf 4034 b8bf 217c d4bd 361e 913d
000000e0: ce99 113c 9497 cabd 1aac 173f 3806 4740
000000f0: 0040 9cbd 0a44 8fbe 2f08 a6be 32f4 3b3f
00000100: eaaa 433f fb16 293e 3565 4bbe de17 18be
00000110: 1eee 613e 05f6 9b3f 27b0 c3bf f96b 61bf
00000120: 5602 8ebe e942 13be 7355 1a3e 6f4d eb3f
00000130: 52ee 9abf 76e3 29c0 7400 9dbe 7e29 a13d
00000140: 53de 64be 1be7 e93e 3eca 473e 08d8 26bf
00000150: d1ca 8c3c 3fd8 033c d44a 8d3a 9b72 1e3e
00000160: 2e8f a73f 16cb 08c0 064a 3ebe 0537 aabd
00000170: 5f65 a2bd a78b a93f 0a5f 10c0 5cd0 f8bf
00000180: 91a3 54be e0fd e33d 805b aa3b a960 85bf
00000190: 1e27 e13f e257 95be 24f3 893a 4cdb b0bb
000001a0: dc66 85ba fed9 10c0 d81e d8bf d5fa 883f
000001b0: bbb6 54be e2df 933d 6a40 123d e1f0 af3f
000001c0: 271e cbbf fcb4 92bf 7b48 ef3d 8813 123d
000001d0: ce09 513d 742e 24be fa3f 4140 8944 943f
000001e0: 29d9 c53c 31eb d1bb 3ccc dd3c 6666 553e
000001f0: 52d8 05c0 6dbd 5fbf c803 6bbe 18fe 84bb
00000200: 8fd0 353e 3b31 a93f 33a1 4dbd f2d0 0dbf
00000210: 4e70 d9bd d781 e33a 1427 f1bd 676c 85bd
00000220: e325 243e 40ec 453f cabc 163e 6be1 47bd
00000230: ece8 40bd db6b b5be b928 99bf 2d8c fd3e
00000240: bac5 1f3c 41b1 b2bd e22e 213e 867f 6fbe
00000250: 6118 783f 2be8 28be ff88 9cbc 2958 e0bb
00000260: ed93 7ebb 297b ae3e 4e55 0bc0 ced6 833e
00000270: 33fd 9cbd 7960 7dbc 79c1 ee3d 0080 3cbf
00000280: 059f cabe 8f7e 3fbe 5fa2 3bbe bf3b 37be
00000290: c062 bd3c eae2 6dbf f14c 943f 8bcd 263f
000002a0: 1950 1a3e 4fa6 e5bd 8b85 9e3e 925f 903f
000002b0: 968e c13d 6f48 9f3e 8772 e5bc 7673 00bc
000002c0: 799f e0ba bb82 49bf c94a cabf 65e9 8e3f
000002d0: 4138 c8bd 2078 88be 974f 80bd 957e b4be
000002e0: 593b bebf 0f03 2e3d d278 82be 9191 b43d
000002f0: 0e03 353d a9d4 2c3f 226b 22bf 406e dfbf
00000300: 8334 093e 419c 543e 7683 133e f67c 1fbf
00000310: 69e2 21bf b86f 673e 3bd9 e3bd 70b6 8cbd
00000320: a0e5 8e3e df86 6c3f b844 6dbf 3953 47bf
00000330: d99d 59bd 3233 333e 987e 87bd 339a df3e
00000340: 8eca 8f3f 6c9c 5ebf 6654 baba 1b2b febb
00000350: ad85 193e 8c5c 1a3d 6dae c9bf bc4d 5b3e
00000360: 686c ef3c eb57 973c 09ce 1d3c f46e 343f
00000370: 2daf 8abf 2554 28bf ce11 dbbd 478d c63e
00000380: e183 5c3d 0c62 6dbe ea51 673f 0296 abbe
00000390: 7893 e03d 970b 9a3c dba5 80be 967b bbbf
000003a0: 96c2 f0be 37fb 6e3f 7cb7 413e 16e7 cb3d
000003b0: 54be 593d a313 a83d 15fd da3d 6f84 c8bf
000003c0: b335 9abe f2c9 c6bc b3d8 e9bd 5ed0 1e3f
000003d0: d19c 43be 8f4e c9be 33b0 32be 0730 33be
000003e0: 8012 01bf df08 5b3e 5d0c 90bf 9ad5 95bd
000003f0: 866e f93d 3410 033d caca 993d 6303 98bf
-0.08067108 -0.03722682 0.2111134 0.04401661 -0.40888003 -0.2862539 -0.25245973 -0.14950378
0.12384616 0.13516417 -2.181085 -0.367856 0.012302573 0.036607355 0.02722863 0.101390116
2.5451 0.7658971 0.17287229 -0.12836166 0.026280751 0.9913239 -0.32779753 -2.0823162
0.013918589 -0.0074964077 -0.026161175 -1.4419949 1.2976818 0.994234 -0.034425475 0.09841086
-0.22110616 -2.253486 0.9174543 -1.102922 -0.3376941 0.08614082 0.0026232044 -0.7887492
0.884215 0.9251073 -0.0354217 0.010288539 0.02784831 -1.9700849 3.068753 1.0529114
0.10404386 -0.13732506 0.0027398758 0.944459 -1.7607106 -1.4390945 -0.10375238 0.070858404
0.008886768 -0.098921925 0.5924698 3.1097546 -0.076293945 -0.27981597 -0.3242812 0.7341949
0.7643267 0.16512673 -0.19862826 -0.14852855 0.22063491 1.2184454 -1.5288132 -0.8805538
-0.27736157 -0.14380993 0.15071659 1.8383006 -1.210398 -2.654508 -0.30664408 0.07869242
-0.22350435 0.45684132 0.19510743 -0.6517339 0.017186554 0.008047163 0.0010779747 0.15473406
1.309057 -2.1373954 -0.18582925 -0.083112754 -0.07929491 1.3245744 -2.2558007 -1.9438586
-0.2076552 0.11132407 0.005198896 -1.0420123 1.7590063 -0.29168612 0.0010524732 -0.005397236
-0.0010177749 -2.2633052 -1.6884413 1.0701548 -0.20772831 0.07220437 0.03570596 1.3745385
-1.5868577 -1.1461482 0.116837464 0.035663158 0.05103474 -0.16033345 3.0195298 1.1583415
0.024151402 -0.006406211 0.027074926 0.20839843 -2.0913281 -0.87398416 -0.22950661 -0.0040586106
0.1775534 1.3218149 -0.05020256 -0.5539695 -0.106171235 0.0017357421 -0.11775032 -0.06514817
0.16030078 0.77313614 0.14720455 -0.04879896 -0.04709713 -0.3543385 -1.1965553 0.49521008
0.0097517315 -0.08725215 0.1574054 -0.2338849 0.969122 -0.16494815 -0.019108294 -0.006846447
-0.0038845495 0.3407834 -2.1770816 0.2574982 -0.076654814 -0.015464895 0.11657996 -0.7363281
-0.39574447 -0.18700622 -0.18323658 -0.17893885 0.023118377 -0.9292437 1.1585981 0.65157384
0.15069617 -0.112133615 0.3096126 1.1279166 0.09451024 0.3110995 -0.028008712 -0.007840028
-0.001713737 -0.78715104 -1.5804073 1.1164976 -0.097763546 -0.26654148 -0.062651806 -0.35252824
-1.4861861 0.042483386 -0.25482804 0.08816827 0.044192366 0.67511994 -0.6344472 -1.7455521
0.13398938 0.20762731 0.14405617 -0.6230005 -0.632361 0.22601211 -0.11125418 -0.06870735
0.27909565 0.92393297 -0.9268298 -0.7786136 -0.05312905 0.17499998 -0.06615943 0.43672332
1.123369 -0.8695743 -0.0014215827 -0.0077566034 0.149924 0.037685916 -1.5756356 0.21416372
0.029226497 0.01847454 0.009631642 0.704818 -1.083471 -0.65753394 -0.10696755 0.3877966
0.053836707 -0.23181933 0.90359366 -0.33512884 0.109656274 0.018804355 -0.25126538 -1.464709
-0.47023457 0.93352073 0.1891765 0.099561855 0.053160027 0.082068704 0.10692803 -1.5665416
-0.30119094 -0.024266217 -0.11418285 0.62036693 -0.1910279 -0.39317748 -0.17450027 -0.1749879
-0.50418854 0.21390103 -1.1253773 -0.07316132 0.12179284 0.031997874 0.07509382 -1.1876034

arith.constant10 f4 [48, 6]
00000000: b080 1b3e 7a6c 80be 4658 dd3d c81f 2d3f
00000010: 66ec 2a3e 3f99 e7be 2aab 9b3e bcb8 edbc
00000020: 1f15 593d 1d8e 04bf ad2e bc3f 7bd3 903f
00000030: 45f1 583d 3c80 063d d32b bebc 58f2 7dbe
00000040: c115 c83e 8b5b acbe 4e9c 9b3d 41dc f5bc
00000050: 087b 05be 79c7 a6bf 04ad d1be 1073 2d3f
00000060: 96bb 573b 129f dfbb d397 56bd fa36 573f
00000070: 88d6 8dbe c724 783e 3d00 1fbe 8735 1dbe
00000080: 96cb 833d eb7f a03f 32fc 5fbf 28a0 9abf
00000090: e413 35bd 2a0a a2bd 7c58 b0bd 4472 42bf
000000a0: 6892 973e a597 b63f 5a2d 4c3c 139d 88ba
000000b0: dbca 35bd fc98 983f 66ce f53e 35fe f73f
000000c0: 7642 30bc 318d 68bd 6623 af3b 77a2 adbe
000000d0: 3805 10bf f048 043e 833b d13a 33ad 70bb
000000e0: 5e9e f13b 26a2 70bf 2537 8440 845d e4be
000000f0: bd52 16bb 925a 7cbc 9fab 97bc 5fbb 37bf
00000100: 4203 b53f 8d06 963f 99c1 943e a330 39be
00000110: 5170 1cbc 647a 40bf 525b f4be b55c 323f
00000120: 75b3 913c 86db ed3b 067e 623c 2769 2bc0
00000130: 7248 92bf 4896 993f c0d0 7fbc 0929 843b
00000140: 3c75 453c 4667 0dbf d479 d23f e655 633f
00000150: 559a b93c c375 cfba 8887 1cbd 8795 b43e
00000160: 7f38 24bf aea3 553e 1f54 3b3d 600d 923c
00000170: d8d6 6d3c 8cf4 d63e a7f9 5b40 55ff a63f
00000180: 6820 aabd 0b3f 1ebd 448c 793e c1cf 0a40
00000190: 28eb 3fc0 0756 4cbf b856 2bbd 7443 463a
000001a0: 50f3 27bb 1df5 8bbf 6276 7e3f a4b6 1940
000001b0: c437 573d 7256 23bc 7cbe 4abd 1298 dc3f
000001c0: 0442 733f 37db b73f 7f6b 82bd 2b5b 2ebc
000001d0: 5e13 cc3c c68d c4bd 09a4 ad3f 1aa2 e13f
000001e0: 1677 67bd 0505 81bc da7d 573d 9a1a 65be
000001f0: c166 bebe a170 1040 1a4e 9cbc 1198 9dbb
00000200: 8d3d eb3a 5f7d 08bf d412 0b3f 1370 87bf
00000210: 828c 763d 8ed3 2dbc 584a e4bc c264 9ebf
00000220: f103 983e d62c 2e3e cfbd 833e 073e cabd
00000230: 62e1 09be f2d3 74bf e2e8 783f ed0c 723f
00000240: 34f9 cd3c 4125 bebc 5f6f 18bd 61a0 b7bf
00000250: 645b 0bbf cd15 543f 844d 4c3d 2c03 e53c
00000260: ae5e a73b a67f 923f 49ce 6140 b8b7 3d3f
00000270: 1f39 9c3c 10c1 693e 55cd ec3d 5517 863e
00000280: 66db 18bf 8fea a63f d844 8ebd aac1 47bd
00000290: ff88 afbd ffbf 393d a000 b4be 6907 b83d
000002a0: 727e 18be f678 c1bd 0667 3abe 1655 abbe
000002b0: e091 543c 2fdf 2c3f 7077 4bbc f476 13bd
000002c0: bdcb d7bc 0667 b4be a223 f03f f19e 08bd
000002d0: fc6c 1f3e 6052 463d 54fe 003e 1f21 05bf
000002e0: 072f 28c0 fbc8 a6be 9792 923c 79cd 813e
000002f0: 4be2 7cbd 91f5 39bf caf3 b7bf a41e 5e3f
00000300: 3eb3 433e caf8 b23d 4846 0abe bf7d 5ebf
00000310: d512 fa3f 154d 103f 6375 163d 0ea4 05bd
00000320: 21e3 66bd 4647 0ebe d9ac 9dbe e9d2 b83f
00000330: 6ab4 aabc 77c6 50bc 213a 06bd e103 61bf
00000340: f3e2 8bbe 0daa 9a3f 5c67 1abe 7942 a93d
00000350: 88df 353e 6c86 7b3f 425d 393f 70ff 1bbd
00000360: 2e3b bbbc 7c01 09bc 10af f53d e9fd 913f
00000370: 494a f23e ef5f 983f aa16 10bd cf26 b9bc
00000380: d23b d6bb db35 8abf 4cc4 82bf 5792 f43e
00000390: ae2a 0abc bcf5 00bd db14 54bc d552 ccbf
000003a0: 5aa7 8bbf 1770 803f b67f 71be 324e 9ebd
000003b0: 9621 fbbc 2558 e3be 85a9 933f 3f73 673f
000003c0: 65a5 36be ff71 233d 9fb0 443c ddbf 42bf
000003d0: 33d6 48bf ad0a 2f3f 24c7 5b3e 9bb5 603d
000003e0: aa03 da3d 072f 20bd e72d 263e 018b e63f
000003f0: 7324 863e 2ef2 1e3e d493 313e a2ac 5d3e
0.15185809 -0.2508276 0.108078524 0.6762662 0.16691741 -0.45234105 0.30404025 -0.029018752
0.05299866 -0.5177935 1.4701744 1.1314539 0.052964468 0.032837138 -0.023214256 -0.24799478
0.39079097 -0.33663592 0.07598172 -0.030012252 -0.13035214 -1.3029624 -0.40952313 0.67753696
0.0032918206 -0.0068243826 -0.052390885 0.8406826 -0.27702737 0.2423278 -0.15527435 -0.1535245
0.06435315 1.2539037 -0.87494195 -1.2080126 -0.044208422 -0.07912095 -0.08610627 -0.75955606
0.29603887 1.4265028 0.0124619845 -0.0010422788 -0.04438291 1.1921687 0.48009032 1.9374453
-0.010758033 -0.056775276 0.005344796 -0.33913013 -0.56257963 0.12918448 0.001596317 -0.0036724329
0.007373615 -0.9399742 4.1317315 -0.44602597 -0.00229375 -0.015402453 -0.018514453 -0.7177028
1.4141619 1.1720749 0.29053953 -0.1808496 -0.009548263 -0.75186753 -0.47725922 0.6967271
0.017785767 0.0072588352 0.013823992 -2.678293 -1.1428359 1.1998987 -0.015613735 0.004033212
0.012051877 -0.5523571 1.6443429 0.88802946 0.022656599 -0.0015827942 -0.03821519 0.3527033
-0.64148706 0.2086322 0.04573452 0.017828643 0.014516555 0.4198345 3.4371126 1.3046671
-0.08306962 -0.03863434 0.24369913 2.1689303 -2.9987278 -0.7981877 -0.04183075 0.0007563152
-0.0025627203 -1.0934178 0.9939939 2.4017725 0.052543417 -0.009969341 -0.049498066 1.7233908
0.95022607 1.4363774 -0.063681595 -0.010641853 0.024911579 -0.09597354 1.3565685 1.7627594
-0.056510054 -0.015749464 0.052610256 -0.22373429 -0.3718777 2.2568743 -0.01908021 -0.0048093875
0.0017947421 -0.533163 0.54325604 -1.0581077 0.060192592 -0.010609521 -0.027867481 -1.2374499
0.29690507 0.17009291 0.2573075 -0.09875112 -0.13464883 -0.956359 0.9723035 0.94550973
0.025143243 -0.023211123 -0.037215587 -1.4345819 -0.54436326 0.82845765 0.049878612 0.027955614
0.0051077222 1.1445205 3.5282156 0.7410846 0.019070206 0.22827554 0.115626015 0.26189676
-0.59709775 1.3040332 -0.06946725 -0.048768677 -0.08571052 0.045349117 -0.35156727 0.089857884
-0.14891985 -0.094468996 -0.18203363 -0.33463353 0.012974232 0.6752805 -0.012418613 -0.036002114
-0.026342267 -0.3523485 1.8760874 -0.033354703 0.15568918 0.048418403 0.12597018 -0.52003664
-2.6278703 -0.3257521 0.017892165 0.25352076 -0.061739247 -0.7264033 -1.4371274 0.86765504
0.19111344 0.08738859 -0.13503373 -0.86910623 1.9536997 0.5636762 0.036733042 -0.032627158
-0.05636895 -0.13894376 -0.30795935 1.4439365 -0.020837981 -0.01274263 -0.03277028 -0.87896544
-0.27321586 1.2083145 -0.15078491 0.08264632 0.17761052 0.98251987 0.72407925 -0.0380854
-0.022855368 -0.00836217 0.11996281 1.1405612 0.473223 1.1904277 -0.035177864 -0.022601513
-0.006537893 -1.0797685 -1.0216155 0.47767898 -0.008433027 -0.03148435 -0.012944425 -1.5962778
-1.0910447 1.0034207 -0.23583874 -0.07729758 -0.030655663 -0.44403186 1.1536108 0.90410227
-0.1783653 0.039903637 0.012005 -0.7607401 -0.7845184 0.68375665 0.21462685 0.054860692
0.1064523 -0.03910735 0.16228448 1.8011171 0.26199684 0.15522072 0.17341548 0.21647885
