training program/model_LSTM.tflite (tflite, 56104 bytes, 16 tensors)

sequential/dense_1/BiasAdd/ReadVariableOp f4 [28]
000000 30 a3 99 bd 52 88 a5 bd 48 51 9a 3e b6 40 3c bd
       -0.07501829 -0.08082642 0.30140138 -0.04596015
000010 04 db 34 3e c6 69 b6 3b 8b 40 41 bd 5b b2 b7 bd
       0.17661673 0.0055668084 -0.047180694 -0.089695655
000020 7e 89 d7 bd 9f 1c 19 be 94 43 51 be 28 67 a8 3d
       -0.105242714 -0.14952324 -0.20435935 0.082228005
000030 6c 1d f8 bc ee e0 a6 bc 37 2b 2d bc 66 b6 c8 3d
       -0.030287467 -0.020370927 -0.010569385 0.09800415
000040 4d 91 8b 3d 3f 33 45 bc 04 b2 47 be f0 0f 5a 3e
       0.06814823 -0.012036144 -0.19501501 0.21295142
000050 11 19 99 3d 04 44 aa 3c 2f c6 4e 3e 3f e4 a5 bc
       0.07475484 0.020784386 0.20192789 -0.020250438
000060 72 94 54 bd bf c5 e6 bd f6 a8 41 bd f3 b2 bb 3d
       -0.05189938 -0.11268186 -0.047280274 0.09164991

sequential/dense/BiasAdd/ReadVariableOp f4 [32]
000000 9f 30 22 bd c5 df d0 3e 0e f1 86 3d 91 7f 8c 3e
       -0.03959715 0.40795723 0.06588946 0.27441075
000010 00 33 d0 3d 09 c9 89 3d 44 ed 72 3e c8 bd c7 3e
       0.101659775 0.067277975 0.23723322 0.3901198
000020 83 d5 d7 3e 72 43 16 3e 39 b7 c5 3d 61 11 47 3e
       0.42155084 0.14674166 0.096540876 0.19440223
000030 89 fd 41 3e 7c 9c 53 3e ef a1 fb 3d e3 72 5b 3d
       0.18944372 0.20665163 0.12286746 0.05357636
000040 ef 2b 6e 3e fd 0d 58 3e bf a9 cb 3d e0 6a 54 3d
       0.23258947 0.21099086 0.09944486 0.051859736
000050 87 52 9c 3e ef 46 8b 3e 8f f6 8d bc bd 88 df 3d
       0.30531713 0.27202556 -0.017329482 0.10914753
000060 32 5d 33 bd 2d 7c b5 3a 49 e0 60 3d a0 2e 4c 3e
       -0.04379005 0.0013846211 0.054901395 0.19939661
000070 a2 38 30 3e a7 56 20 3e 03 8b 40 3e 67 76 07 3e
       0.17209104 0.15658055 0.18803029 0.1322876

arith.constant f4 [48, 48]
000000 3d 21 87 3a ff cf f1 bd f0 f2 66 be 96 45 b3 bd
       0.0010309588 -0.1180725 -0.22553611 -0.08753507
000010 94 4b 7c 3e 53 ff e7 3d 0e 94 d1 3d 22 79 70 3e
       0.24638206 0.11327996 0.10233317 0.23483709
000020 d1 03 11 3f 3e 75 8f 3e 25 e7 52 3b 4e 80 e7 3e
       0.5664645 0.28019136 0.003218123 0.45215076
000030 83 4e ec 3b e5 16 6f 39 df 5c aa be d7 af 02 3e
       0.0072115078 0.00022801345 -0.3327398 0.1276239
000040 1a cc dd 3e 15 6b 03 be 0c cf 2f be 4b ef f6 3e
       0.4331978 -0.12833817 -0.17168826 0.4822944
000050 32 f6 71 be 33 df 45 be af 34 20 3e c7 77 01 be
       -0.23629072 -0.19323425 0.15645097 -0.12643348
000060 97 50 a8 3c fa 1d 16 3f 23 63 bd 3e ca 4c 50 3e
       0.02054624 0.5863949 0.36989698 0.20341793
000070 99 78 84 bd 73 75 d7 bd c1 c4 bd bd 2b 6d 36 bd
       -0.06468315 -0.105204485 -0.092660435 -0.044537704
000080 8f 94 cf bd cb 4f 86 be 62 e1 1b 3d 67 3a 33 be
       -0.10135757 -0.26232752 0.03805674 -0.17502747
000090 28 b8 0b 3e b1 ad 89 3e 31 84 a8 3e d0 24 99 bb
       0.13644469 0.2689033 0.32913354 -0.004673578
0000a0 d2 69 c1 3d 77 77 bc bd 1f ea 98 3e 7e 97 10 bf
       0.09444012 -0.092024736 0.2986612 -0.5648116
0000b0 42 d3 e6 3c c7 7b f5 3d 9c 10 f8 3d 40 e9 3b 3e
       0.028176907 0.11986499 0.12112543 0.18350697
0000c0 3b 8f 9a 3d a0 31 2b 3e a8 49 c0 be b6 41 7c 3d
       0.0754685 0.16718149 -0.37556195 0.061586104
0000d0 d6 eb b4 3e b7 17 14 3f 20 de e3 3e 36 bf 36 3d
       0.3533618 0.57848686 0.44505405 0.044615947
0000e0 17 f9 ca 3d 22 46 d2 3e 3e 7b 01 3f b0 bb dd be
       0.09910791 0.41069132 0.5057868 -0.43307257
0000f0 1a f1 01 3e 34 b1 57 3e 81 4f dd be f7 82 59 be
       0.12689629 0.21063691 -0.4322472 -0.21241365
000100 b7 c0 1f bf bb 66 06 be c3 d9 cd be 3a 87 56 3d
       -0.62403435 -0.13125126 -0.40205202 0.052375056
000110 b0 21 02 bf df aa 93 3c 80 d9 19 3e d7 d9 51 be
       -0.50832653 0.018025814 0.15024376 -0.20493256
000120 a0 90 1d 3f 0a 80 aa 3d 07 d2 97 be 10 db 7e 3e
       0.61548805 0.08325203 -0.29652426 0.24888253
000130 16 60 16 be a0 25 be bd 59 24 31 bd 81 14 58 3d
       -0.14685091 -0.0928452 -0.043247554 0.05275393
000140 6b 29 2d 3e 50 66 28 be 0e f4 cc 3e d9 d3 a1 be
       0.16910331 -0.16445279 0.4002995 -0.3160694
000150 6c 9e 6f bf 15 0a 5b 3f e4 df c6 3e c6 40 2a 3e
       -0.9360111 0.8556226 0.3884269 0.16626272
000160 6d 14 02 3e 6c 04 63 be 02 0b 3b 3f 4a 5d 88 3e
       0.12703104 -0.22169656 0.7306367 0.26633674
000170 70 11 c6 3e 57 49 cd 3e 27 0b 96 3e 28 3e a9 3e
       0.3868518 0.40095016 0.29305384 0.33055234
000180 94 35 98 3e fe 44 91 3e 75 1b 36 3e be c3 b1 3e
       0.29728377 0.2837295 0.17783912 0.34719652
000190 cf d8 79 3e 95 b6 1a 3f 03 50 2d 3c a8 3f 32 be
       0.24399112 0.6043485 0.010578158 -0.17407095
0001a0 e5 ac 33 be 7e 08 12 3d 6c cb e5 3a f9 30 9f be
       -0.17546423 0.03565263 0.0017531938 -0.3109205
0001b0 60 70 d1 bd d1 90 eb 3e db 8f ce 3d e7 fd be 3e
       -0.10226512 0.46008924 0.10086032 0.37303087
0001c0 97 35 cd 3d 39 54 b5 3e b9 78 c1 3d 7e 83 07 bf
       0.10019987 0.3541582 0.09446854 -0.52935016
0001d0 c0 47 f9 be 9b 48 fe 3e 66 0e 98 3e 3f 97 c7 be
       -0.48687553 0.4966477 0.29698485 -0.3898258
0001e0 1e 57 05 bd a6 5f c0 bd b2 87 b9 be e9 03 ad be
       -0.032553785 -0.093932435 -0.3623634 -0.33792046
0001f0 5f d0 ca be d5 9c 04 be 3a 06 38 3f 36 05 96 3e
       -0.396121 -0.12950452 0.718845 0.2930085
000200 4f 09 2e be 90 d5 1b 3f fb 5f 6e be 0a 50 1e bf
       -0.16995738 0.60872746 -0.23278801 -0.6184088
000210 17 e1 7a be f7 ad c0 be 49 73 74 3e f8 73 c9 bc
       -0.24499927 -0.37632725 0.23872103 -0.024591431
000220 c9 f9 a1 3e e2 cd b6 3d ca aa fd 3e 3f dd 24 be
       0.31635883 0.08925988 0.49544364 -0.16100024
000230 c9 64 01 3f 64 41 8c bd bf 2e d1 3d 43 0e 38 3e
       0.5054441 -0.0684841 0.10213994 0.1797419
000240 e7 cf 10 3e 05 84 8d 3d 13 59 77 3e 60 c2 76 3e
       0.14141808 0.06909946 0.24155073 0.24097586
000250 6b 85 ea 3e 94 87 eb 3d 46 f8 03 3d ad 2f 93 3e
       0.45804915 0.11500469 0.032219194 0.2874731
000260 ff a2 02 3e 79 fe 0b bc 65 ff cf 3e a2 59 43 be
       0.1275749 -0.008544558 0.40624538 -0.19077161
000270 d5 82 77 3e be ef 2a 3e f6 79 81 be f1 f7 08 3e
       0.24171002 0.16693017 -0.2528836 0.13375832
000280 ae 54 88 be 1a 54 d5 3d 58 a1 38 bd 57 6d 0f bf
       -0.26627105 0.10416432 -0.045075744 -0.56026214
000290 b2 f6 bf 3e 2c 6a c9 3e a1 9b c7 3e 93 6b bb 3e
       0.374929 0.39338815 0.38985923 0.3660551
0002a0 16 ff 0c bd 46 f8 2e be 22 22 ea 3e b2 81 71 be
       -0.034422956 -0.17086896 0.45729166 -0.23584631
0002b0 3b 9b 1e bf a7 e8 c2 3d ba 43 ad 3e b1 75 b2 3e
       -0.6195561 0.09517031 0.33840734 0.34855416
0002c0 e5 eb 89 bb ef dc 69 3e 25 e5 e8 be d3 83 9c be
       -0.004209029 0.22838186 -0.45487323 -0.30569324
0002d0 d8 b2 83 3e 92 84 7e bb 23 d3 3e 3e cb 19 17 be
       0.25722384 -0.0038836342 0.1863523 -0.14755933
0002e0 4e f0 ab 3e f6 60 1e 3f a1 fe 1c 3f 03 90 5d be
       0.33581775 0.618667 0.6132603 -0.21636967
0002f0 6c b4 46 be fd 6a b6 3d 29 d6 26 be 70 90 c5 3e
       -0.19404763 0.08907125 -0.16292633 0.3858676
000300 af 3d 70 be 4b f1 a8 3e 84 2e 00 be 26 59 96 3e
       -0.2346103 0.32996592 -0.12517744 0.2936489
000310 72 7e 35 bf f2 a8 23 3e aa cb 26 3f 51 43 28 3f
       -0.70896065 0.15982416 0.65154517 0.65727717
000320 5f a6 c5 3d ce d0 ba 3d d1 c5 b0 3e aa 7a 20 be
       0.096508734 0.091218576 0.34525922 -0.15671793
000330 e3 04 31 be fc 17 b3 3e 95 25 fd bd e0 b7 d3 3e
       -0.1728702 0.34979236 -0.12360684 0.41351223
000340 05 c1 9a 3d 89 12 dd be 7a 6f 31 3f 48 5e 4e be
       0.07556347 -0.43178204 0.69310725 -0.20153153
000350 5c 71 79 be 43 cd 5e 3d e1 ab 89 3e b8 67 99 3d
       -0.2435965 0.05439497 0.26888946 0.07490486
000360 a3 17 60 3e b9 0b 04 be 17 82 4e bd 80 f5 da bd
       0.21884017 -0.12895097 -0.050417032 -0.10691357
000370 d6 73 04 bf af 7c 44 bd fb 1f 6f 3e fe d3 0c 3f
       -0.5173925 -0.04797047 0.23352043 0.55010974
000380 e5 47 1e be d7 96 9d b9 71 af 04 3e 33 98 23 bf
       -0.15457113 -0.00030057758 0.1295755 -0.6390411
000390 b7 81 c6 be c5 5f 49 3e e5 78 0b 3b 52 72 ef 3e
       -0.3877084 0.1966544 0.0021281776 0.46766907
0003a0 91 9b db 3e 9f f2 4d 3e 38 e6 cf 3e 76 4f d0 bd
       0.42892125 0.20112084 0.4060533 -0.10171406
0003b0 92 8f 15 be 86 60 bd 3e 39 6c d5 3e 81 ea f8 3e
       -0.14605549 0.36987704 0.4168413 0.48616412
0003c0 98 7d 67 3d 36 f5 fd be af 9e 34 3e 93 9a c1 3e
       0.05651626 -0.49601144 0.17638658 0.37813243
0003d0 97 8b b2 3e 52 06 94 3e 68 02 b3 3e 8a 7e 10 bf
       0.34872124 0.28911072 0.34962773 -0.56443083
0003e0 b8 2c 62 3d 16 54 9c 3d 86 0e d4 bd 95 65 8b be
       0.05521843 0.076332256 -0.103543326 -0.27225938
0003f0 b5 fb 42 bc 35 04 30 3e ba 0f 90 be fd b4 26 3d
       -0.011900832 0.17189105 -0.28136998 0.040699948

arith.constant1 f4 [48, 48]
000000 ce de e3 3d cc 7e ab 3d 8e 2e 6c be c5 66 ab 3c
       0.11126481 0.08373794 -0.23064634 0.020923028
000010 e9 48 24 3e 56 92 69 3e f8 7b d6 3d 62 3c 0e 3d
       0.16043438 0.22809729 0.10472864 0.034725554
000020 aa 5b 17 3c e1 b8 be be 6d 53 86 3d 6d b0 fb bd
       0.009238163 -0.37250426 0.06558881 -0.1228951
000030 0d c4 37 bc 67 3a 8b 3b a1 64 72 3e 5c 16 b8 3c
       -0.011216176 0.0042489055 0.236712 0.0224716
000040 2a de c9 bd f2 6b b0 be 95 ff ea bd 5d 65 13 3e
       -0.098568276 -0.34457356 -0.1147453 0.14394136
000050 0c e4 3a 3e bc 2f a5 be ff 1f 99 bd 74 94 22 be
       0.18251055 -0.3226298 -0.07476806 -0.15876943
000060 22 63 b8 3d 3f 6a e1 3d 2f 2d 0c 3e 6c d0 e6 3c
       0.09003283 0.11006593 0.13689111 0.028175555
000070 9c 6f 49 bd a8 1e 90 3d e8 7d 4f 3d c1 12 b0 bd
       -0.049178705 0.07037097 0.050657183 -0.08597327
000080 8e e3 2e 3c 45 f8 aa bc 65 09 1d be 53 97 bc 3d
       0.01067437 -0.020870337 -0.15335615 0.0920855
000090 84 5c ad 3b fd 37 c8 3c 54 45 15 3e 91 ce 5d be
       0.0052905697 0.02444076 0.14577228 -0.2166083
0000a0 79 92 8f 3c 3e a5 79 be b0 54 59 bd 67 60 4f bc
       0.017525898 -0.24379441 -0.05305928 -0.012657261
0000b0 88 c1 93 bd 2a 99 65 3d f3 e5 b3 bd 39 99 3b bd
       -0.072146475 0.05605427 -0.08784094 -0.04580042
0000c0 d1 aa 03 be 78 31 fa bd 23 55 6c be 09 c2 ea bd
       -0.1285813 -0.12216467 -0.23079352 -0.114627905
0000d0 71 c9 0b be 63 8d 3a 3e 74 8d 01 be 80 69 10 bb
       -0.13651063 0.18217997 -0.12651616 -0.002203554
0000e0 12 13 aa bd 55 c3 0d be 26 08 7d bd d4 af 0b 3c
       -0.083044186 -0.13844045 -0.06177535 0.008525807
0000f0 63 29 b4 bd 68 24 86 3d 92 86 dd bd 9e 71 86 bd
       -0.087969564 0.06549913 -0.10816683 -0.065646395
000100 00 d3 6c be eb 05 1e bc 1b f6 b4 be 4a e0 b2 be
       -0.23127365 -0.009644966 -0.35344014 -0.34936744
000110 66 b7 08 be fa 07 09 3e 46 12 d2 bd 8c b5 34 be
       -0.13351211 0.13381949 -0.10257392 -0.1764738
000120 ea 63 e8 3d 42 97 59 3e d4 b1 b4 bc f0 b8 04 3e
       0.11347182 0.21249107 -0.022057451 0.12961173
000130 11 01 0b be a5 e0 86 3b 3e e3 99 3b 05 33 b7 be
       -0.13574626 0.004116135 0.004696279 -0.35781112
000140 42 54 f4 3d fd ef b4 3c 9f 35 09 3c 7a e7 20 3e
       0.119301334 0.022087092 0.008374601 0.15713301
000150 c1 c1 33 3d 9e 19 23 3d 03 13 96 bc ed 6b 52 be
       0.04388595 0.039819352 -0.018319612 -0.20548983
000160 fa 8b 77 bc ff 8d 84 3e b1 69 7b bd bb fc 06 3e
       -0.015109057 0.25889584 -0.061380092 0.13182347
000170 b1 2e 2e bc ce f0 68 3d 07 b7 83 be 50 e6 f0 bd
       -0.010631249 0.056870274 -0.25725576 -0.117626786
000180 8e 4c 9f bd e3 06 87 3c 33 ed 55 3e fc 41 0a bd
       -0.077782735 0.016482776 0.20891266 -0.033754334
000190 5a cc 28 3e 04 64 f4 3c 94 52 00 3d d6 bd a6 be
       0.16484204 0.029832847 0.031328753 -0.32566708
0001a0 c5 77 25 be 19 67 20 3e c5 55 a3 bd 3a 5c 02 be
       -0.1615897 0.15664329 -0.079753436 -0.12730494
0001b0 b2 dc 88 3c 4b e4 a2 bd 1b 8c 27 3d 7d e4 7d 3e
       0.016706798 -0.079537 0.0409051 0.24794193
0001c0 87 b0 44 be 1f 39 9a 3e 35 3e ad bd 13 17 04 be
       -0.19207965 0.30121705 -0.08459131 -0.12899427
0001d0 fc 55 9d bd 80 5c 21 3e ef 74 17 3e 6c 9f 3b bd
       -0.07682416 0.15757942 0.147907 -0.045806333
0001e0 c1 31 de 3c ed 38 56 be f1 5f 28 be 69 89 39 be
       0.027123334 -0.20920153 -0.16442849 -0.18118824
0001f0 99 7b e6 3d af 70 3c 3c 8e 10 6e bd 90 51 84 3e
       0.11254043 0.011501475 -0.058121257 0.25843477
000200 3c 32 1a bd 18 c6 52 3e 8f c8 81 3c cb 18 19 be
       -0.037645563 0.2058338 0.015842704 -0.14950864
000210 cf b8 4b 3e e2 d8 69 be 3c b1 05 bd e0 61 f3 3d
       0.19894718 -0.2283664 -0.032639727 0.118839025
000220 34 18 4d bd 5d 70 1b be 2d 4f b0 3b 3a 26 0a 3d
       -0.05007191 -0.15179582 0.0053805322 0.033727862
000230 36 12 18 3d 63 9c c0 be 8d 82 6f 3d eb 46 19 bc
       0.037126742 -0.37619314 0.058474112 -0.009355287
000240 8b 20 9e 3e 68 8d e0 3d cd dd 35 be 56 95 5f 3e
       0.30884203 0.10964471 -0.17760392 0.21834311
000250 07 17 1f bd a1 6b 86 3d ca 02 f3 3d ed 89 07 3d
       -0.03884032 0.06563497 0.11865766 0.03309052
000260 c2 c6 87 be 75 55 b8 be 3b ea e4 3d 37 f1 d3 3d
       -0.26518828 -0.360027 0.111774884 0.103487425
000270 b4 9e c3 bd 92 51 0a 3e bd ad 41 3d 52 75 51 3d
       -0.095517546 0.13507679 0.04728483 0.051137276
000280 f9 fa 77 be 7f c8 36 be 73 0b 36 3e 37 96 10 3e
       -0.24216832 -0.1784992 0.17777805 0.14119802
000290 d9 7b a3 3c f8 42 7d 3d dc ec c0 3d e2 9e 09 be
       0.019956516 0.061831445 0.09420177 -0.13439515
0002a0 7e d0 f5 3b f8 b6 1c bc 30 20 1b be 6e f3 36 be
       0.007501661 -0.0095651075 -0.15148997 -0.17866299
0002b0 a5 59 84 bc 67 da a7 3e 3f 1d e7 3d 6e 60 98 3d
       -0.016156027 0.32783815 0.11284875 0.074402675
0002c0 a4 c8 82 bd 9e dd f5 3b 48 fd 1f be 82 7b 00 3c
       -0.063859254 0.0075032255 -0.15623963 0.007841947
0002d0 40 e2 3d 3c bc 82 cc bd cb 96 25 be 4e 0e 2e be
       0.011589587 -0.09985873 -0.16170804 -0.16997644
0002e0 98 3a 76 3d 05 49 ae be 04 97 df bd 63 a0 9b bd
       0.060114473 -0.34040084 -0.10917476 -0.07598951
0002f0 75 cf ad bd fd 7f 93 3c bd c9 e0 bd 59 29 a2 3b
       -0.08486835 0.018005366 -0.109759785 0.0049487767
000300 11 b7 a5 3e 03 62 6f 3d 5d 5c b4 3d 1f a7 8a 3e
       0.3236623 0.05844308 0.088066794 0.27080628
000310 11 05 80 3e 47 ec f8 3b 97 ea 3c 3e fd 97 0e 3e
       0.25003865 0.007596526 0.18448864 0.13925166
000320 eb 05 9f 3d 65 f0 b7 bd fd c6 ca bc 61 26 2c 3e
       0.07764801 -0.089813985 -0.024753088 0.16811515
000330 68 cb 5e be a1 f6 f6 bd 07 a3 f8 3b 3b 34 38 bd
       -0.21757281 -0.120587595 0.0075877937 -0.044971686
000340 ca 81 a6 bd 63 56 21 be 72 a3 82 3c 50 d6 6a be
       -0.08130224 -0.1575561 0.015947077 -0.22933316
000350 6d a1 42 3e 46 b8 7b 3d cf 90 78 3e 95 03 03 3e
       0.19006892 0.061455034 0.2427399 0.12794335
000360 bd 21 31 3e 4d 57 1d bd 6c e4 b5 3d a3 36 92 be
       0.17298026 -0.038413335 0.08881459 -0.2855731
000370 ca c4 01 3d f9 e1 d3 bd 6e 5e d3 bd 8d c8 08 bd
       0.031681813 -0.10345835 -0.103207454 -0.033394385
000380 0b 47 15 be 32 bd 84 3e e6 68 97 3d 38 d1 95 be
       -0.14577882 0.25925595 0.07393055 -0.29261184
000390 31 ac 65 3c 3c 8b 07 3e 89 a2 87 3e 15 29 f3 3d
       0.014018104 0.13236707 0.26491192 0.1187307
0003a0 e4 f0 2f 3d 16 c3 40 be 13 9f 28 3e ef e8 b3 bd
       0.04295434 -0.1882442 0.16466932 -0.08784663
0003b0 ce 31 57 3e cf 32 ad bc 21 a4 63 3d 0e 70 2b 3e
       0.21015093 -0.021142391 0.055576447 0.16741964
0003c0 d7 bb e8 3d 87 e5 be 3d 58 e4 61 bc cb bb 1c 3e
       0.113639526 0.093211226 -0.013787352 0.15306012
0003d0 08 53 bc 3e db f4 19 3e 63 d5 26 be 6b 86 48 be
       0.36782098 0.15034811 -0.16292338 -0.19582526
0003e0 ef 2a 2f 3d 36 23 89 be f2 86 d2 bc 8f 11 09 bd
       0.042765554 -0.26784676 -0.025699113 -0.03346401
0003f0 de 6b 4f 3e fe dd 6f 3e fb 15 af 3d 9c 19 44 3c
       0.20255992 0.23424527 0.08549114 0.011968996

arith.constant2 f4 [48, 48]
000000 b2 d5 01 be 49 a4 97 bd ee af 3d be dc 25 44 3e
       -0.12679175 -0.07404382 -0.18524143 0.19155067
000010 fe fa cf 3e 3e a6 4f 3d e4 ed 1d 3f bf ee 32 bc
       0.4062118 0.05069565 0.6169112 -0.010921179
000020 a7 81 62 3e 04 47 34 3e 13 46 38 3f 6e dd 9a 3d
       0.22119771 0.17605215 0.71981925 0.075617656
000030 4c a5 8b be a0 bd 05 3f be 37 bf be 1e 3a 0b be
       -0.2727455 0.5224247 -0.37347215 -0.13596389
000040 55 71 b3 bb 9e b6 f9 be 47 8c ff 3d 83 62 3a 3e
       -0.0054761567 -0.48772138 0.12477928 0.18201642
000050 1e cd e2 3d af 4d 97 3e 18 c1 08 3f fb aa bd 3d
       0.11074279 0.29551455 0.5341964 0.092611276
000060 4c c8 ec 3e 81 f5 a6 3d 96 56 1c be be f0 9b 3e
       0.46246564 0.08152295 -0.15267405 0.3045711
000070 f8 05 85 3e b2 a7 ee b8 5d 79 d0 bc c1 1a 9c 3e
       0.25981116 -0.0001137996 -0.025448496 0.30489162
000080 52 23 6a be 26 8c c7 3e fd 79 88 3e f7 dd fc bd
       -0.22865036 0.38974112 0.2665557 -0.12347024
000090 d9 c8 94 be bc c8 1d 3e 34 24 23 3e 94 95 16 bd
       -0.29059485 0.15408605 0.15931779 -0.036763743
0000a0 83 23 96 3e 00 00 02 bf b0 69 e7 3d 8f 1f 89 be
       0.29323968 -0.5078125 0.11299455 -0.2678189
0000b0 54 e5 42 bf da cd ae 3d be 38 90 3d 11 a3 b2 3c
       -0.76131177 0.08535357 0.07042073 0.021806272
0000c0 11 94 90 3b 71 35 a0 3d c8 7a f0 3d bc dc b7 3d
       0.004412182 0.07822693 0.11742169 0.089776486
0000d0 98 ce 3d be 9f a4 9d 3d c4 b4 62 3e 5a 36 b5 bd
       -0.1853584 0.076974146 0.22139269 -0.08848257
0000e0 ae 4f f7 bc 7c 04 a5 3b a4 b3 4c be 86 ee 2a 3e
       -0.030189361 0.005035935 -0.19990402 0.16692552
0000f0 e2 4c 9f 3e 81 87 44 bd 03 5d bb bd 6c 9f 22 be
       0.31113344 -0.04798079 -0.091486 -0.15881127
000100 91 e3 f4 be 3d 43 d2 3d 7f c6 0e be a9 68 05 3e
       -0.4782987 0.10266731 -0.13942908 0.13028206
000110 12 31 f1 3b 2e 53 83 3d 1c 12 ca be 0e 52 90 be
       0.007360586 0.0641235 -0.3946694 -0.28187603
000120 61 03 ab be 3d 4f 45 be 88 30 18 be 43 ea 69 3d
       -0.33401015 -0.19268508 -0.14862263 0.057108175
000130 dd 5a 21 3d 01 72 c8 3c 29 86 23 be 03 f0 93 bd
       0.039393295 0.024468424 -0.15969147 -0.07223513
000140 b2 3d 36 3d f2 5b 5b 3d e5 a0 82 3e c6 1b d3 3d
       0.04449243 0.053554483 0.25513378 0.10308032
000150 98 47 f0 3c 56 0a 80 3d c4 c7 3d be e2 09 36 bd
       0.029331014 0.062519714 -0.18533236 -0.04444302
000160 09 30 0b 3e b0 cc 8b be 95 a1 9b 3d d7 1d f3 3d
       0.13592543 -0.27304602 0.07599179 0.11870926
000170 5f fb 02 be 66 39 15 bc 5f 3b 6e 3e 39 29 e7 3c
       -0.12791203 -0.009107923 0.23264836 0.028217899
000180 76 6e 1b 3e 8b 07 84 3e 1e ea af bc 6b db 80 3e
       0.15178856 0.25787005 -0.02147394 0.25167403
000190 99 c1 e0 be 46 ee 47 3e 1f 86 a1 be e9 56 47 3e
       -0.43897703 0.19524488 -0.3154764 0.19466747
0001a0 58 18 9b be e7 4d a3 3c 77 e7 35 bd 95 d5 97 be
       -0.3029201 0.019934608 -0.044410195 -0.29655138
0001b0 86 e7 cb 3d ec 3b 88 3e d1 96 a6 3d 65 d6 5e 3e
       0.09956269 0.26608217 0.08134235 0.21761473
0001c0 85 15 bb 3e 4c b6 3b be 88 b3 1c 3e 34 94 4b 3d
       0.36539856 -0.1833126 0.1530286 0.049701884
0001d0 5a 9b 02 bf d3 54 d6 bd 85 83 40 be 5b f3 bd be
       -0.510183 -0.10465398 -0.1880017 -0.37099728
0001e0 bb b5 d2 be 8a 61 89 3d bc e8 5b 3d 5c 34 23 bd
       -0.41154274 0.06708057 0.05368875 -0.039844856
0001f0 d9 32 6a be 3f b7 34 3d d4 07 c8 3d 52 e7 ac 3d
       -0.2287096 0.04412007 0.09767118 0.08442558
000200 ac 61 e3 3d 1d 88 e4 3e 4d 52 14 be d6 85 bc be
       0.11102614 0.44635096 -0.1448452 -0.3682086
000210 cb dd 02 bd 8a f5 d3 be 22 68 37 3e b6 b1 f9 bd
       -0.0319498 -0.4139827 0.17910817 -0.12192099
000220 6f 96 9f 3d c6 9a 54 bd 69 13 d2 bc 2d 1a 43 3e
       0.07792365 -0.051905416 -0.025644021 0.19052954
000230 47 82 34 3f 23 c4 9c 3e d7 e2 7e be 1d e3 9d be
       0.7051129 0.3061839 -0.2489122 -0.30837336
000240 6e 93 0e 3e ca 3b 0f 3e d5 dc b2 3d 79 4c c3 3d
       0.13923427 0.13987651 0.087335266 0.095360704
000250 9d 91 ed 3d 54 f8 08 be cf d0 ff bd 15 af f1 3e
       0.11600039 -0.1337598 -0.12490999 0.4720389
000260 65 90 37 be 6f 0e 41 3e b2 0e 32 3f 9f 88 09 3d
       -0.17926176 0.18853162 0.69553673 0.033577558
000270 a0 64 85 3e 24 dd 3a 3e a8 f5 e5 bd 96 20 09 bd
       0.26053333 0.18248421 -0.11228496 -0.033478342
000280 7c 3c a0 3c 5f 15 d5 3c 00 0f f6 3e 8f da 2e bd
       0.019560091 0.026011167 0.4805832 -0.042688902
000290 fb 28 0a 3f b5 cb 08 3d 9b a2 b4 3e dd bd d2 bc
       0.5396878 0.033397395 0.35280308 -0.0257253
0002a0 fb 72 49 bd 62 d6 ab 3e 73 6a 56 3e b9 b5 bf 3d
       -0.04918192 0.33562 0.20939045 0.09360833
0002b0 33 b5 46 3d f3 d8 59 bd 17 fa de 3c 07 3c c6 3e
       0.04851265 -0.053185415 0.027218862 0.38717672
0002c0 1a 27 06 3e d4 61 75 3e 94 a2 9e be e9 22 a1 be
       0.13100854 0.239631 -0.30983412 -0.31471947
0002d0 f6 9f 71 3e 84 c8 69 be 59 19 a1 bd fb 48 af be
       0.23596177 -0.22830397 -0.07866163 -0.34235367
0002e0 be 31 3e 3e 36 1c aa be f3 68 6f 3d f8 94 f7 be
       0.18573663 -0.33224648 0.058449697 -0.48355842
0002f0 70 27 8f bd 5a 85 a0 3d 26 d7 9a bd 18 69 75 3d
       -0.06989944 0.07837935 -0.075605676 0.05991468
000300 8d 67 86 3b f0 80 c0 3e 8d f1 93 be 8f 41 f0 3e
       0.0041016997 0.37598372 -0.28895226 0.46925017
000310 cd ed 07 bf c4 83 de 3d c8 77 d7 3e d3 8f 52 3e
       -0.5309723 0.10864976 0.42083573 0.20562677
000320 56 b4 37 3e 87 15 dc be b5 06 10 3f 66 56 b8 be
       0.17939886 -0.42985174 0.56260234 -0.36003417
000330 17 18 e6 be f1 ef 3f 3e a5 71 a2 be 96 ec 4b 3f
       -0.44940254 0.18743874 -0.3172733 0.79657876
000340 6e 4e 42 bd d7 ba 56 bf a0 cb 8d 3e f2 bc 83 bd
       -0.047438078 -0.83878845 0.27694416 -0.06432523
000350 af 17 89 3e af b5 ee 3e 17 3d 93 3e d1 35 d5 bd
       0.26775882 0.4662299 0.28757545 -0.10410655
000360 7e 1c af bd e0 7e 86 be 7b a7 66 3e 34 de f9 be
       -0.08550356 -0.26268673 0.22524826 -0.4880234
000370 47 06 33 bf 59 e2 4d be eb a9 3d 3f f3 b1 12 3e
       -0.69931453 -0.20105876 0.740874 0.14325695
000380 29 4a 46 be 9b fa 08 3f 81 e8 24 bd 2e f9 58 bf
       -0.19364227 0.53507394 -0.040260796 -0.8475522
000390 a7 31 00 3d 87 f7 86 be 4c 18 70 3e 9b f3 cd be
       0.031297352 -0.26360723 0.23446769 -0.4022492
0003a0 73 9c 10 3f 52 2d 2c be aa c8 73 be 44 67 bf be
       0.5648872 -0.16814163 -0.23807016 -0.37383473
0003b0 6e 6d 4d be f2 48 41 3e b3 5e 48 3e ea ea f8 3e
       -0.20061275 0.18875483 0.19567375 0.48616725
0003c0 28 4b 6d 3e 78 67 94 be 15 63 e3 3d 40 7a 2b 3e
       0.23173201 -0.2898519 0.11102883 0.16745853
0003d0 81 95 a0 3e 17 07 ab 3e f4 70 40 3c c4 c3 d2 be
       0.31364062 0.33403847 0.01174568 -0.41164982
0003e0 b5 c4 87 bd b4 17 b3 bd 5a e0 94 bd f8 27 90 3e
       -0.06629316 -0.087447554 -0.07269354 0.28155494
0003f0 0c 75 32 3e 5f 06 8f be a3 11 ae bd cc 8a 80 3d
       0.17427462 -0.27934548 -0.08499458 0.062764734

arith.constant3 f4 [48, 48]
000000 bf 63 08 3e 2b ee 87 bd 5a b9 02 be 30 ad e6 b8
       0.133193 -0.06637224 -0.12766019 -0.00010999513
000010 93 a1 45 be 11 6d 28 3f 1f e6 a8 be ac 1e fd bd
       -0.19299917 0.6579142 -0.32988068 -0.12359366
000020 07 33 c4 3e 1b 81 92 3d 52 c1 6b be e9 cb c6 bd
       0.3832018 0.07153531 -0.23022965 -0.097068615
000030 fd 7a 51 3d 0b 6d 16 bd 10 b5 51 be ee 24 38 be
       0.05114268 -0.036725085 -0.20479226 -0.17982838
000040 45 36 a3 3e 5d 11 ec 3d 93 b6 bd bd 33 c2 3a be
       0.31877342 0.11526749 -0.09263339 -0.18238144
000050 6c 66 b7 bd dd 6e ec bd d6 8c 42 3d 87 25 62 be
       -0.08955082 -0.11544583 0.047497593 -0.22084628
000060 3c 5b cd be 56 ab 9c 3e a6 6a 01 3e ec 0b 8c bc
       -0.4010867 0.3059947 0.1263834 -0.017095529
000070 d8 63 b4 be 94 20 d7 3c fb 46 08 3f 43 5f e9 bb
       -0.35232425 0.026260652 0.5323331 -0.007121952
000080 2d c5 12 be cf 6d 05 bf 5e 18 c3 3e e0 71 87 bc
       -0.14333029 -0.5212068 0.38104528 -0.016533792
000090 86 b9 dc 3e 28 be f5 3c ee ef 9a bd fc a4 86 3d
       0.43110293 0.0299979 -0.07565294 0.06574437
0000a0 0b fb 0b 3d 6a 2f d1 3e 41 c1 b0 3e cc ff 21 bf
       0.03417496 0.40856487 0.3452244 -0.6328094
0000b0 7a 94 8d 3e fd 5c 0b 3e 65 e4 0b 3e 3c ae a1 3e
       0.2765234 0.13609691 0.13661344 0.31578243
0000c0 56 01 87 3e 03 20 74 be f2 3d 78 be f9 55 e2 bd
       0.26368207 -0.23840337 -0.2424238 -0.11051554
0000d0 1a ce ac 3e 64 a4 e2 3d e4 81 b1 bd 88 89 7a 3d
       0.33750993 0.11066511 -0.08667353 0.061166316
0000e0 e0 bc de 3e ed a9 a2 3c 96 9e da bd 3d 40 57 be
       0.43503475 0.019856418 -0.10674779 -0.21020599
0000f0 a6 4b 81 be 30 7a e9 3e 9f de 03 be a1 22 3f be
       -0.25253028 0.45601034 -0.12877892 -0.18665554
000100 ca dc 58 be 01 75 e8 bd 5e 00 1e be 01 1e a6 bc
       -0.21177974 -0.11350442 -0.15429828 -0.020277979
000110 8a cc f9 bd 9b e1 0a 3e 3b a5 18 3e 88 7b 3a be
       -0.12197216 0.13562624 0.1490678 -0.18211186
000120 17 0c 88 3e 05 49 67 bd b2 8d 55 3e d3 7d a0 3d
       0.26571724 -0.05646612 0.20854834 0.07836499
000130 55 6c 7a bc d9 e1 b9 bc 59 18 7b 3e b2 7c a1 3d
       -0.015284617 -0.0226907 0.24521007 0.07885112
000140 5f c5 38 3e 35 63 a7 3e 32 aa 1b be 14 84 d2 3d
       0.18044041 0.32692876 -0.15201643 0.10279098
000150 04 b0 98 bd 5c 67 cb 3d 87 68 05 3f e9 bd c8 3e
       -0.07455447 0.099318236 0.5211262 0.3920739
000160 84 3e c6 3d 6c 4a e8 3d db fc d7 3d 52 1b 8e be
       0.09679893 0.1134232 0.10546275 -0.2775522
000170 11 c9 ad be 22 ae 11 be 0d 3c 2d 3d 97 0f 9c 3e
       -0.33942464 -0.14226583 0.042293597 0.30480644
000180 56 ac d2 bd eb f5 67 be 7a 99 88 3e fa a0 9d 3e
       -0.10286777 -0.22652404 0.26679593 0.30786878
000190 2d b0 2f 3e 4e 9a 14 3f 40 96 2f be bf 4d 20 bf
       0.1715705 0.5804795 -0.1714716 -0.6261863
0001a0 c9 9b 48 be 10 cb b1 bd 97 aa e0 be 30 db a4 bd
       -0.19590677 -0.08681309 -0.4388015 -0.08049619
0001b0 2a 93 b6 3e 52 1e 3c be cb 31 eb 3d 7a 59 55 3d
       0.35659152 -0.18370941 0.11484107 0.052087285
0001c0 82 30 da 3e b4 56 56 3d a6 8b 8e be d8 27 1f bd
       0.42615134 0.05232878 -0.27840918 -0.038856357
0001d0 bf c3 f3 be 44 7f d5 3e 30 f9 4c be 87 4d 23 bf
       -0.4761028 0.41698658 -0.20016932 -0.6379017
0001e0 ba 0f a6 3d eb 39 04 bf cb 88 05 be d0 d5 8f be
       0.08108468 -0.51650876 -0.13040464 -0.28092813
0001f0 c3 15 20 3e fb bf 98 3e 51 7d 47 3e 49 ac 64 3c
       0.15633301 0.2983397 0.19481398 0.013957092
000200 05 74 b4 3e 52 8b 3d 3e aa 9d 74 3d 77 dd 22 3d
       0.35244766 0.18510178 0.059720673 0.039761987
000210 9b ba a5 be e0 28 0d 3d df 17 fc 3e 41 14 e5 3e
       -0.3236893 0.03446281 0.49236962 0.44742015
000220 98 92 b3 3d e9 7d 76 3d 36 26 54 3f 46 65 88 bd
       0.08768195 0.06017867 0.82870805 -0.066599414
000230 c0 c2 02 3d f4 f5 5a be b9 8d 43 be cf 4c 78 3c
       0.03192401 -0.21382886 -0.19097032 0.015155031
000240 0f 41 13 be 22 f7 b7 be b0 3e ac 3e cb 63 8e 3d
       -0.14380287 -0.35930735 0.33641577 0.06952628
000250 ba 8e 21 3f 87 d4 31 bd 24 15 0a bf 9a cc 3e be
       0.6310841 -0.043415572 -0.5393851 -0.18632737
000260 8e a5 01 3d 5a 86 71 3a ab 01 d0 3c 82 ac d4 3e
       0.031652026 0.00092134404 0.02539142 0.41537863
000270 90 0a f6 3d d4 8a 44 be 02 42 2c be 1a a4 b9 be
       0.120137334 -0.19193584 -0.16822055 -0.36258012
000280 5a 4b ed 3e 10 2b 56 be 15 1d ca be 2e 2d c4 bd
       0.4634655 -0.20914865 -0.39475313 -0.0957893
000290 22 92 3a be 4b aa fb 3c 0c 92 22 3e a8 df 0e 3f
       -0.18219808 0.03072085 0.15876025 0.5581002
0002a0 38 df 20 be 60 c0 5f be 67 35 91 3e e1 8f 0a bd
       -0.15710151 -0.21850729 0.28361055 -0.03382862
0002b0 a8 6a 8b bb 89 db 53 3e f7 e1 48 bd 01 7a 29 be
       -0.004254658 0.20689215 -0.049043622 -0.16550447
0002c0 71 d3 b5 bd 44 e9 81 bd b9 c4 5c 3e c2 e1 b9 be
       -0.0887822 -0.0634332 0.21559419 -0.36305052
0002d0 59 38 03 bc 08 39 c0 3d 24 da 4b 3e d2 d5 86 3e
       -0.00800904 0.09385878 0.19907433 0.26335007
0002e0 bb 24 48 be 67 db c5 3e ca 74 0a 3f 13 a1 c3 bd
       -0.19545262 0.38643953 0.54084456 -0.09552207
0002f0 89 c8 93 3e 40 9a 2d be e1 75 13 be 41 c7 df bd
       0.28863934 -0.16953373 -0.14400436 -0.109266765
000300 20 b3 8f bd d1 f6 c9 be e6 e9 bc 3e 40 d5 f8 bc
       -0.07016587 -0.39446118 0.368972 -0.030375123
000310 44 4f 0d 3f ee f5 3c be b8 50 1f bb f0 13 76 bc
       0.55199075 -0.1845319 -0.0024309587 -0.015019402
000320 de b3 93 3e eb 29 35 3f 8d f4 f4 be be 53 0f 3e
       0.28848165 0.70767087 -0.47842827 0.13996789
000330 02 ce 6f 3e 65 fd 99 3e 09 67 bb bd 16 c7 65 be
       0.2341843 0.30076137 -0.09150512 -0.22439227
000340 33 f9 59 bd 81 10 a3 3d 53 d7 f8 bc 68 2c d7 3d
       -0.05321617 0.07962132 -0.030376112 0.10506517
000350 66 24 fa be d8 05 0a be 6e 7b 2c be 2d 5d ac bd
       -0.48855895 -0.13478792 -0.1684396 -0.08416209
000360 ac 3a 89 bd 65 68 05 be 3d 39 f9 3c 34 41 56 bd
       -0.06700644 -0.13028105 0.030422801 -0.052308276
000370 de 8f c4 bd d6 2c 14 be 57 b9 2b bb 42 66 93 be
       -0.09597753 -0.14470229 -0.0026203 -0.28788954
000380 ac 2f a7 3e c4 a7 e6 bd 39 83 62 3c 3c 57 d3 be
       0.32653558 -0.112624675 0.013825231 -0.41277492
000390 f9 0a 71 3e cc bd 21 be cc 28 9c be e6 ad 3b 3e
       0.23539342 -0.15795058 -0.30499876 0.18328056
0003a0 b5 5a ac 3e 3c 16 d0 3e 49 e0 bb 3e c3 76 93 be
       0.33662954 0.40641963 0.36694553 -0.28801546
0003b0 15 ae 90 3e 80 58 a6 3e 60 2b 14 3e 31 54 85 be
       0.28257814 0.32489395 0.14469671 -0.26040795
0003c0 3e 07 33 3e da 6a 16 bd 3c 62 bf be a4 09 96 3d
       0.17483231 -0.036722995 -0.37379634 0.073260576
0003d0 f6 9d 44 3e 1f 45 e1 3d 62 9e d5 ba 61 28 84 be
       0.19200882 0.10999512 -0.0016297812 -0.25812057
0003e0 59 87 e7 3b 78 8d 09 3f 86 a1 7d 3e 8b d2 ec bd
       0.0070656952 0.5373149 0.24768648 -0.115635954
0003f0 43 0d 3e 3e a5 22 e9 3b 00 2a 84 3d a3 48 60 be
       0.18559746 0.0071147257 0.06453323 -0.21902709

arith.constant4 f4 [48]
000000 9f 56 22 3e eb b3 33 3e dd 65 a2 3e 86 fd b6 3e
       0.15853356 0.17549102 0.3171834 0.35740298
000010 e9 f9 16 3f f3 47 66 3e 44 dc bb 3e c4 17 1b 3e
       0.5897508 0.22488384 0.36691487 0.15145785
000020 3a aa fe 3c f9 de e0 3e a3 ec be 3d 93 04 8d 3d
       0.03108703 0.43920115 0.093224786 0.06885638
000030 8f 25 0d 3e 93 91 2b 3f 94 26 63 3e 68 a2 1b 3e
       0.13783859 0.67019004 0.22182685 0.15198672
000040 69 2d 0e 3f 4e ff 8d 3e 14 90 63 3e 2a fe f0 3d
       0.5553804 0.27733845 0.2222293 0.11767228
000050 65 58 a6 3e 8c fd 7d 3e 35 07 49 3e e9 8a aa 3e
       0.32489315 0.24803752 0.19631656 0.33309105
000060 82 f0 06 3f b2 9c 23 3f 16 7f a7 3e d9 5b d5 3e
       0.52710736 0.63910973 0.32714146 0.41671637
000070 0a c5 3f 3e 2e d6 83 3e 70 22 2e 3e e9 33 8b 3e
       0.18727508 0.25749344 0.17005324 0.27188042
000080 bc 84 b7 3e db e6 43 3e 86 c4 7a 3e a7 5b 08 3f
       0.35843456 0.19131033 0.2448903 0.5326485
000090 d5 af 1d 3e 94 8f 7d 3e 9f 1c 00 3e 27 a6 b1 3e
       0.15399106 0.24761802 0.12510918 0.34697077
0000a0 9b 35 b5 3e 80 91 d1 3e d3 79 28 3f 7a c3 7a 3e
       0.3539246 0.4093132 0.6581089 0.24488631
0000b0 ef 4c f5 3e d6 8f 75 3e 24 c7 e7 3e ba 9c 03 3e
       0.47910258 0.2398065 0.4526912 0.12852755

arith.constant5 f4 [48]
000000 fa b5 3b bd 34 e0 77 3c a3 fe f7 3c db ff bd 3c
       -0.045827843 0.015129138 0.030272787 0.02319329
000010 8f 0c 25 3e e4 e7 0c 3d a0 91 00 bc 5a 00 65 3c
       0.16118072 0.034400836 -0.00784722 0.013977135
000020 93 7e 8b 3d 2c 9e 25 3d 0a 56 a8 bc 41 28 96 3c
       0.068112515 0.040434048 -0.02054884 0.018329741
000030 83 c2 54 3d e8 1c 2f bc 1c d0 8f bd d2 f1 7b 3d
       0.051943313 -0.010688044 -0.070221156 0.061509915
000040 08 71 a5 3b 1d 70 4b bd ec 88 33 bd ab 51 45 3d
       0.0050488748 -0.049667466 -0.04383175 0.048173588
000050 b5 ed 8c bd 7d df a1 bc 80 75 5a bc 64 4e 21 3d
       -0.068812765 -0.019759888 -0.013333678 0.0393814
000060 ae 21 b6 bd 2a 1e d2 bc f2 ed 86 bd 47 1e ba bd
       -0.08893143 -0.025649149 -0.06588353 -0.09087806
000070 fe 18 92 bd 06 9f b0 bc 45 d2 e6 3d a8 4b 1b bd
       -0.07133673 -0.021560203 0.112705745 -0.03791395
000080 49 e3 75 bc 88 1e eb bd f6 72 bb ba d0 65 87 bd
       -0.015007802 -0.11480433 -0.0014301229 -0.06611216
000090 d5 49 77 bd ad 6d 15 3e 43 23 30 3d cb 0d 16 3e
       -0.060373146 0.14592619 0.04300238 0.14653699
0000a0 ad 00 ff 3d 7e d3 86 3d 7b 55 be 3d 75 bb 50 3c
       0.12451301 0.06583308 0.09293648 0.012740006
0000b0 26 c6 87 bb 0d 56 fb 3c 84 d3 c3 3d ae 78 87 3d
       -0.004143494 0.03068068 0.09561828 0.06614815

arith.constant6 f4 [48]
000000 f4 c9 95 3f 7a c5 8f 3f 7c 9f 8d 3f 52 c6 94 3f
       1.1702256 1.123214 1.1064296 1.1623023
000010 6e c2 92 3f 20 02 7b 3f 8f e5 8a 3f 7b 5e 71 3f
       1.1465585 0.9805012 1.0851306 0.9428479
000020 23 0f 77 3f 71 d1 9e 3f ca 2f 86 3f 1c ca 8d 3f
       0.9650747 1.2407666 1.0483334 1.1077304
000030 5c f9 7a 3f 85 f8 86 3f 58 78 7b 3f c6 43 87 3f
       0.9803674 1.0544592 0.98230505 1.0567558
000040 d8 e2 8e 3f f5 30 9e 3f 3a 02 95 3f 1c 2d a4 3f
       1.1162977 1.235869 1.1641304 1.2826266
000050 bb 67 7b 3f ca 68 8e 3f 12 a1 9a 3f 8a d4 82 3f
       0.98205155 1.1125729 1.2080405 1.0221112
000060 1b 5a 8c 3f 0a e8 87 3f 71 78 71 3f fa dd 90 3f
       1.0964998 1.0617688 0.94324404 1.1317742
000070 ef f0 8f 3f 2f b4 86 3f f1 2c 8b 3f de eb 98 3f
       1.1245402 1.0523738 1.087309 1.1946981
000080 c2 8c 87 3f cc e1 93 3f fb 29 80 3f 39 43 89 3f
       1.0589831 1.1553283 1.0012811 1.072364
000090 df 9c 8b 3f 68 10 a7 3f 80 a1 a4 3f 8e 55 a0 3f
       1.0907248 1.3051882 1.2861786 1.2526109
0000a0 59 cc 8e 3f fa 5d 9e 3f 9c 1d 8b 3f a7 59 86 3f
       1.1156112 1.2372429 1.0868411 1.049611
0000b0 3c 33 b7 3f 11 04 8e 3f d8 00 8e 3f ec fb 8d 3f
       1.431251 1.1094991 1.1094007 1.1092505

arith.constant7 f4 [48]
000000 d7 e7 4b 3e fc 2f 81 bd f6 ba f6 3d 03 80 d3 bd
       0.19912659 -0.063079804 0.12047379 -0.10327151
000010 cf aa 65 bf 07 51 42 3e 83 6e 60 be e4 79 cc 3e
       -0.8971376 0.18976222 -0.21917157 0.39936745
000020 78 48 33 bc dc 66 5c 3e 1f f2 55 3d 93 5c 4f 3e
       -0.010942571 0.21523613 0.052232858 0.20250158
000030 e5 62 95 bc 03 89 e3 3d 8c 9a 7c 3e 5e cf 1c 3e
       -0.018235633 0.11110117 0.2466833 0.1531348
000040 de f8 11 be 65 98 89 ba df 0b 04 bd b9 7d da bc
       -0.14255092 -0.0010497688 -0.032237884 -0.026671277
000050 ce db 8a 3d 40 db c7 3d ca d3 3d 3e f1 d1 8b 3e
       0.06780206 0.097586155 0.18537822 0.2730861
000060 8f 25 45 3e b9 ac f1 3e 50 6b 14 3f 30 57 0a be
       0.19252609 0.4720209 0.57976246 -0.13509822
000070 a9 29 bf 3d f8 76 85 3d 78 a2 8d 3e 99 77 b6 3d
       0.09334118 0.06516832 0.27663016 0.0890953
000080 da 4a 8e 3e 5d f2 3e 3d 7f 02 81 3d 65 58 8d 3e
       0.27791482 0.046617854 0.06299304 0.27606502
000090 16 8e 3f 3e 41 51 51 bd 44 5d 6f 3c ac fe 8e bd
       0.18706545 -0.05110288 0.014609639 -0.069821686
0000a0 b4 c2 e2 3e c7 58 34 3d 45 c8 59 3e d6 d5 74 3c
       0.44289172 0.044029977 0.21267803 0.014943561
0000b0 7e 82 42 3d ec 1d 7c 3e b7 0c 88 3e 8c f0 92 3d
       0.04748773 0.2462079 0.265722 0.07174787

arith.constant8 f4 [48, 6]
000000 f9 77 3c be 34 de f0 bd 65 32 06 bc fb e6 b6 be
       -0.18405141 -0.11761132 -0.008190726 -0.357231
000010 24 18 92 3e 8c 1f 32 3d c2 26 b1 3c 7d 7c a9 bb
       0.28534043 0.043487117 0.021624926 -0.005172311
000020 0a 97 cc bc 41 ac 19 3f 06 9d 90 be 2f a8 31 3f
       -0.024974365 0.60028464 -0.282448 0.6939725
000030 57 fc b9 bd 1c c9 30 3e 13 72 1a 3e be a9 7f bd
       -0.09081333 0.17264217 0.15082578 -0.06241774
000040 bb f6 85 3f ec f1 fb bd 3c a7 2b bd 91 6f 16 bd
       1.0465921 -0.12302002 -0.041907534 -0.03672749
000050 8a 9c f4 3d cf 62 58 3d 38 58 91 bf bc 0d 0f 3e
       0.1194392 0.052828606 -1.1355047 0.13970083
000060 8f 6c f8 3c f5 bc 5c 3b b6 a0 59 bd 0b 07 a9 bd
       0.030325202 0.0033681963 -0.05313178 -0.082532965
000070 c7 4a 39 3f aa bd 12 3f d0 6c 9b 3d 0e 79 7b bd
       0.72379726 0.57320654 0.07589114 -0.061394744
000080 6a aa 49 3e 80 50 0b 3e a1 3e ae be 82 07 09 3e
       0.19693914 0.13604927 -0.34032157 0.1338177
000090 35 43 3d 3e 6d 24 87 bd 47 e2 39 3e 99 6c b5 3b
       0.18482669 -0.065987445 0.18152724 0.0055366275
0000a0 a3 0a 0e 3e 04 36 3e 3e 52 3f 49 be 65 f1 57 bc
       0.13871245 0.18575293 -0.19653061 -0.013180112
0000b0 07 6b e7 bd 31 0c a7 3d 1b 02 93 3e d5 af 07 3d
       -0.11299711 0.08156622 0.28712544 0.03312667
0000c0 92 71 ca be 2e 62 c2 bd 5f fb 3b bb 8d 11 8b 3e
       -0.39539772 -0.094913825 -0.0028683764 0.27161828
0000d0 39 47 89 be ce 35 b3 bc 20 10 12 3d 4f 8f a4 3d
       -0.2681215 -0.021876242 0.03565991 0.080351464
0000e0 b1 bc da bd 0d 54 86 bf 1b 5c b1 bd 12 f9 b9 3e
       -0.10680521 -1.04944 -0.08660146 0.36322838
0000f0 70 f3 3c be 5d 80 29 be a0 c8 ad bc c1 e1 26 3f
       -0.18452239 -0.16552873 -0.02121383 0.65188223
000100 a7 9d 4d bf db e8 b0 be 64 e2 1e bc a1 ec 12 be
       -0.80318683 -0.34552655 -0.00969753 -0.1434808
000110 c4 e8 19 be 60 9e 19 3f ae 3b 94 be 71 2b b8 be
       -0.150302 0.60007286 -0.28951782 -0.35970643
000120 90 58 8e 3c 83 90 a9 bd 5d 0b c9 3c ef f6 2e bf
       0.017376214 -0.082795165 0.024541551 -0.6834554
000130 22 8f 88 3e c5 6e e8 3e f9 42 c3 3d 59 06 04 be
       0.26671702 0.4539701 0.095342584 -0.12893046
000140 0e e7 25 be e3 ed c9 be 47 13 af 3d bf 0b d0 3e
       -0.16201422 -0.39439306 0.08548599 0.40633962
000150 c0 8e af 3d 91 ab b2 bd 85 b5 af bc 88 44 01 3f
       0.08572149 -0.0872413 -0.02144886 0.50495195
000160 e4 cd 68 3e 36 f1 d3 be 99 63 89 be c3 75 4e bd
       0.22734791 -0.41394967 -0.268338 -0.050405275
000170 6f 06 c9 3d dd 81 ec 3e 05 b8 92 be e9 6e 10 3d
       0.0981568 0.46192828 -0.2865602 0.035262022
000180 09 ae fd bc 1a cd c7 3d dc 78 5e bd 28 ba 13 bf
       -0.030966775 0.09755917 -0.05431448 -0.57705927
000190 b3 b2 ff 3e 7a 63 0d 3f 53 db c6 3e 4c fd 87 3d
       0.49941024 0.55229914 0.38839206 0.066401094
0001a0 4b e2 e4 bd 51 f9 4a bd ed 20 c0 bd 5f aa 27 be
       -0.111759745 -0.049554173 -0.0938128 -0.16373585
0001b0 34 b7 3b bd d5 3f 33 bd 52 24 31 be b8 2a 10 3e
       -0.045829013 -0.043762047 -0.17299011 0.14078796
0001c0 dc fd a5 3e 42 0f 1a bf 3d 2e 0b be 42 8e 3f 3e
       0.32420242 -0.6017953 -0.13591857 0.18706611
0001d0 ad 74 a9 3c 00 f5 08 3e 13 e6 b3 3d 34 39 57 3e
       0.020685518 0.1337471 0.087841175 0.21017915
0001e0 5c 6f 36 3d 23 22 9e be 20 89 32 bd 3d de 1d be
       0.044539794 -0.3088542 -0.043587804 -0.15416808
0001f0 9d ec b4 3e eb 44 98 bd c8 b5 e9 3d d5 47 9f ba
       0.35336772 -0.0743502 0.11411625 -0.0012152145
000200 1d 42 41 3e f4 d3 eb 3e 1f de e0 be d9 cd c4 be
       0.18872876 0.46060145 -0.43919465 -0.384383
000210 91 b6 78 be 92 e9 0a bd 1f bc ee 3d 57 08 57 3d
       -0.24288394 -0.033914156 0.11656975 0.052498188
000220 99 c4 1c 3f 66 cb 41 3d 3d 72 26 3c 4a ae 01 bf
       0.61237484 0.047313116 0.0101590725 -0.5065657
000230 0a a7 ad bc 8c 09 e6 bd 06 8a 55 3c d5 de 86 be
       -0.021197814 -0.1123229 0.013033396 -0.26341882
000240 fd 4c c3 bd f0 54 1a 3e 78 2c 5e bc e2 24 9c be
       -0.09536169 0.15071464 -0.013560407 -0.3049689
000250 67 f7 48 3f e6 79 7e 3e 95 d6 ce 3d 12 fb 32 bd
       0.78502506 0.24851188 0.10099522 -0.04369647
000260 20 a6 3e be b4 65 10 be 34 e2 07 3f fa 3e 0c 3e
       -0.18618059 -0.14101297 0.53079534 0.13695899
000270 f4 5f 97 bc 73 4b 81 3e e5 91 0b bd 78 54 9f be
       -0.018478371 0.25252876 -0.034074683 -0.31119132
000280 29 37 55 3e b6 7f ea 3e 73 f1 35 bd d2 f6 8a 3d
       0.20821823 0.4580056 -0.044419717 0.067853585
000290 98 4e 8f 3d f7 13 23 be 62 3d 2e bf 23 34 d9 3d
       0.069974124 -0.15925585 -0.6806241 0.106056474
0002a0 14 ee 65 3c 23 1f 65 bc a6 d0 80 bd fc ad 53 3e
       0.014033813 -0.013984474 -0.062897965 0.20671839
0002b0 55 a5 18 3f 84 6f e3 bd d5 2d 54 be 5a bd 00 3e
       0.59627277 -0.11105254 -0.20720609 0.12572232
0002c0 1b 5d 4e bd 82 b9 46 3e f0 cb ee be c9 6b ee bd
       -0.05038176 0.19406703 -0.46639967 -0.11641652
0002d0 c6 10 77 be 5a ae 33 3e 89 c6 67 bc b9 4f 66 3e
       -0.24127492 0.17546979 -0.014146456 0.2249135
0002e0 9b 4f 14 bf 04 55 74 3e cb 35 aa bd a0 c8 75 3d
       -0.5793397 0.23860556 -0.083110414 0.060005784
0002f0 fe b7 17 be e7 ca fc bd 3a 5e 0e 3f 80 d0 fc 3d
       -0.14816281 -0.12343388 0.5561253 0.12344456
000300 76 13 90 bc e7 8a cb 3d 14 9a 0a bc 92 e9 5d be
       -0.017587405 0.09938603 -0.008459587 -0.21671131
000310 f6 e9 7a 3d 04 14 89 3e 8d 13 67 3c 4c 18 91 b9
       0.06125828 0.26773083 0.014103782 -0.00027674658
000320 21 ca 36 3c 2f d4 23 3f 03 ee 63 bf db 5a 21 3f
       0.01115659 0.6399564 -0.8903505 0.6302926
000330 92 08 48 3c 8f ae 9e 3d a7 94 88 3d 26 b4 59 bf
       0.012209075 0.07748138 0.06668978 -0.8504051
000340 85 b1 35 3f af 0d 48 3f d8 4e 7b bd f2 43 b2 3d
       0.70974 0.7814588 -0.061354488 0.08704366
000350 a1 cb 08 3e 15 7d d8 3c 1b 3e 0e bf 98 dc 1c be
       0.13358928 0.026426831 -0.55563515 -0.15318525
000360 75 4e bc 3d 79 9f 0a 3d b5 7f 25 3d 06 c5 25 be
       0.09194652 0.03384349 0.040404994 -0.1618844
000370 a0 80 13 3f af 2e 70 3e 11 52 ac 3d 09 28 f6 3d
       0.5761814 0.23455308 0.084140904 0.12019355
000380 58 80 b8 3d 6b 18 08 bf a8 69 01 be ee f5 13 3f
       0.09008855 -0.5316226 -0.12637961 0.57797134
000390 8d f8 f5 3d fc 8a 8f 3d 72 b4 2f bd 0c 9b ba 3e
       0.12010298 0.07008931 -0.042896695 0.36446416
0003a0 45 9f 74 3e d8 e3 29 bf 41 f3 86 3c d5 1c 98 3d
       0.23888882 -0.66363287 0.016473414 0.07427374
0003b0 47 b0 b9 bd 63 10 26 be f4 3f 79 3f 1f 3b 2a 3f
       -0.09066825 -0.16217189 0.9736321 0.6649646
0003c0 57 a3 1c 3e 51 52 be bd 1c 81 f2 bd 28 7e 35 bd
       0.15296684 -0.09293044 -0.11841032 -0.044309765
0003d0 25 11 a5 be d4 19 a1 3d 45 d2 17 bd 80 55 21 3e
       -0.32239643 0.078662544 -0.037065763 0.15755272
0003e0 f1 08 07 be 41 43 36 bc 9d c1 08 3f 03 0f f6 3e
       -0.13187005 -0.011124433 0.5342043 0.48058328
0003f0 f9 00 3a 3d c3 c8 3d 3d 23 07 a3 3d 1a b4 9c be
       0.045411084 0.04633404 0.079603456 -0.30606157

arith.constant9 f4 [48, 6]
000000 76 d7 38 be 8f 48 cf 3d fc 98 fc bc e3 a5 b2 3d
       -0.18050942 0.10121261 -0.030834667 0.08723047
000010 5a b5 cf 3e b6 91 f2 3d a9 62 02 bd 78 bb e3 3d
       0.40568048 0.118441984 -0.03183237 0.11119741
000020 a7 6c ab 3d 82 3a 60 3e b0 b4 f3 3d 8d 12 0c 3f
       0.08370333 0.21897319 0.11899698 0.54715806
000030 2c ba 4a bd 67 40 db bd 33 7b ff bd 76 77 38 3e
       -0.049493954 -0.10705643 -0.1247467 0.1801432
000040 4e 9e 94 be c5 24 99 be f7 de cc bd 04 24 20 3e
       -0.29027027 -0.29910865 -0.10003465 0.15638739
000050 f6 78 f4 bd 1d 00 b6 be 22 b0 96 3e 4f 9b 0f be
       -0.11937134 -0.3554696 0.29431254 -0.1402409
000060 d3 6c 41 3d 49 bd 95 bc d5 cb 94 bd 38 f5 97 bd
       0.047222923 -0.018278735 -0.072654404 -0.07419819
000070 71 9f 81 3f 27 8e 08 be e4 72 5c bd 34 cf c2 3d
       1.0126783 -0.13335477 -0.053820506 0.09512177
000080 00 71 69 3d 03 ae e5 3e c3 04 1b be 5e 58 9a bc
       0.05699253 0.44859323 -0.15138535 -0.018840965
000090 5a 03 40 3e e0 86 68 3d 88 d3 80 3d 18 b7 0e be
       0.18751279 0.05676925 0.062903464 -0.13937032
0000a0 a9 60 ea 3e 08 5b a2 3e 93 d1 6f bd 72 4a bc 3d
       0.4577687 0.31710076 -0.058549475 0.09193887
0000b0 fe ed 06 be 78 84 82 be c7 5b 52 3e 7d d7 f0 3e
       -0.13176724 -0.2549169 0.20542823 0.47039405
0000c0 78 bb a5 3d 9f 7e 43 bd 32 9c 0e 3a 0f b0 80 3e
       0.080923975 -0.047728177 0.0005440145 0.25134322
0000d0 30 cf 03 bf 12 d5 2e 3e e9 74 f0 3d 1a 8d 67 3d
       -0.5148802 0.17073467 0.11741049 0.05653105
0000e0 3a d1 02 be ae c9 ac 3c 30 63 a2 3e 0a 1a 81 3d
       -0.12775126 0.021092262 0.317163 0.06303795
0000f0 73 aa 90 3d 11 df 8a 3d f7 e3 17 be 06 1e cf bc
       0.070637606 0.06780828 -0.14833055 -0.025282871
000100 ba 89 f8 3e 0e 99 07 3c 48 d4 fd bd 53 22 bf 3d
       0.48542577 0.008276237 -0.12394005 0.09332719
000110 61 fe 2c 3e f1 71 3b 3e 97 79 a1 be a0 10 16 bf
       0.16893913 0.18305184 -0.31538078 -0.5861912
000120 23 fa ac 3d 0b ad 89 bc c0 83 2c bd 27 a7 38 be
       0.08446147 -0.016806146 -0.042117834 -0.18032514
000130 9e fd 44 3f 5d 6d 4a 3e 7e ec 1f 3e d5 6d 10 3e
       0.7694949 0.19768281 0.15617558 0.14104398
000140 7b 5d 93 bd 78 6b 9e bd d8 44 ab 3e e2 bc a0 be
       -0.07195564 -0.07735342 0.3345096 -0.31394106
000150 a0 02 2b bc 9f aa 2f 3a f2 c5 ef bb dd df 75 b8
       -0.010437638 0.0006701145 -0.007317298 -5.862104e-05
000160 e2 e6 15 3e 5b e0 03 bf 93 65 a3 bd f4 1c ad bd
       0.14638856 -0.51514214 -0.07978358 -0.08452788
000170 41 b9 0d 3c 29 d6 8c 3e 59 81 02 bf 63 7a 20 bf
       0.008650125 0.2750714 -0.5097862 -0.6268675
000180 29 59 a2 bd 8f 6d 1f 3e a3 26 15 3e 89 9a a9 be
       -0.07927162 0.15569137 0.1456552 -0.33125713
000190 95 3e c7 bd 90 9e 74 3e c3 70 13 3e 90 84 58 3d
       -0.097287335 0.23888612 0.14398484 0.052860796
0001a0 ec 52 9b bd 9d 53 db 3e 1b c6 39 bf 11 42 1d be
       -0.075841755 0.4283723 -0.7256791 -0.15357234
0001b0 4c 99 9d bd 1e be 09 3e 46 bf 32 3e dd a3 0f bf
       -0.07695255 0.1345143 0.17455778 -0.5610941
0001c0 68 09 b7 3e eb 83 c8 3e 87 c2 8c 3d 07 05 42 b9
       0.35749364 0.39163145 0.06873041 -0.00018503155
0001d0 43 60 2e 3e d7 56 da 3e 32 f0 20 3e 40 22 d1 be
       0.17028908 0.4264438 0.15716627 -0.40846443
0001e0 2c 1e 16 be 43 a9 55 bd 73 81 e9 bc c2 9b 70 3e
       -0.14659947 -0.052163374 -0.028504109 0.23496917
0001f0 a0 55 fb 3e 5b d1 8b bd 91 95 0c 3c 4a 86 d2 3b
       0.49088764 -0.06827041 0.008580581 0.0064247
000200 60 fe 43 bd 9a 5a 5f 3c e3 c8 e5 be 22 80 f9 3d
       -0.047850013 0.013632441 -0.44879827 0.121826425
000210 ee 98 7d 3e 6b 25 0f bd e4 19 aa bc 8c 5a 06 bf
       0.2476537 -0.034947794 -0.020764299 -0.52481914
000220 bb 97 a3 3e 3a 88 f3 3e 09 ee 86 bc b1 c7 1e 3e
       0.319517 0.4756487 -0.016470926 0.15505864
000230 9e 78 e5 bc a3 94 c9 3e 4e 6e a2 3c 92 2d de be
       -0.028011616 0.39371213 0.019827988 -0.43394142
000240 b3 fb 05 3e ae 41 85 3c 69 c4 27 3e 7a 0c 7c be
       0.13084297 0.01626667 0.16383518 -0.24614134
000250 6c 43 35 3f b2 33 23 3f f0 43 89 3c 2e 5d ab 3d
       0.70806 0.63750756 0.016756028 0.08367382
000260 1d e6 a4 bd 25 c7 5f 3e 96 7a 9e bf 3a 92 8f 3d
       -0.08051703 0.21853311 -1.238116 0.070103124
000270 1a fc 92 bc 58 4d 03 bc df 2b 56 bd 75 fb a4 3e
       -0.017942477 -0.008014046 -0.052287932 0.32223096
000280 12 b6 97 3f e8 7a 0c 3e 96 73 51 3b ba f9 54 3d
       1.1852438 0.1371876 0.0031959764 0.05199597
000290 35 8b 40 3d 3c 4c 11 3f c4 32 01 bf da 4b 86 bb
       0.04700776 0.5675695 -0.5046809 -0.0040983977
0002a0 bb e5 da 3d 29 7e f6 3d 7e 90 4c 3e 15 b7 2c be
       0.10688349 0.12035782 0.19976994 -0.16866715
0002b0 48 7a 3a bf 63 63 39 bf a3 2f 04 be 5a fb ed 3c
       -0.72842836 -0.7241728 -0.12908797 0.029050518
0002c0 90 93 23 3e 69 85 26 be cd ce 55 be c3 fd e6 3d
       0.1597426 -0.1626183 -0.2087967 0.1127887
0002d0 8e d8 e3 bd 4f 77 d5 bd c3 58 45 3d 9b 18 e6 3e
       -0.11125289 -0.10423147 0.048180353 0.44940647
0002e0 40 5d a4 bf fd b5 28 be 06 89 63 3e 90 fa 8a 3d
       -1.2840958 -0.16475673 0.22220239 0.06786072
0002f0 4c ef b6 bd 67 52 84 be 25 41 1c 3e f0 8b 00 3f
       -0.08932361 -0.25844118 0.15259226 0.5021353
000300 3c 17 3f 3e 76 ce 96 bd 07 6e f2 b9 68 88 09 bd
       0.18661207 -0.07363598 -0.00046239814 -0.033577353
000310 43 84 ce be 1b 0c 02 3f e1 31 82 be 2a 9f 99 3d
       -0.40335283 0.5079972 -0.2542868 0.07501061
000320 77 a0 ec bd f2 dd 58 3d 26 d3 1d bf 5c b4 33 3d
       -0.11554044 0.05294604 -0.6165031 0.043873176
000330 f5 55 d4 bc 2b e9 cc 3c d0 46 09 3e 35 fa 89 3e
       -0.025919894 0.025013527 0.13405919 0.26948705
000340 e0 6d 02 bb d8 fe da 3b c5 93 ac bd b4 8d b0 3d
       -0.0019901916 0.006683212 -0.08426622 0.08620778
000350 ca 97 b3 3d 8d 99 f8 3d f0 8d b1 3d 7a 4b be be
       0.08769186 0.121386625 0.086696506 -0.3716696
000360 67 3b c6 bd ea f0 28 be f7 52 c9 bd dc 59 0c 3f
       -0.09679299 -0.16498151 -0.098302774 0.54824615
000370 d6 df 29 bf a1 78 71 be dd 5e 14 bd 2a b2 88 3d
       -0.6635717 -0.23581173 -0.03622328 0.06674607
000380 9d e3 f6 3d f4 09 11 bd b0 7c f3 3e 5f 3d 4b 3e
       0.120551325 -0.035409883 0.47556067 0.1984763
000390 a2 99 41 3c b3 6b 61 3b 05 d6 75 3d 9a 99 e6 3e
       0.011816414 0.003439647 0.060018558 0.45039064
0003a0 e2 e9 86 be fb 8a 48 3e 75 c8 18 3c 47 df 73 bb
       -0.26350313 0.19584267 0.009325136 -0.003721194
0003b0 9f 99 a4 3b d9 6c 89 be ef 4e 12 3f 7a 96 1e 3f
       0.005023196 -0.26840857 0.57151693 0.6194836
0003c0 2b 86 97 3d f3 56 2d 3e 90 4c 99 bd c7 20 31 bf
       0.073986374 0.169277 -0.07485306 -0.6919064
0003d0 30 ed 1a 3e a3 42 9f bd ab 3b 75 bc 60 6d da 3b
       0.15129542 -0.07776382 -0.014967839 0.0066658705
0003e0 10 07 58 bd f4 c2 0d be 8b dc a0 be 69 38 10 3e
       -0.05274111 -0.138439 -0.3141826 0.14084019
0003f0 fe 9d 3b be 66 51 e3 3d 28 73 a5 3d e0 09 8c 3d
       -0.18321988 0.1109951 0.08078605 0.06837821
