training program/model_LSTM.tflite (tflite, 88776 bytes, 16 tensors)

sequential_1/dense_2/BiasAdd/ReadVariableOp f4 [32]
00000000: d1ce 0ebc a3c4 203e b448 0c3e 0ff8 183e
00000010: 006d fb3d af09 8abd da63 babd 6276 373d
00000020: 08fe 1d3e fd62 ac3d 12ca be3d 1be1 0d3e
00000030: c679 153e dc06 9cbc 6179 3a3e 177e 4b3e
00000040: 8ae5 003e e679 873e a126 1e3e a4db 153d
00000050: 9a5f df3b d822 c43d 63e4 bc3d 3fb7 cf3d
00000060: 5c93 f6bc d797 1b3d 0330 a73d 0373 a63d
00000070: 4576 273e 44de c63e 889c 163e f5e6 043e
-0.008716301 0.15700011 0.13699609 0.14938377 0.122766495 -0.06740128 -0.091010764 0.044790633
0.15428936 0.08417318 0.093158856 0.13855402 0.14597234 -0.01904624 0.18210365 0.19872318
0.12587562 0.2646019 0.15444423 0.03658642 0.0068168165 0.095769584 0.09223249 0.10142373
-0.030099563 0.037986603 0.081634544 0.081274055 0.1635371 0.3884145 0.1470815 0.12978728

sequential_1/dense_3/BiasAdd/ReadVariableOp f4 [28]
00000000: 771b 97bd 4f32 fd3d 8d00 8b3e b8ad cd3d
00000010: b8f3 113e 8da3 38be 7fe9 c3bd 5a2d 3c3e
00000020: 2277 cbbc d789 47be d83f ad3b a04a 933e
00000030: 0c83 903e b9b0 bfbc 4be5 a13d ae4f 4bbe
00000040: 6a0d dcbb 2af1 31be 7542 12be 025a 3f3e
00000050: 02a2 fcbd b2f5 973d 4419 bcbd 94ce eebd
00000060: e841 7bbd 0cf4 04be 5186 87be 8888 1e3d
-0.073782854 0.12363111 0.27148858 0.100429 0.14253128 -0.1803114 -0.0956602 0.18376675
-0.02483708 -0.19486175 0.005287152 0.28767872 0.2822498 -0.023399698 0.07905062 -0.19854614
-0.0067154663 -0.17377153 -0.14283164 0.18686679 -0.12335588 0.074199095 -0.091845065 -0.116604954
-0.06134215 -0.12983721 -0.26469663 0.038704425

arith.constant f4 [64, 64]
00000000: fb5a a43d a43a 533e 72e9 873d 9730 1cbe
00000010: eb36 71bb 6734 b3bd 164f be3d 5700 47be
00000020: 5f04 97bc 0c96 2d3e 786d afbe b367 283e
00000030: 8f62 1d3e 470d 7f3d 13f4 cebd c9e9 31bd
00000040: 7adc 9c3e 110f 62bd eebc 94bd ff2a 77bd
00000050: 971e 2cbe 6879 84be c726 cd3d d708 493d
00000060: f54f f3bd 3537 843e c18b b03e 40ad dd3b
00000070: 3795 2fbe 4e79 aa3d 982b f3bd 25cb 383e
00000080: ee2d a8bd 3085 46be 1d2b afbe 0e5d 0dbe
00000090: d5bc 54be 1940 97be 0e84 b6be 6be5 373d
000000a0: e613 33be d30a 1ebe 7469 98bd 9ad5 09bf
000000b0: 4df1 1f3d 8b86 96be 0b2c d4bc 2e21 a33c
000000c0: 8e7b 30bc 4974 07bd dc31 56be 63a0 023f
000000d0: 9f3b 113f 0005 9bbd 6ff0 263d 44b6 483e
000000e0: 2966 b73e e309 4fbc 43b2 aabe 2407 b0be
000000f0: 45ec fdbc dd57 b23d 231a 3d3d 0c84 133e
00000100: 98ad 483e c9e0 023d 1644 343e 57ca 1cbe
00000110: d944 fd3b 4697 5f3d d780 603e d9fc be3e
00000120: 648b 18be 88cf 9a3d 92f8 473d 71f6 9c3d
00000130: 2c91 0b3c eb60 0b3c aa0c 623d 9259 90be
00000140: fe64 af3d 1d7a 8fbd 4b5f 33be d731 d0bd
00000150: e776 13be c63f 0f3e b17f 75be cf8f 39bd
00000160: 3b92 f9bb fd95 863e 1b94 8abe 3ee2 01be
00000170: 17eb 723e 5850 fc3d 0326 fcbe 872c 673d
00000180: 371b 333e 8d93 9d3b 6dc3 ff3c 71b7 023f
00000190: fe69 24be 783f 00be de2b 373c f5fe 843e
000001a0: d51d cabd 42e8 a7bd 6272 6f3d fcdd 683d
000001b0: 8a2d b7bd 0fac 053e bb24 92bc 01cc e63d
000001c0: 8dc8 1e3c 87be 34be b1f4 34be 2b3a 893d
000001d0: cb80 0c3f 1773 03be 74db c1b7 b029 b7bd
000001e0: aef6 623e a395 02be 24db 0abd 5a09 a23e
000001f0: ba89 893e 9d65 7ebe fa4e bf3d 74d9 6abd
00000200: cee4 933e e3d6 a13d d996 c23d 8883 993d
00000210: 364c c33d f770 13be 3e51 5c3e 1579 093f
00000220: 1644 34be a22a a2be 99c6 d53d 6b6b 253e
00000230: 1c61 933e 105d 1e3e 0d89 e8bd 21a3 e9bd
00000240: fce7 88bd b6cd 1e3d e033 1dbe 0580 d33e
00000250: f688 2dbd 6c14 2e3d 1d2a d5bc f255 60be
00000260: 87b7 79be 727a cbbd 0613 1f3e 4dcf 7abe
00000270: 0107 6cbe a40c 603e 2f67 7dbe b5a6 2f3e
00000280: 6274 4a3e 40b8 4abe d524 ec3e e066 87be
00000290: ab6e fcbd cbf3 6dbe dd93 e6bc 967b b83d
000002a0: 06a3 98be a1a7 f83d 3f79 023f e7cb 663d
000002b0: 73a3 be3c 8ac1 be3a 30a2 69be 8fab 9e3e
000002c0: 157c c1be 88e8 07be 3a05 15be 13ee 9e3e
000002d0: 9298 16be bf83 b9be 1c39 383e 9b6c 6d3e
000002e0: 2501 913e 6e51 003e 3796 22bd 0f8a 3ebe
000002f0: 3037 023f 3b41 993d 6e96 203d 0411 403e
00000300: 6af0 4d3e 7b5f 0d3f 9f3e 8f3e 8293 83be
00000310: d2b4 cfbc 474e a0be 14f5 04bf a98d 03be
00000320: e5c0 f23e 1d4c 773e 3622 bcbe 239f a03d
00000330: 6506 ec3e 2ec4 a03d 403b eebe 3154 a7bd
00000340: 1f8c e0be 8cd4 c1bc d549 e4bd 5e59 cbbd
00000350: ca5d 67be 786e 223e 5df4 a1bd f594 0c3e
00000360: b026 a4be 7796 c13e afed fd3d e104 d6bd
00000370: f6d7 abbc 6dbd 993e 71d3 ca3e 3188 4cbd
00000380: df3f d83d 576c cbbe 6a73 43be eca1 63be
00000390: a665 b6be 6409 d5be c641 3dbf 1a48 f1be
000003a0: 48d6 773e 0c3e 4ebd 87de 2b3e 925e 08bf
000003b0: 084f 11bd 8022 fabe 1c73 60bd fb55 553e
000003c0: 1ff1 c8be 03c2 a43c f080 113f 293b bebc
000003d0: dfb6 1d3e ce14 f7bd fc21 21bf 4761 87bd
000003e0: 7ce1 103f 0fa5 3d3e f183 dc3e ce61 33be
000003f0: 634f d2be 9ddb b2be 0724 4fbe b328 bebc
0.08025166 0.20627838 0.06636323 -0.1525291 -0.0036806415 -0.08750229 0.09292428 -0.19433723
-0.018434701 0.1695177 -0.34263206 0.16445808 0.15369628 0.06226852 -0.10105147 -0.043435846
0.3063696 -0.05519015 -0.07262598 -0.06034374 -0.16808544 -0.25873876 0.10017162 0.049080696
-0.11880485 0.2582337 0.34481624 0.006765038 -0.17146765 0.08323918 -0.11873549 0.18046243
-0.082118854 -0.19386744 -0.3421258 -0.13805029 -0.20775159 -0.2954109 -0.35647625 0.044896524
-0.1748806 -0.15433817 -0.074419886 -0.53841555 0.03904848 -0.29399523 -0.025899908 0.019913282
-0.010771645 -0.033069883 -0.20917457 0.5102598 0.567316 -0.07569313 0.04075664 0.19600779
0.3582013 -0.0126366345 -0.33339128 -0.34380448 -0.030996451 0.08708165 0.046167504 0.1440584
0.19597471 0.031952653 0.17604098 -0.15311562 0.0077291545 0.054587625 0.21924148 0.37302282
-0.14896923 0.07559115 0.04882104 0.076641925 0.008518498 0.008506994 0.05518786 -0.28193337
0.085641846 -0.07005713 -0.1751682 -0.10165756 -0.14400826 0.13989171 -0.23974492 -0.045303162
-0.007616309 0.26286307 -0.2706612 -0.12683961 0.23722492 0.12320012 -0.4924775 0.05643895
0.1749085 0.004808849 0.031221116 0.5106116 -0.16056058 -0.12524211 0.011179892 0.25975767
-0.09868971 -0.081985965 0.058458693 0.056852326 -0.08944233 0.13053916 -0.01783978 0.112693794
0.00969137 -0.17650805 -0.17671467 0.06700548 0.5488402 -0.12836872 -2.3109584e-05 -0.08943498
0.22164413 -0.12752394 -0.033900395 0.3164776 0.2686289 -0.2484345 0.093412355 -0.057336286
0.28885502 0.079023145 0.09501428 0.07495791 0.095360205 -0.14398561 0.21515366 0.5370038
-0.17604098 -0.3167315 0.1043827 0.16154258 0.28785026 0.15465188 -0.11354265 -0.114080675
-0.066848725 0.0387704 -0.1535182 0.4130861 -0.042366944 0.042499945 -0.026021058 -0.21907786
-0.24386416 -0.09935464 0.155346 -0.24493141 -0.23049547 0.21879822 -0.24746393 0.17153437
0.19770959 -0.19796848 0.4612185 -0.26445675 -0.12325796 -0.23237531 -0.028146679 0.09007947
-0.29811877 0.12141348 0.50966257 0.0563468 0.023271298 0.0014553529 -0.22815776 0.30990264
-0.3778998 -0.13272297 -0.14552775 0.3104101 -0.14706638 -0.36233327 0.17990535 0.23185961
0.28321186 0.12531063 -0.039694037 -0.18607353 0.5086546 0.07483145 0.03920596 0.18756491
0.20111242 0.55223817 0.27977464 -0.25698477 -0.025354777 -0.3130972 -0.5193646 -0.12847008
0.47412792 0.24150129 -0.3674485 0.07842853 0.4609863 0.07849918 -0.4652958 -0.08170355
-0.43856904 -0.02366092 -0.11146895 -0.09929155 -0.22594371 0.15862453 -0.07907937 0.13728698
-0.32060766 0.37810108 0.1239885 -0.10450149 -0.020977002 0.30027333 0.39614442 -0.04993457
0.105590574 -0.39731094 -0.19086996 -0.22229737 -0.35624427 -0.41608727 -0.7392849 -0.47125322
0.24202836 -0.05035214 0.16784106 -0.532693 -0.03547576 -0.48854446 -0.054797277 0.2083358
-0.3924646 0.020112043 0.5683737 -0.02322157 0.15401791 -0.12064515 -0.6294248 -0.06610351
0.5659406 0.18519996 0.43069413 -0.17517778 -0.41076192 -0.34933177 -0.20228587 -0.023212766

arith.constant1 f4 [64, 64]
00000000: 9ddd 913e 7e26 0fbe 81f1 bc3c d68c 86bd
00000010: e4c0 15be b99a 33bd fa19 853d 8a6d 693e
00000020: d988 64bc 28ef 15be f541 173c a8bf 543d
00000030: 3c81 c83c d8f9 7b3a ec4a 0d3d 422a ccbc
00000040: 0710 2fbe c995 543e 652a fb3d 058c 413e
00000050: 099f 5d3e 8a02 82be 259e 953a d080 5abd
00000060: 2c73 013e cf9d f23d 8cd5 863e 6b01 1cbd
00000070: b0b2 a43c 7aba 453d 6c00 4abe de64 90be
00000080: 95dc a13d 10b2 d1bd eae8 74bd b697 af3d
00000090: 729e 443e 8133 d3bd 355f 123e 3294 ef3d
000000a0: a2fc 10be 30c4 c5bc 0584 29bd 5f3d e2bd
000000b0: 75c1 3abe 9419 4a3e 2b4d 873d f9b4 c73d
000000c0: 684e 793c 9fa1 08be 4b55 ed3c 9280 d7bb
000000d0: 1217 7e3d 3346 713e 666a 963d 7068 77bd
000000e0: a71b e83d 2cfa ad3d d398 1e3e 11ae bbbd
000000f0: e753 e93d d949 fbbd 1b6c 6e3e 0395 763e
00000100: 5d6e 25be 4049 1b3e 55a9 c73d 14da 10be
00000110: 84d9 6abd cee3 b9bb 1563 9ebd 68f8 18bd
00000120: d8db 453e 82ab a4bd 3581 1cbb f4df 833d
00000130: 284e 203c 1eb1 de3d 7062 11be 02fe f9bd
00000140: 703d 3dbd d654 2cbe a45a 8cbc 5ced c5ba
00000150: 2d2b 51be 0286 9e3d 62df 9fbc 8773 89bd
00000160: dd01 1e3e 9713 e7bb 2bb2 04be e998 2c3d
00000170: 8157 61bd ef8a b0bd b239 853b d9fa 65be
00000180: 0c1b 37be bfca 3e3e f921 8bbd bc54 eabc
00000190: 3f80 83be 133b b13c 8b59 a1be d4cc 343e
000001a0: 6399 7a3d 0340 d43c 6bbd adbd 869c ce3a
000001b0: c038 1fbe 1f09 35be 35f0 c53c 322e e1bd
000001c0: 2d03 dc3c 9d11 813e 174d 373e 3424 b2bd
000001d0: e1b0 873c 2c96 0e3e 68f2 02be 77ab 2b3d
000001e0: cfef 933d 6d39 703e b0b0 fc3c 82e2 bf3d
000001f0: 81c0 b53d 7151 55be 3759 2bbd 8832 c13d
00000200: f0ef 3c3a f662 d2bd d9ea 113e 8b9b 0f3e
00000210: 3d45 b23d 7de3 fa3c 3e39 573e 6960 3fbe
00000220: 0f23 88bd 8e7c e2bd ea66 eb3d 656a e63d
00000230: 6329 dd3d 9b07 10be c745 61bd dabb 38be
00000240: ea62 a3bd 8314 933d d1be 34bd 1777 4abe
00000250: 2914 debd a708 1ebb a640 053e 6e22 1f3e
00000260: 57a4 cebc 5fb7 4ebc 75c5 72bc a2d1 7ebe
00000270: 1b93 2c3e 51e0 3ebd abd5 95bd 4ebf 953e
00000280: d95b 8b3d a615 a0bd c43f 123e c521 d13d
00000290: 844d bdbd ecec 90bd 25f4 f0bd 5a53 633e
000002a0: 5083 50be 6905 ac3e 12d7 443e 6562 f03d
000002b0: ac26 c03d 97d5 223e 8d87 8bbe 0a43 ccbd
000002c0: 0ca2 583e cdb0 c73b 9ea4 073d 59f7 c63d
000002d0: 79c7 63bd baa3 a9be 6aa0 a93d cd1e 95ba
000002e0: ccba 7b3d 3797 86bd f72d 27be 4755 e5bd
000002f0: fdd1 ca3d c2a5 86be eb7b 233e b373 d8bc
00000300: 2272 2dbe ba88 68bc ed05 043d ded6 ad3d
00000310: 95b5 22be f5d8 eb3c 3917 2abe 2767 6c3d
00000320: 4719 953d ff91 22bd 2cb0 08bd 1a8a 733d
00000330: a4d5 f0be 6bbd f1bd f16e 1d3d ea76 853d
00000340: d64d 383d 31cb 3cbe d2d6 3d3d e4ee 61be
00000350: 3b8f 4d3c 8b30 84bd c1bd 9e3a a4f2 8f3d
00000360: 5349 06bd 4034 06be 76ea 583e b2ce 0fbd
00000370: 466f 37be f23e ff3d 6378 833d d760 0d3e
00000380: 28d4 d6bd 524b 2fbc 3ab3 fe3c bc36 50be
00000390: 1c1d 1d3d 65e2 e83c faa9 403d 9ba1 ba3d
000003a0: 195d 67be 04af 44bd e38b 823e 1042 2c3a
000003b0: 4780 f03c d1c4 02bd ff47 71be 5b64 3cbd
000003c0: d114 1fbe 8f9e 6d3d d1dc d1bd 68a5 0d3e
000003d0: cc65 363d 9f96 9f3c da8d be3c 68b3 43bb
000003e0: 6ab6 83bd 2596 9abc 0ee0 6cbb 9f0a 8a3c
000003f0: 1569 953d de44 b63c 7f14 f1bd 18eb 69bd
0.2848939 -0.13979527 0.023064377 -0.06569831 -0.14624363 -0.043848727 0.06499095 0.22795692
-0.013948643 -0.14642012 0.009232034 0.05194059 0.024475686 0.000961212 0.03449528 -0.024922494
-0.17095958 0.20760264 0.122639455 0.1890107 0.21642698 -0.25392562 0.0011414929 -0.0533455
0.12641591 0.11846506 0.26334798 -0.03808729 0.020104736 0.04827354 -0.19726723 -0.28201956
0.07903401 -0.10239041 -0.059792437 0.085738584 0.19201067 -0.10312558 0.14294131 0.11698188
-0.14158872 -0.024141401 -0.04138567 -0.11046862 -0.1823786 0.1973632 0.066065155 0.09751315
0.015216447 -0.13342904 0.028971335 -0.006576606 0.06203372 0.23561935 0.07344513 -0.060402334
0.11333399 0.08494982 0.15487985 -0.0916406 0.11392956 -0.12269945 0.23283426 0.24080281
-0.16155382 0.15164661 0.097490944 -0.1414569 -0.057336345 -0.0056729084 -0.07733742 -0.037346274
0.19322145 -0.08040525 -0.0023880724 0.064392 0.009784259 0.10873626 -0.14197707 -0.12206651
-0.04620117 -0.16829237 -0.017133065 -0.0015100646 -0.20426627 0.07740404 -0.019515697 -0.06711488
0.15430398 -0.007051896 -0.1295859 0.042138014 -0.05501509 -0.086202495 0.0040657157 -0.22458972
-0.17881411 0.18632029 -0.06793589 -0.028604858 -0.25683782 0.021634614 -0.31513628 0.1765626
0.061181437 0.02590943 -0.08483394 0.00157632 -0.15548992 -0.1767926 0.024162391 -0.10995139
0.026856983 0.2520875 0.17900501 -0.086983114 0.016563835 0.13924474 -0.12787783 0.04191157
0.07223474 0.23459406 0.03084597 0.09369375 0.08874608 -0.20831849 -0.04183313 0.09433466
0.00072073843 -0.102727816 0.14249744 0.14024179 0.087046124 0.030626053 0.2101793 -0.18689121
-0.06647312 -0.11058913 0.11494239 0.11250762 0.107989095 -0.14065401 -0.054998185 -0.1804041
-0.07977851 0.07181647 -0.04412729 -0.19771992 -0.10843689 -0.0024114044 0.13012943 0.15540478
-0.025224848 -0.012616961 -0.014817585 -0.24884656 0.16852991 -0.046600644 -0.073161446 0.29247516
0.06804628 -0.07816629 0.14282137 0.10211519 -0.092433006 -0.07076439 -0.11765317 0.22199765
-0.20362592 0.33597878 0.19222668 0.11737517 0.09382376 0.1590179 -0.27251855 -0.09973724
0.21155566 0.0060940743 0.033115976 0.097151466 -0.055610154 -0.33132726 0.0828255 -0.0011376977
0.06145744 -0.06571811 -0.16326128 -0.11197906 0.09903333 -0.26298338 0.1596524 -0.026422357
-0.1693807 -0.014192754 0.032232214 0.08488248 -0.1588958 0.028789977 -0.16610421 0.05771556
0.07280212 -0.039690014 -0.033371136 0.059457876 -0.47037995 -0.11803707 0.03843588 0.06516822
0.044996105 -0.18436886 0.046347447 -0.22063786 0.012546356 -0.06454571 0.0012110994 0.07028702
-0.03278477 -0.1310587 0.2118319 -0.03510923 -0.17913541 0.12463178 0.06419446 0.13806473
-0.10489684 -0.01069911 0.031091321 -0.2033338 0.03835784 0.028428266 0.047037102 0.09112855
-0.22594108 -0.04801847 0.2549735 0.00065711234 0.029358042 -0.03192598 -0.2356262 -0.045994144
-0.15535285 0.05801254 -0.102471955 0.13832629 0.044530675 0.019481001 0.023261 -0.0029861573
-0.06431277 -0.018870423 -0.003614429 0.016850768 0.072954334 0.022249635 -0.117714874 -0.05710897

arith.constant2 f4 [64, 64]
00000000: 342a aa3e c91f 863d 337a 99bd cab9 b3bd
00000010: 17d6 a9bd 13da 04bf 4971 2cbe 3fa0 2a3e
00000020: d7b4 ce3e 6e49 3dbe 9de2 0bbc 5a47 10be
00000030: 6d15 283e b17e 843e a7af d0be 4a3b eabd
00000040: b34f 2dbe 5d7d b03d b5bd 383e 5ee3 883e
00000050: df17 e13e f49c cfbe c326 f6bd a50e 3b3e
00000060: cd28 87be bf49 f03d 3668 793e 65d6 92be
00000070: 4dc8 c73e e653 893e 1112 3bbe 3560 f1bd
00000080: f529 013b 483d d0bd 9fa9 74bd e4fc 4bbe
00000090: a192 ae3d eea6 f1be f735 3b3d bf85 5bbc
000000a0: f327 b83d e0e6 1d3e f494 99be 381f 013c
000000b0: 7da5 39be 3ded 04bf 4a81 97bd 238a 363e
000000c0: c4bd d43d 767f 6fbb 9307 da3e 860b a53d
000000d0: 03e4 a1bd 74b6 11be 90f3 3c3c 3957 38be
000000e0: 3d98 fb3d df85 02be a98c 51be 42cc 69bc
000000f0: daea 8ebe dcad 813c 8d30 183e 69e6 163e
00000100: 2311 313c 290a ae3d ffbe 7e3e 25a9 cfbc
00000110: 2f71 4abe cb6a 6abe 25d9 0cbe 1f5c dcbc
00000120: bb06 423e 0036 83be ab43 5b3e e397 8abd
00000130: a8cb e53d cf35 f13c 6657 20be e725 5bbd
00000140: 7671 6ebc e6ae eabd 11f4 a43d 9d16 17bc
00000150: ea17 70bd 2219 583e 3e41 79bd 8093 353d
00000160: f216 5a3c 9bbc 79be ed43 91bd b13b 3bbe
00000170: d26e 5fbd 5f3d 233e 68ee a0bd 9fea 18be
00000180: d6c5 243e dca0 0ebe 5f4e 043e 727d 803d
00000190: 5c84 4bbe a486 53bd 2707 a6be 72e2 053e
000001a0: 2d94 813d d9cb 4e3d 15a0 653d 7853 823d
000001b0: 07da 99bd 7560 333d 7285 65bd 5bcd 1a3e
000001c0: e252 003e 60bf 5b3e b525 6c3e e5ec fbbd
000001d0: 66aa 49bd 8767 b23c c348 f9bc d82f 5d3d
000001e0: 0cfc 0b3e 863d 0c3e 2a80 7d3d 53a4 2f3e
000001f0: 0da1 013b a8e1 96be 974d 92bd 9545 c33c
00000200: b360 22be 695e 0b3d 5b9b 323d 5801 023e
00000210: 4f8d bc3d 5a87 563e 98cf 7f3e 61d9 2cbe
00000220: 395e 19bc 1f04 c0bd 2fc9 31bb c180 5bb9
00000230: 3469 15be 1d3e 793e 9af7 a1bd 8274 183e
00000240: 1371 ca3d 27b1 a2bd 917e 563c f866 c33d
00000250: 0ada a4bc 3972 1fbd 17cf 07ba ce2b 9bbe
00000260: 6d12 873d f684 1c3e 5673 953d 84a5 ea3d
00000270: 1e6f 19bd 299a d93d 9f25 4e3d 42a8 493e
00000280: ff2d 073d 4376 03bd 1ecb c53d cc8d 91bd
00000290: 9a55 023d 5d05 0abe a63e 09be b46f 6bbe
000002a0: 8279 1f3e c3f7 bcbd a901 433d cc36 1dbe
000002b0: cf09 66bd 8067 733d f5f7 713e 41b8 ce3d
000002c0: 27c8 eb3d a58b 6fbe 6c55 fbbc 7365 583e
000002d0: 0226 e33d 6bba 473d ef62 123e cfd6 633c
000002e0: 2f42 ee3c aae3 b33c de89 c9be d0b3 963d
000002f0: d1dc 6f3c 4a42 a73b fc68 33be 3759 6c3d
00000300: 2916 bf3c 7e5e 183e d2ac c8bd 3e06 82bd
00000310: 1dd3 7f3d b06c debc 445c ce3d 1220 6a3d
00000320: 568e f2bc 706d cdbd e4f4 21be c9c2 fcbd
00000330: 4029 df3e 7efd 013e 8452 36bd 7bca dcbd
00000340: 47e6 19be 9424 75bd 6df8 90bd 0c97 f6bd
00000350: c014 03bd 73c1 1abd 9121 7d3d 48fd 14be
00000360: 3675 37bc a147 d63d 08ad 5abe f642 7dbe
00000370: 32e9 003e c701 463d 93d8 a2be 6e99 bebe
00000380: 9bad 963d 434d 04bd 95c9 1bbe dac1 f83d
00000390: 3c8a 44bd a520 b03c fc39 02be dc5f ec3c
000003a0: 5d9a 45bd d3ca f73c 662a febd 1d48 52bd
000003b0: 7745 8fbd 5411 843e 3beb 6a3e 32e9 a3bd
000003c0: 1b02 3f3d 0ae9 f6bc 49da f53d bd31 b1bd
000003d0: e8a1 3b3e 88b9 a33d d655 3d3c 2219 eb3b
000003e0: 20cd d03d b011 97bd 48d7 a53d 443f d43d
000003f0: e877 dd3d 3d51 ad3a a917 193d dfe2 a23d
0.33235323 0.06549031 -0.07494011 -0.08775671 -0.082927875 -0.51895255 -0.1684009 0.16662692
0.40372345 -0.18485042 -0.008537916 -0.14089718 0.16414423 0.25877908 -0.40759012 -0.1143709
-0.16924934 0.08617661 0.18041117 0.26735967 0.43963525 -0.40549433 -0.12019112 0.18267305
-0.26398316 0.11732816 0.2435616 -0.28679195 0.39020005 0.26821822 -0.1826861 -0.11785928
0.0019708846 -0.101679385 -0.059732076 -0.19920689 0.08524061 -0.4719767 0.04570576 -0.013398587
0.08991995 0.15420103 -0.29996455 0.007880978 -0.18129535 -0.51924497 -0.07397707 0.17826132
0.103877574 -0.0036544478 0.42583904 0.080588385 -0.07904818 -0.14229757 0.011532679 -0.18002023
0.122848965 -0.1274638 -0.20463814 -0.01426989 -0.27913553 0.015829973 0.1486227 0.14736332
0.010807308 0.08498032 0.24877547 -0.02534921 -0.19769739 -0.22892301 -0.13754709 -0.026899396
0.1894788 -0.25627136 0.21412532 -0.06767251 0.11220485 0.029444603 -0.1565834 -0.053502943
-0.014553418 -0.114591405 0.080543645 -0.0092217 -0.058616556 0.21103337 -0.060853235 0.04433012
0.013311135 -0.24388354 -0.07093034 -0.18284489 -0.054549046 0.1594138 -0.078579724 -0.14933251
0.16091093 -0.1392855 0.12920521 0.06273927 -0.1987471 -0.051642075 -0.32427332 0.13074663
0.063270904 0.050487373 0.05606087 0.06363577 -0.075122885 0.04379316 -0.056035466 0.151174
0.12531617 0.21459723 0.23061259 -0.123010434 -0.04923477 0.021777881 -0.030430203 0.054000705
0.13670367 0.13695344 0.061889805 0.17152528 0.0019779832 -0.29469037 -0.07143705 0.02383689
-0.158572 0.034025583 0.04360519 0.12695825 0.0920664 0.2095007 0.24981534 -0.16879798
-0.009360843 -0.09375786 -0.0027127971 -0.00020933432 -0.14590913 0.243401 -0.079085544 0.14888194
0.098848484 -0.079439454 0.013091699 0.09541124 -0.0201235 -0.03892729 -0.00051807 -0.30306858
0.06595311 0.15285096 0.07297389 0.11457351 -0.037459485 0.10625107 0.050328847 0.19693092
0.03300285 -0.032095205 0.09657882 -0.07107124 0.031819917 -0.13478608 -0.13402805 -0.2299183
0.15573695 -0.09226944 0.047609005 -0.15352935 -0.056161698 0.059424877 0.23629744 0.100937374
0.115127854 -0.23393114 -0.03068038 0.2113245 0.11091234 0.048761766 0.14295553 0.013906195
0.029084293 0.021959145 -0.39362997 0.07358515 0.014640049 0.005104338 -0.17520517 0.05770227
0.023325996 0.14879796 -0.09798588 -0.06348847 0.062457193 -0.027151436 0.10076192 0.05715949
-0.029608887 -0.10030639 -0.15816075 -0.1234184 0.4358616 0.12694356 -0.044512287 -0.107808076
-0.1502925 -0.059849337 -0.070786335 -0.12040529 -0.03200221 -0.037782144 0.06179959 -0.14549744
-0.011197379 0.10462881 -0.21355069 -0.24732575 0.12588957 0.04834154 -0.31805858 -0.37226433
0.07357331 -0.032300245 -0.15213616 0.12146349 -0.047983393 0.021499941 -0.12717432 0.028854303
-0.048242915 0.030248081 -0.124104306 -0.051338304 -0.06995671 0.2579447 0.22941296 -0.08003463
0.046632867 -0.030140419 0.12004525 -0.08652065 0.18323481 0.07994372 0.011556109 0.007174627
0.101953745 -0.073764205 0.08097702 0.103636295 0.10813886 0.0013223063 0.03737608 0.079534285

arith.constant3 f4 [64, 64]
00000000: 18fa 45bd 092a 4d3e 84e3 b03c 67d4 33be
00000010: 5984 da3d e27f 1a3e e8cb b63d 8e70 033d
00000020: d1ba 3bbd 57db 213e 17fa f43c 212b 83bd
00000030: 5c27 8cbe 8232 efbd 45e5 8fbd fe81 86bc
00000040: 6c7b 9b3c 38de 2a3e d92a 4bbe 214b 603c
00000050: 7970 ccbe 4978 8e3d 84ac 01bd cfa1 25be
00000060: 30d2 b9be 6b7e 5c3e e3f6 d4bd dc1c 533b
00000070: e456 e5bd 1d80 153e 8609 2ebe 2698 1d3f
00000080: 2240 56be dff0 5ebd d89d c6be addb 313e
00000090: c99d 56be 76a4 ca3c cec6 38be 2c6c b83d
000000a0: db3d a7bd faec d3bd 86d0 a63d 2f94 66bc
000000b0: d6df 603d 1c06 11bd 6046 ffbd c761 ddbd
000000c0: 2b7f a33d a230 923d 4f3c 58be 0fc2 943e
000000d0: 0ddf a73e 1ee4 3b3e 6c98 4d3d 1e86 aa3c
000000e0: 00bc 073e 6d3a e93c 6322 b1be a355 10be
000000f0: 012b f1bb f96f 04bd be27 43bd 7581 b03c
00000100: 1c67 923e 9374 4f3e 3777 69bc b10a d3be
00000110: bbb4 613e fdd1 58be 0182 153e eca2 63bd
00000120: 2ecb 843e c25b 313e fda7 febd e972 803e
00000130: 8ffd 813e 9802 773e acce 79be be21 cbbd
00000140: 2e61 31bd 0b14 45bd d8b7 7dbe 24cd 88be
00000150: 3a02 4dbd df4f 70be f9b4 91be 40da 303e
00000160: 8df9 24be 4bcd f5bc 4bc6 9c3d 69af 6b3e
00000170: f48e 573d 5877 c93e fcec 67be 5fce 8b3e
00000180: 768e 533e 3d6a 2cbe f85b 6cbe 91b0 5cbe
00000190: f0ff e0be 29b0 213a 0122 753b 09af 9ebd
000001a0: 150e 2a3e d9b7 34be fa71 823e 8d37 16bd
000001b0: b934 ba3d 780c 103d f69e 663e 599c be3e
000001c0: 52e1 cebd b75d 303e 8c55 79bd 45d3 8e3e
000001d0: e10b 193e 5296 5bbe 7d6d 1abe cb85 30be
000001e0: 2326 213f c613 22bd a37b 1bbe 5316 20be
000001f0: 0245 5b3d 4468 16be d4e6 943e c505 fd3c
00000200: 5da4 643e 16a0 533d 135c b83e 1f66 c03c
00000210: dec8 5e3e 67b0 b5bd 032f fabd a466 7f3e
00000220: fa5f 67be 8283 ffbd 26a1 5b3d 756a c33e
00000230: c191 223e 3d0b 823e 0982 22be d7ab 54be
00000240: 2e48 513e 8f21 843d 4690 21bb 1287 a5bd
00000250: 33a4 443b 541f d13d b19a 86be 0d06 143e
00000260: ffee b3be d509 e0bd 1cb4 393e 1bdd 23bd
00000270: 11bb a9be 19a2 8c3e a2ad 003d e5d6 3a3e
00000280: 97af 923e e36f 193e 2358 753d 4db1 19ba
00000290: 1b68 0abe fb7b aebe 6eff 0bbc 0851 8bbe
000002a0: 1291 89bd 0990 adbd e3aa f43e 0e0c 093d
000002b0: 4337 ef3e 64c2 91bd 026f 9ebd 27d2 003f
000002c0: 3c55 21be 8d25 f23c 8805 66bd 4ea8 af3d
000002d0: 002c b53e 0c58 55be 97d3 98bc f745 463e
000002e0: fc10 7b3e a234 72be 6915 9c3e 0d1e 00bf
000002f0: d11f 853e cbfa 453c 5001 8a3e 727a bd3c
00000300: d810 bebc 3655 033f 8130 023e 96e9 56be
00000310: bb23 433e 3964 5fbe 3e1b 12be cfee 75be
00000320: 9fa5 ce3e b232 dcbd d9ca 6dbe 055b d3bc
00000330: e12c d73d cc09 cf3d c536 b7bd aced 37be
00000340: 548a b2bd 5cc9 eabd 1953 81be 2a5c 9abd
00000350: db8f 293d 640b 22be dd46 45be 91c8 cc3d
00000360: 5372 183e 92aa 2d3e 6e63 a9be 50b2 b73d
00000370: d846 63bd 4aee 003d 0a7c ecbc fa1f 75bd
00000380: 21bc e63e f68d 50be d5dc d2be 2d3a 61be
00000390: 0700 6fbe a855 d0bd 61be 09be 1c24 5bbe
000003a0: 6787 31bd 4574 1c3e d85d 6c3d 7bd5 163d
000003b0: dc61 9e3e c529 15bf 2e9b dcbd f0d8 0b3e
000003c0: af43 c3be df31 f33d 525c b23c 09fe 1f3e
000003d0: 1731 eb3e 452d c8be e57e dcbe 7a63 df3c
000003e0: e2a1 c13e 703a 753d f121 a73e 1962 a8be
000003f0: efcb 0fbd a6ad 873e cc67 3cbe 6875 413e
-0.04833421 0.20035566 0.021592863 -0.17561494 0.106697746 0.15087846 0.08925611 0.032089762
-0.04583246 0.15806328 0.029904408 -0.064047106 -0.2737378 -0.116795555 -0.070261516 -0.016419407
0.01897975 0.16686332 -0.19840564 0.013689787 -0.3992956 0.06956536 -0.031658664 -0.16175006
-0.36293173 0.215326 -0.103986524 0.0032213246 -0.11198214 0.14599653 -0.1699582 0.61560285
-0.20922902 -0.05442893 -0.387923 0.17368956 -0.20958628 0.024736624 -0.18044588 0.09005007
-0.08166095 -0.10347934 0.081452414 -0.014073416 0.054900967 -0.035406217 -0.12464595 -0.10809665
0.0798324 0.07138182 -0.21116756 0.29054305 0.32787362 0.18348739 0.05019419 0.020815905
0.1325531 0.028470242 -0.34596547 -0.14095168 -0.007359863 -0.032333348 -0.047645323 0.021546105
0.2859429 0.20259313 -0.014249614 -0.41219094 0.220416 -0.21173854 0.14600374 -0.055575296
0.25936264 0.17320159 -0.12434385 0.2508767 0.25388762 0.24122083 -0.24395245 -0.09918545
-0.04330557 -0.048114818 -0.24777162 -0.2671901 -0.05005095 -0.23467968 -0.28458384 0.17270756
-0.16110821 -0.030005118 0.07655009 0.23016132 0.052626565 0.39348865 -0.22648996 0.27305886
0.20659813 -0.16837402 -0.23081958 -0.2155173 -0.43945265 0.00061679125 0.00374043 -0.07748229
0.16606934 -0.17648257 0.25477582 -0.03667407 0.09092087 0.03516814 0.22521576 0.3722866
-0.1010157 0.1722325 -0.0608726 0.2789556 0.14945938 -0.21444061 -0.15080829 -0.17238538
0.62948817 -0.03956964 -0.15183882 -0.15633516 0.053532608 -0.14688212 0.29082358 0.03088654
0.22328325 0.05166634 0.36007747 0.023486195 0.21756312 -0.08871537 -0.12215998 0.24941498
-0.22595206 -0.12476255 0.05362048 0.38167158 0.15875913 0.253992 -0.15869917 -0.20768677
0.2043769 0.06451713 -0.0024652644 -0.08082403 0.0030005097 0.102110535 -0.26289895 0.14455433
-0.35143277 -0.10939375 0.18135113 -0.040005784 -0.33150533 0.2746742 0.03141559 0.18246038
0.2864959 0.14984088 0.059898507 -0.00058629067 -0.13516276 -0.34078965 -0.008544786 -0.2721026
-0.06717123 -0.08474738 0.47786626 0.033458762 0.4672185 -0.07117155 -0.07736017 0.5032067
-0.1575517 0.029558921 -0.05615762 0.085770234 0.35385132 -0.20834368 -0.018655581 0.19362627
0.24518198 -0.2365289 0.30485085 -0.50045854 0.26000836 0.0120837195 0.26954126 0.023129676
-0.023201391 0.51301897 0.12713815 -0.20987543 0.19056599 -0.21815576 -0.14268205 -0.2401688
0.40360734 -0.10751857 -0.23221911 -0.025800237 0.10506607 0.101092905 -0.08945993 -0.17961758
-0.0871779 -0.114641875 -0.2525871 -0.0753711 0.041396957 -0.15824658 -0.19265313 0.099991925
0.14887361 0.16959599 -0.3308367 0.08969557 -0.055487484 0.03147725 -0.02886774 -0.05984495
0.45065406 -0.20366654 -0.41184106 -0.21994849 -0.23339854 -0.10172588 -0.1345153 -0.21400493
-0.04334202 0.15278728 0.057706684 0.036824685 0.30934036 -0.5826686 -0.10771786 0.13656974
-0.38137576 0.118747465 0.021772537 0.1562425 0.4593589 -0.39097038 -0.43065563 0.027269114
0.3781882 0.059870183 0.32643083 -0.32887343 -0.035106596 0.2649967 -0.1839897 0.18892443

arith.constant4 f4 [64]
00000000: c365 6f3e 7e68 153e d922 553e cd69 533e
00000010: 072c b03d 634f 1f3e 213d a53e c7c8 e53e
00000020: 759b 873e e480 553e bb63 6e3e a70c 203e
00000030: c568 963e 3f41 893e 56a2 103e 2ae4 e53d
00000040: 9fbd ef3d a79e 413e 2e98 e13d e797 863e
00000050: 2c5c b83d a150 673e 4c8d 9b3e 4693 c23d
00000060: cc58 823e dd1d 513e 7acb cd3e 8ffd bb3d
00000070: 779a f93d 7a45 7a3e 7e8c a33d 3bce 4a3e
00000080: 263a 413e c8e8 743e e825 af3e 2c72 553e
00000090: d06b 333e 2acc 243e e069 893e 1b8d 113e
000000a0: f4de 1c3e dc80 b63d f397 8d3e 78f1 823e
000000b0: 657e 993e 2c9d c73e 1929 533d d99e 923e
000000c0: 17d3 d03e 9b06 b73e db21 563e 20d3 5b3e
000000d0: 0e24 d73d 195e 383e 7350 493e 7947 5f3e
000000e0: 0940 6f3e 7bc9 933d 8fbe 043e 1162 923e
000000f0: efa3 983e 72ae 383e 594c 183e b19d 9e3e
0.23378663 0.14590642 0.20814075 0.20645829 0.086021475 0.15557627 0.322732 0.44879743
0.26485792 0.20849949 0.23280232 0.15629826 0.29376808 0.2680759 0.14124426 0.112251595
0.11706089 0.18908177 0.11015354 0.26287767 0.090019554 0.22589351 0.30381238 0.095007464
0.25458372 0.20421548 0.40194303 0.09179222 0.12187665 0.24440566 0.07985781 0.19805233
0.18869838 0.23916924 0.34208608 0.20844334 0.17521596 0.16093507 0.2683859 0.14213984
0.15319425 0.08911297 0.2765499 0.2557485 0.29979244 0.389871 0.051552866 0.28636816
0.4078605 0.35747227 0.20911352 0.21467257 0.10504924 0.18004645 0.19659595 0.21804608
0.23364271 0.07216164 0.12963317 0.28590444 0.2981257 0.18035296 0.14872874 0.30979684

arith.constant5 f4 [64]
00000000: 019a 143d 9f70 7b3d 1f46 fe3b bd4f 24bd
00000010: 14a3 993b 705a e2bc 89dc 0fbd 8c6c 5e3d
00000020: fc66 3bbd cc7b 49bd 29d3 a8bd a20b 923d
00000030: a451 103d 5259 c63c e0ef 263d e82a 7ebd
00000040: 0398 47bd 5daa 7e3d 2a5d 23bd 18dc 033d
00000050: 6e9d 82bd d247 58bd cd25 86bd 88a6 15bd
00000060: f111 9dbd cf4f acbc 02a6 ee3c 544d 8bbd
00000070: 9ed9 1b3d 9467 e93d 3f2d 1bbd b7bd 423c
00000080: 8c66 183d 8742 74bc cd69 6ebc 9f73 1cbd
00000090: 8706 a2bd beb1 8abb 0bb1 0abb 7223 03bd
000000a0: f0af 5d3d e9d3 83bd 03b4 f23d 362e 27bd
000000b0: 7cdd 673d 52a3 b3bb cd2e 053d 813a fa3d
000000c0: 2d7b fcbc 0ddb d2bd 864d 6dbd 52a0 9d3b
000000d0: 7fba 703d 93a6 4cbd 9565 4d3d 3139 a53c
000000e0: 59e8 253d 2c41 99bd 4a7d 8e3d 950e 92bc
000000f0: 1a4b 843d fa69 483c bd83 d23b 0634 863d
0.036279682 0.0613867 0.007759824 -0.040115107 0.00468863 -0.027631015 -0.035122428 0.054302737
-0.04575251 -0.049190328 -0.082434006 0.07131125 0.03523411 0.024212513 0.040756106 -0.062052637
-0.048728954 0.06217419 -0.03988377 0.03219232 -0.063776836 -0.05280287 -0.06550179 -0.03653577
-0.07669438 -0.02103415 0.029131893 -0.068018585 0.038049333 0.11396709 -0.037884947 0.011886052
0.03720717 -0.0149084395 -0.014551592 -0.038196202 -0.07911401 -0.0042326143 -0.0021162655 -0.032016225
0.054122865 -0.06436903 0.11850741 -0.040815555 0.05660771 -0.005482116 0.032515336 0.1221819
-0.030820454 -0.10295687 -0.05793526 0.0048103714 0.058771607 -0.049963545 0.050145704 0.020168873
0.040504787 -0.07483134 0.06957491 -0.017829219 0.06459637 0.012232298 0.006424396 0.065528914

arith.constant6 f4 [64]
00000000: e124 9a3f 6f40 913f b64b 8b3f d9db 8b3f
00000010: 5413 8a3f b24e 763f 1fac 833f 3bbe 9b3f
00000020: 40ff 903f e874 803f c687 8b3f 08c3 913f
00000030: db56 ac3f 5a1d 8c3f c280 8d3f 6f54 8f3f
00000040: accc 833f ee04 7e3f c936 833f fa00 8e3f
00000050: eb91 913f 724b 9d3f c2e6 863f 363a 693f
00000060: b530 8f3f d53d a43f b4de a93f 06de 8c3f
00000070: 6a06 7a3f 976c 8b3f e0b3 893f f559 a03f
00000080: 54a0 7a3f 0464 9f3f c1dc 893f 5524 963f
00000090: 6497 943f 6c2d 883f 4f02 873f f095 6a3f
000000a0: 4e4e 8e3f be13 7a3f b424 a53f 56a1 8e3f
000000b0: 474a 9b3f d9e4 933f 992f 7f3f 3050 883f
000000c0: 5f0d 913f 2197 a53f 6a0c 943f 765d 873f
000000d0: a2fa 7c3f 9688 923f 5d19 923f c69e 963f
000000e0: ffb1 833f fe74 713f 135a 913f 68b1 833f
000000f0: aeed 9c3f 454b 863f ad74 6d3f ad52 9b3f
1.2042505 1.1347789 1.088248 1.0926467 1.0787148 0.9621383 1.0286902 1.2167429
1.1327896 1.0035677 1.090081 1.1387644 1.3464006 1.0946457 1.1054919 1.1197642
1.0296836 0.9922627 1.0251094 1.1094048 1.1372656 1.2288649 1.0539172 0.9110445
1.1186739 1.283137 1.3271089 1.1005256 0.9766604 1.0892514 1.0758018 1.2527453
0.9790089 1.2452397 1.0770494 1.1729838 1.1608701 1.0638862 1.054758 0.91635036
1.1117647 0.97686374 1.2901826 1.1142986 1.2132043 1.1554214 0.99682003 1.0649471
1.1332206 1.2936746 1.1566288 1.0575397 0.98819935 1.1447933 1.141399 1.1767204
1.0288695 0.9431914 1.1355613 1.0288515 1.2260034 1.049172 0.9275616 1.2134606

arith.constant7 f4 [64]
00000000: 807a 0d3e 9912 a73e 942e c03e 9025 523e
00000010: 6437 983c 9c05 3d3e 82e4 eb3e 92f9 fbbe
00000020: 8f21 123e 675f 1e3e 37dd da3d 84f9 773e
00000030: 950e 03be 3d8c c3bd 4d03 7e3d 36c4 e13d
00000040: 15b7 c03b 582d 563d 90a3 003e 2b4e 2a3e
00000050: 283d 613e 3505 833d 3856 fe3d 0e15 363e
00000060: b4da 453e 09a1 96bc c66d 143e 6aa2 123e
00000070: d150 f33c cd74 b53d 85bf 503d 5bc4 23be
00000080: 1e4a 613e d88a a03b 06f2 24bc 29af 8dbc
00000090: de08 86bc 03f1 773d 0845 763e 149e a43e
000000a0: 7655 21bd b431 853e 43fc d03c 4eaa af3e
000000b0: 259b 073e bf07 213e 7a69 d2bc ef71 9a3e
000000c0: de43 5d3e cece fdbd 73b8 963d eccb f73d
000000d0: 52f4 433e 807c 4f3e 0817 c93e 1664 713d
000000e0: 6715 a93d 5ddf 163d 8e16 6bbd 5d35 763e
000000f0: 5fa0 603e 957f 863e 9b0d d53d 0283 d63d
0.13816261 0.32631376 0.37535536 0.20522141 0.0185811 0.18459171 0.46072775 -0.49213845
0.14270614 0.1546608 0.10686725 0.24216276 -0.12798531 -0.09548233 0.062014867 0.110237524
0.0058812 0.052289337 0.12562394 0.16631381 0.21995986 0.063974775 0.12418789 0.17781469
0.1932171 -0.018387334 0.14495 0.14319769 0.029701622 0.088601686 0.050963897 -0.15992872
0.2200093 0.004899364 -0.0100674685 -0.017295437 -0.01636165 0.06053258 0.24049771 0.32151854
-0.039388143 0.26014483 0.025510913 0.3430962 0.13242777 0.15725611 -0.02568506 0.3016505
0.2160792 -0.123929605 0.073594 0.12099442 0.1913617 0.20262337 0.39275384 0.05893334
0.08256035 0.03683411 -0.057394557 0.24043794 0.21936177 0.26269212 0.10402986 0.104742065

arith.constant8 f4 [64, 6]
00000000: 9d35 f5bd 2092 943d c626 d03c 55bb 2cbe
00000010: f11a 863c 28ad 8a3d c5f8 db3d 961a 0a3e
00000020: c3b7 d33d 2819 90be 8766 89be 3a44 ce3e
00000030: e9fa 0d3e 884b 303e d992 31bd 0dd0 a7be
00000040: 5952 8abd d91a 20be bd90 3bbc 03c4 d73c
00000050: 92b4 143d 1c65 01bf 488e b63e 6b95 e83d
00000060: 9206 c3bd f439 733e 2184 20bd c851 d83d
00000070: 6a3a b73d 00c8 923e 61e5 acbd 2805 093e
00000080: df8e 113d f7e4 83bb 4df5 8dbd 24d1 523c
00000090: 878e debc ac73 4e3e 0216 7a3e 7a49 be3e
000000a0: d0a7 3f3e a419 a0be 3ec2 8bbd e8b5 9dbd
000000b0: c249 04bb 4c15 d0be e773 c43d a9a7 093f
000000c0: 988e 723d a198 d0bd fbc4 4039 8765 823e
000000d0: 73df b83d b169 093e 6ba7 a3bb d1d3 133e
000000e0: 8701 adbd bcca 0dbf 5765 2a3f c1aa ce3e
000000f0: 6c09 dc3d 67b1 ca3d 4f2e 3a3e acc8 cebd
00000100: 04ae 1abf 0732 5bbe e85b 673b a0bf 033e
00000110: beea 06be 6c72 b73d b920 2cbe 5d3a 983c
00000120: 5856 223d 661a 07bc c74c 05bd 7d41 54be
00000130: dddf bd3e 179b f33d 6afa 66bd ac5b dd3d
00000140: 4677 5ebd 7b27 a73e 8ce6 b7be f822 803e
00000150: a318 b23d 66ea 41be 200a a0bd 3090 d13e
00000160: c9ae 64be 5be0 ff3d 7ae1 383d 65c3 0a3e
00000170: 9df7 233c f9d7 943c 3f39 b2be 10e3 83bd
00000180: 784d 103e e048 243e 5780 c53c 8beb b9bd
00000190: 3406 423f 01af 5b3e 6535 28bd 74c3 f0bd
000001a0: 13de 48be 23c5 44bd a69e 4ebe 7e55 a83c
000001b0: 0f96 4c3d 3a76 a9bd f5f5 0f3e 68b6 e8ba
000001c0: 4aac e7be 94dc 9a3d ffaf 0a3e bec3 983a
000001d0: 83cb b73d c117 1fbe 99f0 0b3e 9272 9f3e
000001e0: 2c93 943d ff8b 4abe 7087 c93c 1544 cb3e
000001f0: 6490 33be bda9 c83e ee86 0e3d 491f b83d
00000200: a5a5 0abd 1109 d9bd 968d 833f 9bf3 46be
00000210: 39d8 5cbe b6d7 24bc b5ba 72bd 87e9 0d3d
00000220: dabc 0dbf c0f8 173e b095 a03d ff62 8abd
00000230: c426 afbd aee8 133f ea91 e8be 0352 1abd
00000240: 6d81 afbc 0185 5cbd edf4 3abd e479 a53e
00000250: 4239 a1bd 0690 85bd 9628 6a3d e1a2 0b3d
00000260: a605 833d e2f0 8fbe 64ed e93e ff0d d53d
00000270: b726 c0bc 7b60 293c 46d8 1c3d 3ed8 6d3d
00000280: dd88 303e 40e9 e93e 49b2 31be 68c3 04bd
00000290: 92aa cf3d ac48 25be 66b9 62be 3fa8 8a3e
000002a0: 39a8 013e f315 b8bd a541 43be 868c 1f3d
000002b0: 3d61 9039 9752 9ebd b281 53bc 6671 fabc
000002c0: 4ef8 7dbe 9e48 f13e b8bc 9b3e c352 58be
000002d0: 2d9a 083e 24cf 47bb 80f8 1a3e 0839 b4be
000002e0: a187 0d3e 8e04 aa3e b9f4 853c a9d2 0cbe
000002f0: 3205 efbd b52b 983e 1225 773e caa4 2d3e
00000300: e19e b93d 69bb 6fbd 769e 0e3e 7fcc 5dbe
00000310: fb58 fbbc ddbe 753e 8d2a b23d 6402 9abc
00000320: f061 b3bd 72a2 4dbe c54c ee3e 07ad 183e
00000330: 51db 9c3d 06d1 0f3e 5f76 293d d741 a13b
00000340: 79d6 2abe 8ec6 333e d100 ba3d ddf7 41bd
00000350: e559 2dbe ffb8 0a3d 517c 21bc 119e 063e
00000360: d39d 213d 6a38 c1bb 041b e2bc 820c 3f3e
00000370: 3395 a73f edda 513d 35ac e7bd 11e4 a6bc
00000380: 0c27 5a3d 1a45 933e 11b9 443f feb5 783e
00000390: c0d0 c8bb 519e 1e3c 443d 9e3e 9fc1 f3bc
000003a0: 3c7a 0ebe 6f73 c73e 0fef bc3e 0d58 6c3c
000003b0: 8499 1b3d a689 8cbe 9455 233e 07d6 99bd
000003c0: 3559 483d d891 af3d e0d1 c53d 9570 33be
000003d0: a125 49bf 9dc2 68bc e90e eb3c db98 f6bd
000003e0: e163 3c3e 68d4 d73d 0151 65be fbfb e0be
000003f0: 5d84 acbd 6642 813d 7bd2 06be b223 c73e
-0.119731165 0.07254434 0.025409114 -0.16868336 0.016370269 0.06771308 0.107408084 0.13486704
0.10337784 -0.28144193 -0.26836035 0.40286428 0.13865246 0.17216313 -0.043352935 -0.32775918
-0.06753988 -0.15635242 -0.0114480825 0.026338583 0.036305018 -0.50544906 0.35655427 0.11356624
-0.095227376 0.23752576 -0.039188508 0.105624735 0.089466885 0.28668213 -0.08442188 0.13380873
0.035536643 -0.0040250975 -0.06931553 0.012867246 -0.027167572 0.20161313 0.24422458 0.37165433
0.18716359 -0.31269562 -0.06824158 -0.077007115 -0.0020185565 -0.40641248 0.09592419 0.53771454
0.05921802 -0.10185362 0.00018383928 0.25468084 0.090269946 0.13419224 -0.004994323 0.1443627
-0.08447557 -0.55387473 0.6656088 0.4036465 0.107439846 0.09897118 0.18181728 -0.10096869
-0.60421777 -0.21405803 0.0035302583 0.12866068 -0.13175485 0.08957371 -0.16809358 0.018582517
0.039633125 -0.00824604 -0.032543924 -0.20728107 0.37084857 0.118948154 -0.056391157 0.10808501
-0.054312967 0.3264731 -0.3591808 0.2502668 0.08696105 -0.18937072 -0.07814431 0.4093032
-0.223323 0.12493964 0.045136906 0.135511 0.010007766 0.01816939 -0.348093 -0.06439793
0.14092052 0.16043425 0.024109049 -0.090781294 0.75790715 0.21453477 -0.041066546 -0.1175603
-0.19615965 -0.048039567 -0.20177707 0.020548578 0.049947795 -0.08274503 0.14058669 -0.0017754557
-0.45248634 0.07561603 0.135437 0.0011655015 0.08974364 -0.15536405 0.13666 0.31142098
0.07254633 -0.19779967 0.024600714 0.3970038 -0.1753555 0.39192 0.034796648 0.08990342
-0.033849377 -0.105974324 1.0277584 -0.19428866 -0.21566857 -0.010061195 -0.05926009 0.034646537
-0.5536629 0.14840984 0.078410506 -0.06757163 -0.08552316 0.57776916 -0.45423824 -0.03767587
-0.02142402 -0.05383778 -0.045643736 0.32319558 -0.07872249 -0.06521611 0.057167612 0.03409088
0.06397562 -0.28113467 0.45688927 0.1040306 -0.02345596 0.010337944 0.038292192 0.058067553
0.17239709 0.45685768 -0.17353167 -0.032412916 0.101399556 -0.16141003 -0.22141036 0.27081487
0.12661828 -0.089885615 -0.1906801 0.038952373 0.00027538268 -0.077305965 -0.01290934 -0.03057165
-0.24801752 0.47125715 0.30417418 -0.21125321 0.13340063 -0.0030488456 0.15133858 -0.3519976
0.1382127 0.332066 0.016352044 -0.13752235 -0.11670913 0.29720846 0.24135235 0.16957393
0.09063507 -0.058528338 0.13927636 -0.2166004 -0.030682078 0.2399859 0.08699522 -0.018799968
-0.087589145 -0.20081499 0.46542946 0.14909755 0.07659019 0.1404458 0.041372653 0.004921179
-0.16683377 0.17556211 0.09082187 -0.04735552 -0.16928823 0.033867832 -0.0098562995 0.13146235
0.039457154 -0.0058966177 -0.027600773 0.18657115 1.3092407 0.051234175 -0.11312143 -0.020372422
0.053259894 0.28763658 0.7684489 0.24288175 -0.0061284006 0.0096813 0.30906117 -0.029755412
-0.13913816 0.38955256 0.36901137 0.01442529 0.0379882 -0.27448767 0.15950614 -0.075115256
0.0489132 0.08572739 0.09659171 -0.17523415 -0.7857304 -0.014206556 0.028693633 -0.120408736
0.18397476 0.1053856 -0.22394182 -0.43942246 -0.08423684 0.063114926 -0.1316623 0.3889442

arith.constant9 f4 [64, 6]
00000000: 2248 9fbc f4bb 49bc 97a4 a8bb a466 98be
00000010: 32fd a73e 1e2f afbd 9168 37be baad cbbd
00000020: 22fe e9bd f1d6 5fbd 3837 15be 0249 c23e
00000030: 1fe9 6a3d 8540 c0bd 7f2c 03be dc7b fe3d
00000040: d9ef abbe dd3b 523e b727 f83d 79ee ebbd
00000050: 32f1 233e 6422 323e 7ea0 1dbe 2fec dcbc
00000060: 229d 033e 70b6 21bd 0278 163d 8fb0 2bbe
00000070: 325c de3e bbf1 913e c1f8 c7bc 8823 113c
00000080: db76 933d c35c 7b3e 4218 c3be 0294 e2be
00000090: 0ace 283d 6bc1 0a3d f0ec df3d 17af 8f3d
000000a0: 1ca5 b33d fa8a e5bc 9db6 08bd 6994 cdba
000000b0: f9d2 273d 15b1 e9be c684 f73c 1769 76be
000000c0: 08a9 433d 5644 653d b25b 01be 356c 7dbd
000000d0: fe55 0bba 7774 a1bb 7dcb e0bd 4020 003d
000000e0: 4a47 cc3d 60ce 483e 0eda 8cbe db55 943e
000000f0: f110 4abe a6b8 ce3c 9b08 a0bc 536a a03d
00000100: f53c 2fbc d075 b83d 08bb 633e 9a67 90bd
00000110: b22f 1b3e 0240 5d3e c0d4 79be 4dc9 26be
00000120: 5186 2c3b 3680 70bb 8881 a6bc db1b 35bd
00000130: 88c8 a33e 3e2c 903e 1f9d 0c3e 4bd1 a83d
00000140: b44e 28bd bbff d03e 6f53 dbbe 6bb7 553e
00000150: 071e b63d e1d7 e13d 9aa5 583e 07f2 20be
00000160: 3062 db3c 12f0 bfbe c3f5 e6bd 6314 e9bd
00000170: ef5b ee3d 4bae e43e 6c92 f7be 0a29 f9be
00000180: a856 b1bb 1b87 213d a3dc 853d 7184 a43d
00000190: bcca 15bf 0b06 ac3e 6cfe e4bd f7e5 a33d
000001a0: 8d05 f83d 4189 1f3d 27ab c13e e579 013f
000001b0: 1306 babd f094 afbd c5ed 13bd ffdc d8bc
000001c0: 93a2 1d3f 9f47 b23e a3e3 38bd d08c bdbd
000001d0: acf1 2a3e 85bc 9bbe 5230 5d3e 7fd7 87be
000001e0: 0b25 bcbd b033 9dbc 8854 e43c 38fa d93e
000001f0: a7ab 94bd 460f f1be 6caf 013e db78 8ebb
00000200: 5315 b6bc 64c7 813d 21a8 29bf 36af 763e
00000210: 1dfe 3d3e 94c4 bebd 8d48 b63c 839d 20be
00000220: 35c0 c13e 3e28 42be 1536 7c3c a670 3dbd
00000230: 0453 36be 0eea 3fbe 3cdd 60be d67e d1bc
00000240: c256 dc3d b17a 05be 567e 823b 20d7 e6bd
00000250: 5eb1 4dbe b6b1 34be a819 0dbd 2f84 a3bb
00000260: 652a 713d 7e29 3dbd 99bd a5be e768 9cbe
00000270: a197 06be 56ad c33d 444f 49bb 920d 66be
00000280: 3655 413f b31d 253e 4889 f03c 0e11 983d
00000290: 74f3 be3d 2a36 2fbe a8de 1cbe b7df 893e
000002a0: 75f2 0bbd c7e9 bfbc a9c0 63bd 0b26 12bd
000002b0: 70da 8a3c f28e 9fbe e2d5 12be 0813 683d
000002c0: fa37 a3bd a99b 463e 26da e63d 723b 1fbe
000002d0: 738b ba3c 8b56 87bd 9fc3 1bbe 9513 a43e
000002e0: bad3 d0be a393 22be 9812 84bd 6d4f 863c
000002f0: fd02 7b3d 01e7 a23e 1c8b 8bbf a565 933d
00000300: 9fe6 243e f328 f4bd d1a2 36bc 8e2f aa3d
00000310: 0844 203c b778 d1be 302e 1ebd ac58 9c3d
00000320: 8aa5 223e 1de1 1ebe 9499 603e fac1 423c
00000330: da5c e93c 23c9 7fbc 852d f0bd a13a 69bd
00000340: fd75 3fbe 6838 cbbb dae3 11be 396a 9a3d
00000350: d151 b33d 82e9 abbe b796 253e 78d4 8b3e
00000360: 3954 05be ceb0 d1bd d3f1 623d 844b b8be
00000370: 6bf8 fdbe f4a2 cabc 76c6 33be e3a5 cf3c
00000380: cfa4 1ebd eebd d8bd 8ff5 1ebf a5e7 14be
00000390: 59e5 5e3d df83 f03d e1b5 893d b267 913e
000003a0: caa9 113f 35e3 05bf a2aa 033e e7f7 0b3e
000003b0: 0e1c 89bd 27bc 4f3d 2675 483f 3c06 e8bd
000003c0: 66b1 03be d033 d1bd a9b7 0abe 1904 9fbd
000003d0: 92a9 a1be c65d c33e 4898 b3bc 9db6 98bd
000003e0: 7eb5 62bd e615 34be 3160 603f 588d 2e3e
000003f0: 0823 51bb b541 163b ad35 5b3c 43bf d83e
-0.019443575 -0.012312878 -0.0051465738 -0.2976581 0.3281036 -0.08553909 -0.17910983 -0.09945245
-0.11425425 -0.054648343 -0.14571846 0.37946326 0.057351228 -0.09387306 -0.12809943 0.12425968
-0.33581427 0.20530649 0.1211695 -0.115200944 0.16009977 0.17395931 -0.15393254 -0.02696809
0.1285291 -0.039480627 0.036735542 -0.1676657 0.43429714 0.28504738 -0.024410607 0.008858569
0.07200404 0.24547105 -0.38104445 -0.44253546 0.04121212 0.033875864 0.10933864 0.070158176
0.087717265 -0.02802037 -0.03337728 -0.0015684488 0.040972684 -0.45642915 0.030214678 -0.24063526
0.047768623 0.055973373 -0.12632635 -0.061870772 -0.0005315243 -0.004927214 -0.10976312 0.031280756
0.09974535 0.19609976 -0.27510113 0.28971753 -0.19733025 0.025234532 -0.019535353 0.0783278
-0.010695686 0.09006846 0.22239316 -0.070510104 0.15154913 0.21606448 -0.24397564 -0.16287728
0.0026325176 -0.0036697513 -0.020325437 -0.04421602 0.3198893 0.28158754 0.13731812 0.082430445
-0.041090682 0.40820107 -0.42837092 0.2087075 0.08892446 0.11027504 0.21156922 -0.15717326
0.026780218 -0.37487847 -0.11277344 -0.113808416 0.11638629 0.44664225 -0.483539 -0.48664123
-0.0054119416 0.039435487 0.06536224 0.08033074 -0.58512473 0.3359836 -0.111813396 0.08002847
0.12110434 0.038949255 0.3782589 0.5057662 -0.0908319 -0.085733294 -0.036115427 -0.026472567
0.61576194 0.34820268 -0.045138966 -0.092553735 0.16693753 -0.30417266 0.21600464 -0.26531598
-0.09186753 -0.019189686 0.027872339 0.42573714 -0.072593026 -0.47081965 0.12664574 -0.004347903
-0.022226965 0.06336859 -0.6627217 0.24090275 0.18553968 -0.09314838 0.022251392 -0.15685086
0.37841955 -0.18960664 0.015393754 -0.046250008 -0.17805105 -0.18741629 -0.21959394 -0.025573175
0.10758735 -0.13035084 0.0039823456 -0.112715006 -0.20087191 -0.17645916 -0.034448296 -0.0049901227
0.05887832 -0.04618215 -0.32371214 -0.30548784 -0.1314378 0.095545456 -0.0030717412 -0.22466114
0.75520647 0.1612461 0.029362336 0.07425128 0.09323779 -0.17110506 -0.15319312 0.26928493
-0.034166772 -0.023426903 -0.055603657 -0.03568081 0.016949862 -0.31163746 -0.14339402 0.056658775
-0.07969661 0.19395317 0.11272077 -0.1555002 0.022771573 -0.06608304 -0.15211342 0.3204619
-0.40786535 -0.15876631 -0.06448859 0.016395295 0.061282147 0.31816867 -1.0901828 0.071971215
0.161036 -0.11921873 -0.011147217 0.083098516 0.009781845 -0.4091241 -0.038618267 0.076341
0.1588346 -0.15515561 0.21933585 0.011887068 0.028486658 -0.01561192 -0.11727432 -0.05694068
-0.18697353 -0.0062017925 -0.14247075 0.075397916 0.087558396 -0.3357659 0.16170774 0.27310538
-0.1302041 -0.10238801 0.055406403 -0.35995114 -0.4960359 -0.024735905 -0.17556176 0.025347656
-0.038731392 -0.10583101 -0.6209344 -0.1454149 0.05441794 0.117439024 0.06724144 0.28399426
0.568997 -0.52299815 0.1285806 0.13668786 -0.06694804 0.050716545 0.78303754 -0.11329314
-0.12860641 -0.102149606 -0.13546623 -0.077644534 -0.31574684 0.3815748 -0.0219232 -0.07456706
-0.055348866 -0.17586479 0.87646776 0.17046106 -0.003191175 0.0022927348 0.0133794965 0.4233342
