training program/model_LSTM.tflite (tflite, 56104 bytes, 16 tensors)

sequential/dense_1/BiasAdd/ReadVariableOp f4 [28]
000000 79 76 8d bd e2 1e 90 3d 98 df e6 3d 9f da fb bd
       -0.069073625 0.070371404 0.11273116 -0.12297558
000010 3e ad ed bd 02 a8 36 be 6c 4c e9 3d 5a c1 63 3e
       -0.11605309 -0.17837527 0.113915294 0.22241727
000020 6e 27 e0 bd 23 87 1c be 43 32 98 3d cb a8 4f 3d
       -0.109450206 -0.15285926 0.07431462 0.050698083
000030 c0 a3 c5 bd c4 10 45 3d bc 46 a2 3d 7e ed 20 3e
       -0.096503735 0.048111692 0.07923648 0.15715596
000040 ec d5 27 3e 93 46 07 be db b8 01 3d 48 29 28 3c
       0.16390198 -0.13210516 0.031670433 0.0102637485
000050 75 1d 6e be ef fd a5 3a dc 22 ca bd 93 e4 ec 3b
       -0.23253424 0.0012664179 -0.0986993 0.0072293966
000060 fc 52 84 bb a6 a4 09 3e ac 14 ab bd 14 aa d7 3a
       -0.004038213 0.13441715 -0.08353552 0.0016453885

sequential/dense/BiasAdd/ReadVariableOp f4 [32]
000000 c9 11 41 3c 64 8d 7e 3d 94 05 22 be f3 52 0a 3e
       0.0117840255 0.06214656 -0.1582244 0.13508205
000010 21 61 3a 3d 95 e6 e9 3c 22 c5 3b 3e dd 9f 4d 3e
       0.045502786 0.028552333 0.18336919 0.20080514
000020 ab 8a 6f 3e 80 ef 7b 3d c3 83 1a 3e 5a 11 fb 3d
       0.23392741 0.061507702 0.15089326 0.12259169
000030 ce af 7d 3e aa 65 80 3c dd a7 40 3e ac 88 8e bc
       0.24774095 0.015673477 0.18814035 -0.017399155
000040 2f 56 98 3d a4 bd a5 3d b7 ff 0e 3e 32 a2 64 3e
       0.07438313 0.08092812 0.13964735 0.22327498
000050 53 4f 07 3d ac 99 e4 3d 1e 33 b1 3d c3 37 12 3e
       0.033034634 0.11162123 0.08652328 0.14279084
000060 91 11 a8 bc 0d 45 ba 3d 2d 97 1d 3e 88 24 60 3d
       -0.020516189 0.09095202 0.153897 0.05472234
000070 8d 80 87 3c 8a cb da 3d 41 5c 8a 3e ee dc 15 3e
       0.01654079 0.10683353 0.2702351 0.14635059

arith.constant f4 [48, 48]
000000 32 03 03 3e a9 2a 5b 3e 56 4e 98 be 37 13 5c bd
       0.12794188 0.21402992 -0.29747266 -0.053729262
000010 34 5f 52 be a4 98 27 3e d5 7d f6 3d 40 3e 9a 3e
       -0.2054413 0.16366822 0.12035719 0.30125618
000020 82 36 59 bd 9f f3 3f be 57 32 5b be 80 50 21 be
       -0.0530305 -0.18745278 -0.21405922 -0.15753365
000030 f1 af 50 be ad 86 21 be ca 91 ed be a1 cc 8e 3e
       -0.20379616 -0.15774031 -0.4640029 0.27890494
000040 c9 ac 11 3e 87 fa 1f be 7c 2a 52 3d 5e 78 1e 3e
       0.14226069 -0.15622912 0.051310048 0.15475604
000050 f2 9e 0e 3d f8 b8 b2 3e 65 31 7f 3e 1b 5b 85 bd
       0.03481955 0.34906745 0.24921186 -0.065115176
000060 f2 87 18 bc 22 61 ab bd a2 9a 85 be 26 4d 28 3e
       -0.009309756 -0.08368136 -0.26094538 0.1643568
000070 b4 22 d8 bd 12 8c e5 bd 92 0d aa 3e 12 7b b5 3d
       -0.10553494 -0.11208357 0.33213478 0.088613644
000080 f5 a8 e2 3c 90 a4 9b 3c 74 eb 83 3e b3 17 4f be
       0.027668456 0.018999368 0.25765574 -0.20223884
000090 78 6f a5 3e ad 3d ef 3d b5 12 91 bd 0c 74 a5 3d
       0.32311606 0.116816856 -0.07083646 0.08078775
0000a0 3b 86 23 be aa d2 4c 3e 4e 75 64 bc 5c d7 e1 be
       -0.15969174 0.20002237 -0.013943983 -0.4410962
0000b0 91 0a 65 3c ed ba 00 be cf 56 a6 bd ac 99 9b 3e
       0.01397957 -0.12571307 -0.08122026 0.3039068
0000c0 59 3e 29 be 60 03 70 3e e5 e4 cc be bd fc 16 bd
       -0.1652769 0.23438787 -0.40018383 -0.036862124
0000d0 2b 2c d3 3c cf f0 ae 3e 71 91 f9 bd 78 f6 c5 3d
       0.025777897 0.34168097 -0.12185944 0.09666151
0000e0 0f e8 bd 3d 76 df 5e be 74 f6 97 be 16 68 17 be
       0.09272777 -0.21764931 -0.29680216 -0.147858
0000f0 94 9f f1 bc b1 11 86 bd 44 ca a6 3e ec a3 be 3c
       -0.029495038 -0.06546343 0.3257619 0.023271523
000100 d4 55 6d 3d e2 22 f9 3d 17 db 85 3d 9d 80 ba 3e
       0.05794318 0.121648565 0.06535929 0.3642625
000110 57 50 d8 3d 94 40 cc 3e 6d 02 7b 3d 1a a4 44 be
       0.105621986 0.3989302 0.06128161 -0.19203225
000120 c9 41 8e 3e 84 45 86 bc 9a d8 10 be 25 99 65 3e
       0.27784565 -0.01639057 -0.14145127 0.22421701
000130 71 c3 7d 3d a9 d0 41 3e f3 86 86 3e c6 56 1a 3d
       0.061953966 0.18927254 0.26274833 0.03768041
000140 aa 56 0b 3e 1d 00 3d 3e 3b 84 67 be d9 cb 75 be
       0.13607278 0.18457074 -0.22609036 -0.24003543
000150 e6 18 c0 bc 63 61 bc be fc ed bf be 70 41 8c bd
       -0.023449373 -0.3679305 -0.37486255 -0.06848419
000160 32 4d 74 be 48 f6 cd bd 7e 85 73 be f7 a4 a0 be
       -0.23857573 -0.1005674 -0.23781392 -0.31375858
000170 28 99 aa be 13 d2 59 be 38 5f 1b bb 4f 00 7b 3e
       -0.33319974 -0.21271543 -0.0023707878 0.24511836
000180 85 98 a9 bd 83 95 20 3f c8 df e0 be 62 1a 1e 3e
       -0.08281044 0.62728137 -0.43920732 0.15439752
000190 5f 3a 8b be c4 d5 a2 3d 8f 41 c5 3d d6 09 ce be
       -0.2719297 0.07950929 0.09631645 -0.4024188
0001a0 7b ba e0 bd 2a ff 1b 3e 03 bc 0e be fb b4 0d bf
       -0.10973068 0.15234056 -0.13938908 -0.5535428
0001b0 ab b8 47 bd 0c 5f d1 bd a2 c3 fc 3e 88 d5 6d 3e
       -0.048760097 -0.10223207 0.49368006 0.23225987
0001c0 00 94 1f 3e 0e 58 51 3d 76 73 ee bd e6 7c b7 3e
       0.15583801 0.051109366 -0.11643116 0.35837477
0001d0 1a fe 1a be 4d 35 4c 3d d3 a8 a5 3e f1 7d ad bd
       -0.15135995 0.04985552 0.32355365 -0.08471287
0001e0 bb 9e f6 3e 6c 17 b8 be 9b 42 b7 3d 4c b3 17 be
       0.48167977 -0.3595537 0.08948251 -0.1481449
0001f0 15 d4 02 3f 62 e2 ff 3d 35 7f bd 3e 16 f5 84 3e
       0.5110486 0.12494351 0.37011114 0.25968236
000200 1b b9 5a 3b 08 c7 b8 3e 0c 9e 05 bf 1c bf cc bc
       0.0033374492 0.3608935 -0.52194285 -0.024993472
000210 5d e9 6f bc 84 f1 b4 be 2a bb 82 3e 88 c9 57 3c
       -0.0146430405 -0.35340512 0.2553342 0.013170607
000220 4f f8 b5 be 8f b9 a9 3d ab a7 3a be 9e 7e e7 3d
       -0.35541007 0.082873456 -0.18228023 0.11303447
000230 1a c6 00 bf 24 14 9c be 21 51 50 bd 9d fc 55 3d
       -0.5030228 -0.30484116 -0.05085862 0.052242864
000240 dd 3f 33 bd 3d a9 94 3e 3f 69 6c 3c 0c f0 50 3d
       -0.043762077 0.2903537 0.0144293895 0.051010177
000250 fe 32 cb be 71 71 2a 3e 3a 29 f5 3d 29 17 95 be
       -0.3968734 0.16644837 0.11970754 -0.29119232
000260 ed 08 14 be 64 68 a9 be 5a 39 82 be 1d 48 19 be
       -0.1445653 -0.33087456 -0.2543438 -0.14968915
000270 50 8f 94 bd 36 90 ca 3d ed 72 03 3c 64 49 b7 3d
       -0.07253897 0.09890787 0.008023006 0.08949545
000280 fb 6c e5 3e 6a cd 28 3d 36 22 81 3e 06 17 b5 3e
       0.44809708 0.041211523 0.25221413 0.35369128
000290 9a 37 5f 3d b4 d0 4a 3e a4 b5 d8 3d 13 21 77 3e
       0.054496385 0.19806176 0.1058152 0.2413371
0002a0 85 60 1b 3e 52 f3 73 3d 84 48 8e 3e 1a 51 83 3c
       0.15173538 0.05955822 0.277897 0.016029883
0002b0 14 c2 08 bd 93 87 43 bd 57 3b d3 3d 6a e4 5c 3e
       -0.033388212 -0.047736716 0.103140526 0.21571508
0002c0 5f 62 7c be e2 64 6a 3d 97 d5 59 3d 2a 6a 44 be
       -0.246469 0.057225116 0.05318221 -0.19181123
0002d0 a7 bc 6d 3e e4 19 98 be c3 6f 98 be ea 03 01 bf
       0.23216496 -0.29707253 -0.29772767 -0.503966
0002e0 a4 3b 5c be 75 dd 33 3e 72 9d a6 bc 7a ee 24 be
       -0.21507126 0.17564948 -0.020338748 -0.16106597
0002f0 7a 2a 8d 3d e5 5d fa bd 63 97 54 3d af 9c 7a bd
       0.068928674 -0.1222494 0.051902186 -0.06118458
000300 77 74 6b 3d e7 03 ac 3c 30 3b 3e be 7e 6b 10 be
       0.057484116 0.020997955 -0.18577266 -0.14103505
000310 93 c1 b8 3c e6 4c d0 3e c7 5f d4 bd 6b c3 01 be
       0.02255324 0.4068367 -0.103698306 -0.12672202
000320 0e 82 34 3e d6 7b 43 3e 34 87 0f bf 00 d9 34 be
       0.17627737 0.19090208 -0.5606568 -0.17660904
000330 dd e9 7a be 76 29 92 be 9f 44 95 3d e5 6e 56 3e
       -0.24503274 -0.28547257 0.07288479 0.2094074
000340 5a de f5 3e 19 30 c2 3d 5f 5a 25 be 32 32 db 3e
       0.48021203 0.0948183 -0.16147755 0.42811733
000350 50 d8 c6 3d d8 32 32 3e 5a cc 51 be 04 f2 1b be
       0.09709227 0.17402208 -0.2048811 -0.1522904
000360 fe 5e cd 3e a2 0b 9c be 5a b0 52 3d 25 ad 55 3e
       0.40111536 -0.30477625 0.051437713 0.2086683
000370 f2 5f 27 be 20 cb 03 3e 11 24 68 3e 6d d3 50 bd
       -0.16345194 0.12870455 0.22670008 -0.05098288
000380 c6 88 71 3e 0c ed ed 3e 7b 04 82 be 70 ba ec bc
       0.23587331 0.46469915 -0.25394043 -0.028897494
000390 03 67 40 3d 44 a3 9e 3d 22 6f b3 be be ca ca bd
       0.04697324 0.07745984 -0.35045725 -0.09901951
0003a0 49 07 cb be 9c 87 fc 3c be 29 ac 3d 14 1a 90 be
       -0.39653996 0.030826382 0.08406399 -0.28144896
0003b0 81 8f 26 bd d9 18 0f bd 7f 38 2b be a8 de ce 3e
       -0.0406642 -0.034935806 -0.1672077 0.40404248
0003c0 d4 8b 84 bd 58 b2 50 3e eb 09 e5 be 23 85 dc 3e
       -0.064719826 0.20380533 -0.4473413 0.43070325
0003d0 f8 2c 57 3e 05 dd 89 3e d7 9a 88 bd c3 cc 3c 3e
       0.21013248 0.26926437 -0.06670158 0.18437485
0003e0 c5 a5 c8 3d 7b 07 82 3e da 4c 78 be 69 2e 97 3d
       0.09797243 0.25396332 -0.24248067 0.07381899
0003f0 59 76 86 be 15 d1 a3 be 1e 5e 92 3d c8 1a ee 3b
       -0.26262167 -0.31995454 0.07146858 0.007266376

arith.constant1 f4 [48, 48]
000000 94 18 c9 3d 5a 54 b5 bd 90 48 ff 3c 34 11 52 3e
       0.09819141 -0.088539794 0.03116253 0.20514375
000010 02 8d d3 3d 71 46 b4 3d 99 fb b2 3c 6a fe b1 bc
       0.103296295 0.08802498 0.021848487 -0.02172776
000020 37 83 8c be f4 f8 f6 b9 f0 dc 53 bd 37 99 73 3e
       -0.2744386 -0.0004710626 -0.051724374 0.23788916
000030 e0 a3 a3 be 4d 26 71 bd 33 4b 9f 3d c6 a3 99 bd
       -0.31960964 -0.058874417 0.07778015 -0.075019404
000040 92 12 75 bd 72 52 6b be 36 a9 14 3e 0a a4 11 bd
       -0.059832163 -0.22980669 0.14517674 -0.03555683
000050 47 57 03 3d 1f fe 5f bd c0 90 a5 bd f9 85 49 bd
       0.032065656 -0.054685708 -0.080842495 -0.049200032
000060 a0 07 2e 3d 0c 4f 7a 3d 8b a5 8a be 9a 33 82 bd
       0.04248774 0.06111054 -0.27079424 -0.063574985
000070 09 3d 96 bd 1f fd fb 3c 36 e6 ff bd 4f 23 4c bd
       -0.0733586 0.030760346 -0.12495081 -0.04983836
000080 18 54 30 be e3 0d af 3d b3 e2 5a be 43 b2 dd 3d
       -0.17219579 0.085475706 -0.21375541 0.10825016
000090 88 cd 9a 3d 1f 53 7f 3d 83 eb 37 bd 75 ff fb bd
       0.07558733 0.06233513 -0.044902336 -0.12304584
0000a0 99 4b a8 bc 00 e0 86 bd ad 46 bd bd 20 49 85 3d
       -0.02054386 -0.06585693 -0.09241996 0.06508088
0000b0 12 99 38 3e 4d 55 9b 3d e8 1a 0f 3e 5c b4 e9 bc
       0.18027142 0.07584629 0.13975108 -0.028528385
0000c0 62 e8 18 be e7 c1 98 3d 13 2e 12 be 88 7a 18 be
       -0.14932397 0.07458859 -0.14275388 -0.14890492
0000d0 12 87 9c 3c e4 4b ea 3c c5 3f 0a bd fb 5f de 3c
       0.019107375 0.02860064 -0.03375222 0.027145376
0000e0 dc 34 f0 bd c6 31 1e be 47 3b ed bd 6c ac 6a bd
       -0.11728832 -0.15448675 -0.11583572 -0.05729334
0000f0 89 ae f1 3b f6 5e 01 bd d0 9e 3d 3e 98 aa c5 bd
       0.0073755425 -0.031584702 0.18517613 -0.09651679
000100 43 a2 91 3d 18 91 8b 3e fd 5a 4b 3d f9 e6 0c bd
       0.07111027 0.27259135 0.04964732 -0.03439996
000110 b7 79 21 be ff eb 49 bd 6b 19 11 3d d7 ce 54 3e
       -0.15769087 -0.04929733 0.03542463 0.20782028
000120 0a 82 b9 3d 5f 9b 2d bd 39 3b b8 bc 90 f0 4c 3e
       0.09058006 -0.0423845 -0.022489177 0.20013642
000130 7f 57 2b bd 90 27 df bd f3 8b 41 3d 31 77 ad 3c
       -0.04183149 -0.10896218 0.047252607 0.021174999
000140 ed 92 74 be 91 a6 0b 3e 52 2c 16 3c f6 eb 1c be
       -0.23884173 0.13637759 0.00916584 -0.15324387
000150 da 93 49 3d b3 95 8e bd 15 a3 49 be 27 a9 d8 3d
       0.049213268 -0.069621466 -0.19691117 0.10579138
000160 4d c4 0c 3d 08 50 d4 3d e5 9b 6c be fb f2 71 be
       0.034366895 0.10366827 -0.23106344 -0.23627846
000170 d6 33 ec 3d dc f2 66 bd ef 66 13 3e 28 34 29 be
       0.115333244 -0.056383952 0.14394735 -0.16523802
000180 9e 10 82 bc bf 57 ac 3d db 64 1d 3e d3 2d 4a be
       -0.015877064 0.08415174 0.15370505 -0.19744043
000190 e4 88 99 3d 0a 42 34 bd 5f 24 f0 bd ae a7 ef 3d
       0.07496813 -0.044008292 -0.11725687 0.11701904
0001a0 69 13 a1 3e 98 03 1e 3d 94 cc bc 3d 2c 21 5b 3d
       0.3146012 0.038577646 0.09218708 0.053498432
0001b0 51 16 9d bc c4 64 2c 3d 5b 95 06 be a4 ed 38 be
       -0.01917568 0.042088285 -0.13142912 -0.18059403
0001c0 8c 88 8d 3d ee dd 46 bd 1b 33 41 3e 40 28 51 3d
       0.0691081 -0.048551492 0.18867151 0.051063776
0001d0 9e 96 83 be 5c 50 7d 3d 87 24 a9 3e cf bf 59 3e
       -0.2570085 0.061844215 0.3303568 0.21264575
0001e0 55 6b ac bc c0 80 3c 3d 0e 18 39 be 00 71 72 bd
       -0.021047274 0.046021223 -0.18075582 -0.059189796
0001f0 68 2c cf bd 28 8f 01 be 0a ab f6 ba 4e 6d bd 3d
       -0.10115892 -0.12652266 -0.0018819284 0.09249364
000200 e7 2a 02 be d8 ab e9 bd a3 ca 38 be 5e 85 26 bd
       -0.12711678 -0.1140973 -0.1804605 -0.040654533
000210 34 d7 b8 3e 06 d3 0d be 57 91 3a be 23 0e 12 3e
       0.36101687 -0.1385003 -0.18219505 0.14263205
000220 2d b7 ee 3d 64 e4 eb 3d 69 0f b6 be de 08 1a be
       0.11656032 0.115181714 -0.35558632 -0.15042445
000230 80 32 ff bd 82 fd 83 3e 62 24 78 be da 5c 5a be
       -0.12460804 0.2577935 -0.24232629 -0.21324483
000240 96 a2 04 3e f2 03 de bd 90 6c 7f bd 24 5c 19 3e
       0.12952647 -0.10840596 -0.062359393 0.14976555
000250 03 21 e6 bc a9 2a 45 bd 97 0f 03 3d e2 97 3a 3a
       -0.028091913 -0.048136387 0.03199729 0.0007117969
000260 65 41 db bd 05 03 5c bd 3f 8c ae 3d a1 33 43 3e
       -0.107058324 -0.053713817 0.085228436 0.19062664
000270 02 35 fe 3d 99 84 d1 3d 5b 39 1a 3e 84 3b 14 be
       0.12412454 0.10230369 0.15060942 -0.14475828
000280 2a 64 58 3d 3b 1f 03 3e d0 7b ae bd 68 69 21 3e
       0.0528299 0.12804882 -0.08519709 0.15762866
000290 63 9f 92 bd c2 7a 58 bd 66 08 cb bd 9c 81 08 be
       -0.07159307 -0.052851446 -0.09913711 -0.13330692
0002a0 0f d7 1e bd b6 96 10 3d 3a 25 42 be 15 1a b5 bd
       -0.038779315 0.03529998 -0.18959513 -0.088428654
0002b0 e2 2f 87 3d 8b ad 00 3e 78 09 37 bd 35 bf 5c 3d
       0.0660093 0.12566201 -0.044686764 0.053893287
0002c0 cc 44 00 bb 55 90 bf 3d 1d 31 ac 3c 32 fc 0a 3e
       -0.0019572256 0.09353701 0.021019513 0.13572767
0002d0 20 24 9c 3d 97 06 62 bd 97 2c 35 be a9 d9 93 bd
       0.07624078 -0.055182066 -0.17692791 -0.0721925
0002e0 65 1d cf bb b1 0d 3e bd 65 7e d4 3c 37 8a 31 bd
       -0.006320643 -0.046399776 0.025939176 -0.043344703
0002f0 66 11 ac 3e a8 7f 1f be 9e 98 80 bd 55 e5 66 be
       0.33607024 -0.1557604 -0.062791094 -0.2254842
000300 ce af ac 3d b9 17 4c 3d e6 13 73 3d 58 64 01 3e
       0.084319696 0.04982731 0.05934515 0.12635934
000310 82 fa 22 3e 42 d8 11 3d 9a a4 b8 3d 6f a5 af bc
       0.15915874 0.03560663 0.0901577 -0.02144119
000320 de b7 48 3e 39 b8 6d ba 5d f4 cf 3d 35 75 88 3e
       0.1960139 -0.0009068284 0.101540305 0.26651922
000330 97 c8 be 3d 95 dc 96 3d df a2 a0 bc 3c a9 0a bd
       0.09315603 0.073662914 -0.019608913 -0.0338528
000340 c9 2a 21 bd 37 50 41 bd b6 4a 24 be 08 8e 82 3d
       -0.039347444 -0.04719564 -0.16044125 0.063747466
000350 d6 63 ca bc 86 e4 af bb b4 f7 8e 3c 0c 8e dc bc
       -0.024705809 -0.0053678183 0.017452098 -0.026923202
000360 1a db f9 bc 78 88 5c 3d 65 20 a1 bd 67 a5 6c be
       -0.030499984 0.053841084 -0.07867507 -0.23109971
000370 bc f1 cc 3d b3 56 58 3e e2 e5 6f be b7 54 84 3d
       0.10007045 0.21126823 -0.23427537 0.064614706
000380 27 36 b1 3e 55 26 99 bd 3e 4a 0f 3e 48 dc 7f 3e
       0.34611627 -0.074780144 0.13993165 0.24986374
000390 50 77 8a bd 84 38 d2 3d 27 5b c0 3d 6a e5 65 bd
       -0.06761038 0.10264686 0.09392386 -0.05612699
0003a0 b0 15 6b bd 90 a2 bc ba 1c 72 2a 3d e2 12 ee bd
       -0.05739373 -0.0014391709 0.04161273 -0.11624695
0003b0 9d 9a 82 bd 0e 82 a9 bd d8 92 b9 bc 01 21 af bd
       -0.063771464 -0.08276759 -0.022653028 -0.08551217
0003c0 91 df 49 3d 8c 0d 55 bc 2c 3e 8e bd 71 1c 97 3e
       0.049285475 -0.013003718 -0.06945452 0.29513887
0003d0 bd cb 1e 3e cd 7a d8 3d 2a 78 51 3e 0a 93 34 be
       0.15507407 0.105702974 0.20455995 -0.17634216
0003e0 63 01 8e 3c 4c 54 06 bc 06 00 08 be 1e 97 70 3d
       0.017334646 -0.008198809 -0.13281259 0.058737867
0003f0 e4 48 00 3d a0 1f 4b 3d e1 dd cf 3d 6f 93 b4 bc
       0.031319514 0.049590707 0.10149742 -0.022042958

arith.constant2 f4 [48, 48]
000000 25 28 84 bd 69 77 60 be ff a7 d1 bc 4b ec 26 be
       -0.064529695 -0.21920551 -0.025592802 -0.16301076
000010 63 04 c9 bd d7 35 5a bd 45 ea 07 3e 45 68 03 3e
       -0.0981529 -0.053274002 0.1327296 0.12832744
000020 18 0b 68 bd a4 0b df bc d5 80 93 be 94 aa 71 bd
       -0.056651205 -0.02722723 -0.2880923 -0.059000567
000030 1b ec 3c bd 95 cf 14 bd d6 38 5d 3c b8 3e 0f be
       -0.046123605 -0.03633078 0.01350232 -0.13988769
000040 fc 68 32 3e 3e a6 29 be 15 35 2d 3d ac 0d dc 3c
       0.17422861 -0.16567323 0.04228695 0.026861988
000050 9c 42 0f bd 4f c8 65 3e 54 08 f3 bd 8c 5e 5f bd
       -0.034975633 0.22439693 -0.11866823 -0.054533526
000060 6a 2a d9 bd 46 32 f7 bd 19 e1 96 3e 79 59 08 be
       -0.10603793 -0.12070136 0.2946861 -0.13315381
000070 0d 56 01 3e 86 b3 8e be 9e b6 0f 3e 68 b9 e3 bd
       0.12630482 -0.2787134 0.14034507 -0.11119348
000080 de 31 98 be 94 49 75 3c d2 07 65 3d c5 02 11 bc
       -0.29725546 0.014971156 0.05591566 -0.008850758
000090 c4 8f 67 3d 1e 88 b4 3e 40 68 0e be 70 2c 22 3d
       0.05653359 0.352601 -0.13906956 0.03959316
0000a0 1d 2f 16 bd 52 e5 09 bd 43 00 07 3a bb 2a 6c bd
       -0.036666024 -0.033665963 0.00051498803 -0.05765794
0000b0 d1 7c dc bc 25 04 b2 3d 34 68 27 3d 47 98 04 3e
       -0.026914986 0.08692197 0.04087086 0.12948714
0000c0 ed 04 ba 3d 93 6e 7d 3e 9c 67 36 3e aa 64 84 3e
       0.09082971 0.24749212 0.17812961 0.2585805
0000d0 9e 5c be 3d 47 66 1f 3d fd b8 3b 3c 9e 73 f0 bd
       0.09295009 0.0389159 0.011457679 -0.11740802
0000e0 da e3 61 3d 11 3c 10 3d c7 5c 2d be d4 6e b7 bd
       0.055148937 0.035213534 -0.16929923 -0.08956686
0000f0 95 cf 4a 3d fc f8 47 be 13 0a 7c 3e 22 d2 b3 3e
       0.049514372 -0.19528574 0.24613218 0.35121256
000100 c9 b9 39 be 6f 9b 22 3d 4e 35 fb bb 73 55 0c 3e
       -0.18137278 0.039699014 -0.0076662665 0.13704471
000110 7a 52 f6 3d da 4d 88 3e 62 12 13 be 33 10 80 bc
       0.1202745 0.26621896 -0.14362481 -0.015632724
000120 e8 f0 8e 3e ae c2 13 3d c7 31 8c be 86 ab 28 bd
       0.27918172 0.036074333 -0.27381727 -0.041179202
000130 f9 2e af 3d 9d a0 97 3e 2e 37 91 3c 4e 5c dd 3d
       0.08553881 0.29614726 0.017726507 0.10808621
000140 99 1f 2e 3e b4 79 79 bd 9c f5 73 bd ab 9c 1a be
       0.17004241 -0.06090708 -0.059560403 -0.15098827
000150 0d 18 20 3e 4e 1c 18 be a8 a3 49 3e dc 5d 82 be
       0.15634175 -0.14854547 0.19691336 -0.25462234
000160 69 4f ae bd 5c 1b 61 be 3f 5a c9 3d 01 a0 23 3d
       -0.0851124 -0.21983093 0.09831666 0.039947513
000170 df c6 0c be 6b d2 96 3e f5 14 05 3e d0 e6 e4 3d
       -0.13747738 0.2945741 0.12996276 0.111768365
000180 36 c3 4d bd fc d7 98 bd fe 6d d4 bd e6 dc 4b 3e
       -0.050234996 -0.07463071 -0.10372542 0.19908485
000190 92 f2 34 be aa 61 a7 3d 74 5d cf 3d 74 73 91 be
       -0.17670658 0.08172925 0.10125247 -0.28408396
0001a0 e5 7c 4a 3d aa fd 06 3e db e0 6b be 80 35 f8 3b
       0.049435515 0.13182703 -0.23034994 0.007574737
0001b0 cf 44 55 bd cd 27 84 3a d2 08 0c be 92 07 b8 3d
       -0.052067574 0.0010082662 -0.1367524 0.08985819
0001c0 50 ae f1 bc f5 25 49 bd b2 77 f6 bd 19 96 bd 3c
       -0.029502064 -0.049108464 -0.12034549 0.023142861
0001d0 a1 4c 32 3e a5 d8 f7 3c 48 2b f6 bc 1b b0 70 3d
       0.17412044 0.030254671 -0.030049935 0.058761697
0001e0 b3 42 2a bd eb a5 1a 3e 2b 02 05 3e 1d ce 82 bd
       -0.041567516 0.15102355 0.12989108 -0.06386969
0001f0 fd 73 a3 3d 61 d2 a8 3d 77 0e 2c 3e 85 c8 be bd
       0.079811074 0.082432516 0.16802393 -0.0931559
000200 82 77 18 3d f7 ef 89 bd d4 3b 01 3d b6 46 fe 3c
       0.037223347 -0.06735223 0.031551197 0.031039577
000210 9d b4 25 be 18 c9 64 3d a7 26 73 3e 4c 9b 1e be
       -0.1618218 0.05585584 0.23745213 -0.15488929
000220 84 89 ad bd 2d dc 93 bd 46 1c d2 3e 57 ad 9b 3e
       -0.08473495 -0.072197296 0.41037196 0.30405685
000230 59 0b 42 bd c2 4a 81 be ab 9a 25 3e 6e 34 46 3d
       -0.047374103 -0.25252348 0.16172282 0.048389845
000240 32 81 32 3d a2 4e 19 3e 34 bd 00 3e 2e eb 98 3d
       0.04358024 0.14971402 0.12572175 0.07466732
000250 05 5d 88 bd c1 25 e8 3d e6 bd d0 3d af fa b3 bc
       -0.06658367 0.11335326 0.1019247 -0.021970121
000260 20 46 8e bd 3e 4e 1f bd 83 55 af bd 7b 5d 67 3d
       -0.06946969 -0.038892977 -0.08561232 0.056485634
000270 15 04 da 3d 47 e9 ed bc 09 61 c9 bd c5 73 a7 bd
       0.1064531 -0.0290419 -0.09832961 -0.08176378
000280 be 94 46 3e 22 23 d4 bc 75 f2 27 be a9 2d 03 3f
       0.19392678 -0.025895659 -0.16401084 0.51241547
000290 28 ed 10 bd 96 83 9b 3d b0 fc e9 3c 13 ec 80 3d
       -0.03538242 0.075934574 0.028562874 0.062950276
0002a0 1f 95 4f bb b5 1c 61 3d 2d 67 0b 3e aa 33 24 be
       -0.0031674576 0.054959018 0.13613577 -0.16035333
0002b0 fd 91 d2 be c1 39 0a 3e a1 6c 1b 3d 23 00 b8 3d
       -0.41127005 0.13498594 0.037945393 0.08984401
0002c0 cf 69 fa bd 5c b8 50 3d 69 06 29 3e cf 08 09 3c
       -0.12227213 0.05095707 0.16506352 0.008363917
0002d0 59 15 b4 3d 88 fb 20 be 3d 18 51 bd 27 6d 7e be
       0.08793134 -0.15720952 -0.051048506 -0.24846326
0002e0 7b e0 0f be 9a fa 5f 3c ad b0 fd bd a8 8e fb bd
       -0.14050476 0.013670588 -0.12387214 -0.12283069
0002f0 15 39 10 be 32 8f b2 3d 57 f7 aa bd 92 d1 7f bd
       -0.14084275 0.087187186 -0.083479576 -0.06245572
000300 7e c6 b5 bd bb b9 31 3e 90 44 05 bd 52 e8 7b bd
       -0.0887575 0.17356007 -0.03253609 -0.061500855
000310 bd 26 04 bd 0e 8c 98 3b 3a 8e 01 3e 25 ab 85 be
       -0.032263506 0.0046553677 0.12651911 -0.26107135
000320 9c 43 0d 3e e9 15 77 be b1 12 0d bf 9d c8 5c 3e
       0.13795322 -0.24129452 -0.55106646 0.21560903
000330 ae 26 da bc 4b e9 54 3e 13 dd c7 3e 01 81 34 bd
       -0.026629772 0.20792119 0.39035854 -0.04406834
000340 7c 28 92 3e f3 8d de ba 02 b7 83 be be c4 f7 3e
       0.28546512 -0.001697956 -0.2572556 0.4839229
000350 cf 58 f8 bd ec 8b d3 bd 0c 96 b1 bd cf cb 25 3d
       -0.12126314 -0.10329422 -0.08671197 0.04047757
000360 2c 08 49 3d de e7 ac bd 44 d8 a3 3e 3d 2a 36 be
       0.04908006 -0.08442663 0.32000935 -0.1778955
000370 98 18 e5 3e 03 7d 02 3e dc 12 8a bd 7b 4a 81 3d
       0.44745326 0.12743 -0.067418784 0.06313034
000380 59 33 df 3e 08 c3 be 3e 89 3e 9c be 24 e1 2c 3c
       0.43593863 0.37258172 -0.3051646 0.010551725
000390 eb 01 75 be c6 7a 68 be a8 a5 52 bd e4 bd 06 be
       -0.23926513 -0.22703084 -0.051427513 -0.13158375
0003a0 91 03 d1 bd 79 68 72 bb a4 43 90 3c c1 87 d3 bd
       -0.10205758 -0.003698854 0.017610379 -0.103286274
0003b0 38 76 c7 bc 5a 6f 63 be 72 c9 a9 3e b2 0e 0e 3e
       -0.024348363 -0.22210446 0.33161503 0.13872793
0003c0 48 5d a7 3d 9f 9a c9 3b 60 f0 2e bd f3 59 da 3e
       0.08172089 0.0061524655 -0.04270971 0.4264675
0003d0 6b 19 83 3e ce b9 9a 3d 3c fc 99 3e 4e 0d 71 bc
       0.2560533 0.07554971 0.30075252 -0.014712645
0003e0 89 9e 6a 3e 89 21 cd 3d d6 f2 7d be 29 01 bd bc
       0.22912039 0.10016162 -0.24799666 -0.023071842
0003f0 3e fb fa bb 6e c9 04 bd e5 f9 21 3d 4a bf dc 3c
       -0.007659345 -0.03241866 0.03954496 0.026946682

arith.constant3 f4 [48, 48]
000000 6f 46 8d 3e 95 d2 18 3e ce 22 8c be 44 53 2c be
       0.275928 0.1492408 -0.27370304 -0.16828638
000010 29 9e 2c be 30 1d ee 3d 8d a6 9c 3e 44 13 2d 3d
       -0.16857208 0.11626661 0.30595818 0.0422547
000020 01 cb 49 3d 8c 6b cd 3d 55 f0 96 be 7b ff ba bd
       0.049265865 0.100302786 -0.29480234 -0.0913076
000030 0a 14 79 3d d6 66 c8 be d6 92 2e 3d 73 b9 96 3e
       0.060810126 -0.39140958 0.042620502 0.29438362
000040 a4 56 98 3e 69 4e 6b 3e a0 de 19 3d 7b d5 3b 3e
       0.29753602 0.2297913 0.037565827 0.18343155
000050 4f 03 c2 3d fd 31 4c 3e 5a 08 70 bd 64 c9 12 be
       0.09473287 0.19940944 -0.058601715 -0.14334637
000060 11 08 85 3e e9 4c 9a be c3 a3 95 bd e3 a8 e2 3e
       0.25982717 -0.30136803 -0.07306626 0.44269475
000070 9b b7 43 be f0 6b cb ba 18 c7 5d 3e ca 67 17 be
       -0.19113009 -0.0015519839 0.2165798 -0.14785686
000080 76 32 82 bd 5d 39 4a 3e 3e d7 c2 3d 40 13 f4 3d
       -0.06357281 0.19748445 0.095137104 0.11917734
000090 93 23 00 3e 6f ad 5c 3e d5 22 0e 3d c5 ef cc be
       0.1251357 0.21550535 0.034701187 -0.4002668
0000a0 34 72 bc be 9e aa fc 3c 44 60 04 3e 52 5a 9a bd
       -0.3680588 0.030843075 0.12927347 -0.075367585
0000b0 f3 95 3c bd 90 2f 4c bc b9 8c 99 3d 9b 9a dc 3e
       -0.04604144 -0.012462512 0.07497544 0.43086705
0000c0 fe 6e 8d bc 34 06 4e 3e 13 dc 2f be 98 30 0c 3d
       -0.01726484 0.20119554 -0.17173795 0.03422603
0000d0 63 48 0d be 66 dd 1a 3e a0 d3 85 3e 74 3c 05 3e
       -0.13797145 0.1512352 0.2613802 0.13011342
0000e0 7e 63 05 bd ba ee a7 3d 8e 33 1c 3e ad 1b 86 bd
       -0.032565586 0.0819983 0.15254042 -0.065482475
0000f0 8b 1f 34 bd ef 1f 22 3d f1 65 15 bd 29 34 03 3e
       -0.043975394 0.039581235 -0.036474172 0.12812866
000100 a4 76 26 3e 7d 06 81 3d 6f d3 d3 bc 1d 01 9c bd
       0.16256195 0.06300066 -0.025857655 -0.076174
000110 30 a1 74 3c e1 7b b5 3e a9 7a 3d 3e bd d6 7e be
       0.014931008 0.35446075 0.18503822 -0.24886604
000120 b4 f9 0e 3d 60 93 54 bc d0 43 d7 3d 34 0d 86 3e
       0.034906104 -0.01297459 0.10510981 0.26181948
000130 23 a4 04 be 63 48 8c 3e 6d 3b ac 3e 8a c7 f0 bd
       -0.12953238 0.27398977 0.33639088 -0.11756809
000140 94 7e 83 bc a8 f9 04 be 33 f8 5b bd d2 bc 85 be
       -0.016051568 -0.12985861 -0.053703498 -0.2612062
000150 3b db 54 3d a3 b6 8c 3d 12 f8 4f 3e cf f7 07 be
       0.051966887 0.06870773 0.20309475 -0.13278125
000160 db 29 d4 bc ba 29 c9 3c 7b 37 10 be d2 23 f2 bd
       -0.025898864 0.02455603 -0.14083664 -0.118232384
000170 78 08 b8 bd c2 3b 07 be 67 d6 54 be f4 04 3f bd
       -0.0898599 -0.1320639 -0.20784913 -0.046635583
000180 df 3e 97 3e ce dc 88 3e 73 1e ac be 80 75 03 bd
       0.29540154 0.2673096 -0.3361698 -0.03209448
000190 ff 88 f6 bd 8b 66 05 3e ac 04 ef 3d 95 7a fb 3c
       -0.12037849 0.13027398 0.11670813 0.0306981
0001a0 0d 71 f6 3d 28 de 84 3e 76 d9 ea bd 09 e4 ea be
       0.120332815 0.25950742 -0.11467259 -0.45877102
0001b0 f9 9d 5c be bf 51 03 bf 70 c8 24 3d c3 e7 8e 3e
       -0.21544637 -0.5129661 0.040230215 0.27911195
0001c0 80 0a 80 3e b9 d0 86 3d 4e 94 0c be c5 be c4 3e
       0.2500801 0.065827794 -0.13728449 0.38426796
0001d0 d4 37 bc bc 10 2d d9 3d 79 ee 68 bc 45 56 73 be
       -0.02297584 0.10604298 -0.014217013 -0.23763378
0001e0 30 3a e1 3e 75 66 ae be d3 5b 4a 3e 61 92 ee 3d
       0.43989706 -0.34062544 0.1976159 0.11649013
0001f0 cb 40 d8 3e b8 dd 91 3c 3e e6 8f 3e cd 32 4d bc
       0.42236933 0.017805919 0.28105348 -0.012524319
000200 53 00 be bd 92 5f ca 3e 96 ae 0b be ad c1 88 bd
       -0.092774056 0.3952604 -0.13640818 -0.06677566
000210 33 1c fc 3d 2d 72 0b bf 09 4f 17 3e 6f e3 00 bc
       0.12310066 -0.54471093 0.14776243 -0.007866724
000220 da 69 32 be f8 b5 11 3e 41 9f 0f bc 2a c1 8e 3d
       -0.17423192 0.14229572 -0.008765996 0.06970437
000230 3d 30 86 bd 68 98 24 3e 59 0f 48 bd 5b 9b a8 3e
       -0.065521695 0.16073763 -0.04884276 0.32931027
000240 65 cc 63 3e ea be 9f 3e ba 2d ac 3d 7e 23 03 3e
       0.22245939 0.31200343 0.08407159 0.12806508
000250 93 28 7f be 55 17 2b 3d 08 2c d9 3d 8c 05 08 be
       -0.24917822 0.041770298 0.106041014 -0.13283366
000260 91 a5 72 3e 08 3b 1a bd 3c 86 4a be a2 d4 5a be
       0.23695971 -0.037653953 -0.19777769 -0.21370175
000270 49 ed 03 3e d8 a1 e7 bc 7c 19 5b bc d7 3c 89 3e
       0.12883486 -0.028275415 -0.013372775 0.2680423
000280 df df ae 3e 23 eb 1a 3e a2 cd f0 3e 60 10 2f 3e
       0.34155175 0.1512876 0.47031885 0.1709609
000290 25 3e e9 3d 7e 87 d1 3d d5 9d 89 3d 16 4e d0 3c
       0.11388806 0.10230921 0.06719557 0.02542786
0002a0 8f 6d 05 be de 0e 78 3b 66 71 9d 3d 95 de 0e 3e
       -0.13030075 0.0037850658 0.07687645 0.13952096
0002b0 c5 1c 22 3d 75 ca 56 3e 6d 0b 72 3e 03 7f 44 3e
       0.039578218 0.20975669 0.23637171 0.19189076
0002c0 2c 4b 9a bc 6c 31 46 be 41 38 21 bd d7 ea 1c be
       -0.018834673 -0.1935479 -0.03936029 -0.1532396
0002d0 9f ba b3 bd 6b 01 02 be 5a ff 13 3d c0 bb 7a be
       -0.087758295 -0.12695853 0.036132194 -0.24485683
0002e0 72 07 1e bd c4 85 0f 3e b5 f0 20 bd f3 ff 21 be
       -0.03858132 0.14015871 -0.039292056 -0.15820293
0002f0 a1 a8 c0 3d b7 04 87 bd 98 49 02 3e a3 2a 61 3c
       0.094071634 -0.06592696 0.12723386 0.013743076
000300 a1 de 65 3e ef 4a e7 bd 51 e9 b3 3c 44 5b 14 3d
       0.22448207 -0.11293589 0.02196184 0.03621985
000310 37 5c 01 3e c0 f7 34 3e 70 ce 70 be c2 f0 66 bd
       0.12632833 0.17672634 -0.2351625 -0.05638195
000320 34 dd fe 3d e9 30 96 3e 10 ed a2 bd d5 10 a8 be
       0.12444535 0.2933419 -0.07955372 -0.32825342
000330 98 e3 1e be 8f 35 92 be 30 a5 23 3e 8c 49 df 3e
       -0.15516508 -0.28556487 0.15980983 0.436108
000340 49 fd dc 3e 34 a2 2a be f6 91 dc bd 69 b7 6f be
       0.4316199 -0.16663438 -0.10770027 -0.23409809
000350 a7 a6 48 3e 23 01 22 3e 34 77 03 be 51 ba fc bd
       0.19594823 0.15820746 -0.12838441 -0.123402245
000360 ac bc 5d 3e 25 8f ac 3d 41 ba c7 bd 24 ff 21 be
       0.21654004 0.0842574 -0.09752322 -0.15819985
000370 a8 16 a6 3d 1c 3b 8b be 4c f0 7d 3d b0 66 94 bd
       0.0810979 -0.27193534 0.061996743 -0.072461486
000380 f3 fe fe 3d e5 6d d9 bd d4 9e 61 3d 9e ea ee 3c
       0.124509715 -0.10616664 0.05508311 0.029164609
000390 cc 0c 91 3e da 32 68 3e a3 05 04 bd c6 5f 1f be
       0.28330076 0.22675648 -0.032231938 -0.15563878
0003a0 6b 1d 03 be cf ea 13 be 1c ad bb 3b d4 90 da 3d
       -0.12804191 -0.14445041 0.0057274234 0.10672155
0003b0 68 10 ca 3d 6e 3d 6d 3d 9f f5 76 3d 13 07 e6 3e
       0.098664105 0.057919912 0.060292836 0.44927272
0003c0 63 7f 10 3e 5d 9f 55 be 45 7c 57 be 95 ae b3 3e
       0.14111094 -0.20861574 -0.21043499 0.35094133
0003d0 29 33 58 3e 37 af bc 3d 77 89 93 bb 97 29 b7 bc
       0.21113266 0.09213107 -0.004502471 -0.022358699
0003e0 9c 4b 9e 3d 23 90 bf 3e ea 2d 52 be ab 5b ba bc
       0.07729265 0.37414655 -0.20525327 -0.022748789
0003f0 3d 89 af bd 70 6d 38 be 7f ff 6b bd 5b 06 e6 bd
       -0.08571098 -0.18010497 -0.057616707 -0.11231681

arith.constant4 f4 [48]
000000 7a 8b 62 3e 4e 1f 32 3e 60 ac bc 3e e5 b2 4d 3e
       0.22123519 0.17394754 0.36850262 0.20087774
000010 22 0c f4 3e c7 89 5a 3e b6 91 1b 3e ba b4 f3 3e
       0.47665507 0.2134162 0.15192303 0.4759882
000020 93 62 48 3e 7a 31 9e 3e c7 ee 95 3e 0e 4b ad 3e
       0.19568853 0.30897123 0.29283735 0.33846325
000030 b2 3a 89 3e 04 a5 9f 3e 18 fe 94 3e fa 64 53 3e
       0.26802593 0.31180584 0.29100108 0.20643988
000040 fd 09 ab 3e 74 42 8b 3e f0 1a b3 3e 15 e8 d1 3e
       0.33406058 0.27199137 0.3498149 0.40997377
000050 7f 58 a3 3e 59 39 9d 3e b5 d1 84 3e 7c ee a8 3e
       0.31903455 0.30707815 0.25941244 0.3299445
000060 f0 84 71 3e a8 05 3e 3e 90 91 85 3e 0d c8 89 3e
       0.23585868 0.18556845 0.26087618 0.2691044
000070 94 d6 92 3e bd ad 85 3e de 0a 27 3e 08 e2 3e 3e
       0.28679335 0.26109114 0.16312739 0.18640912
000080 be d6 c4 3e b7 3a 40 3e f3 20 24 3e db 35 cf 3e
       0.38445085 0.18772398 0.16028194 0.40470776
000090 c6 9b 74 3e 5d db 37 3e 11 9b 27 3e de b0 fa 3d
       0.23887548 0.17954774 0.16367747 0.12240766
0000a0 c1 95 53 3e 30 d9 8a 3e fe c0 36 3e 44 5a dc 3e
       0.20662595 0.27118826 0.17847058 0.43037617
0000b0 06 1c de 3e e8 56 a6 3e a7 c6 85 3e d8 ad 68 3e
       0.43380755 0.3248818 0.26128122 0.22722566

arith.constant5 f4 [48]
000000 94 44 08 3d 77 5d 9d 3c 3f 57 03 be c6 93 b3 3d
       0.033268526 0.019209607 -0.1282625 0.0876842
000010 2a e0 ae bc 57 62 3c 3c 8e 8d e2 bc 4f ca 5d bc
       -0.021347124 0.011498055 -0.02765539 -0.013537004
000020 89 6e 61 3c 7b d0 89 3d 73 fe 78 bd 26 36 22 bd
       0.013759264 0.067292176 -0.060789537 -0.03960242
000030 e1 89 6c bd b7 fd 3b bd 30 70 17 3c cb 3b 56 3d
       -0.05774868 -0.04589626 0.009243056 0.052303117
000040 2b ac d2 3c a8 5d 91 ba bb 06 3f bc 9b eb 97 3d
       0.025716862 -0.0011090534 -0.0116593195 0.07417985
000050 b6 f4 1c 3d 25 99 b8 bc 8a d0 c5 39 f0 e3 6b 3a
       0.038319312 -0.022533963 0.00037730142 0.0008998504
000060 5e d8 4d 3d 70 ac 6d 3d d2 8c 19 bd 97 8b bf 3d
       0.050255172 0.058025777 -0.037487812 0.093527965
000070 c6 24 ce ba f6 75 e1 3d 85 21 1b 3d 7b e5 12 3b
       -0.0015727512 0.110088274 0.037873764 0.0022414613
000080 2a 27 1c 3c 83 7a a4 3d 3e f3 06 bb f7 21 27 3d
       0.009530822 0.0803118 -0.002059176 0.040803876
000090 98 46 ca 3c 81 53 95 3d 3b cc a1 3c 64 56 95 bd
       0.024691865 0.07291318 0.019750705 -0.07291868
0000a0 56 10 42 3b fd 0f 81 bd 49 60 6d 3d d2 d9 d6 bc
       0.0029611788 -0.06301878 0.057953153 -0.026226912
0000b0 ce 2e be 3d 05 cf fc bc 35 1c b4 3c aa 25 df 3c
       0.09286271 -0.030860433 0.021986106 0.02723964

arith.constant6 f4 [48]
000000 3b 8e 92 3f a9 6c 96 3f 38 7d 8e 3f 5a 69 8c 3f
       1.1449655 1.175191 1.1131964 1.0969651
000010 26 d1 9b 3f c5 42 8c 3f 7f 11 90 3f 60 d4 a0 3f
       1.2173202 1.0957876 1.1255339 1.2564812
000020 4c f8 7a 3f f5 13 80 3f 96 f2 8a 3f a3 e1 99 3f
       0.9803512 1.000609 1.0855281 1.2021984
000030 2e 28 8e 3f 17 02 88 3f b8 d6 88 3f 84 2b 82 3f
       1.1106012 1.0625638 1.0690527 1.016953
000040 8d fc aa 3f c7 c4 ad 3f e6 60 a3 3f 9a bf 8f 3f
       1.3358322 1.3575677 1.2763946 1.1230347
000050 41 04 92 3f 25 70 88 3f 63 1f 7e 3f 18 6f 95 3f
       1.1407548 1.0659224 0.9926664 1.1674528
000060 8a 19 96 3f 04 32 91 3f 7e be 95 3f 8c 98 7f 3f
       1.1726544 1.1343389 1.1698759 0.99842143
000070 1b 48 8b 3f 92 1c 7f 3f 11 09 82 3f db fa 8a 3f
       1.088138 0.9965297 1.0159017 1.0857805
000080 b1 4c 9b 3f 5d 6c 7e 3f 6c bf 87 3f 7a 20 8b 3f
       1.2132779 0.993841 1.0605292 1.0869286
000090 6b 3f 90 3f 86 1f 79 3f 36 94 8c 3f 1a aa 8b 3f
       1.1269354 0.97313726 1.098273 1.0911286
0000a0 da 55 87 3f f1 2d 94 3f 0a d3 80 3f 18 08 a9 3f
       1.0573075 1.157652 1.0064404 1.3205595
0000b0 4c 11 a7 3f b1 c0 84 3f 7a af 91 3f e9 d7 80 3f
       1.3052154 1.0371305 1.1381676 1.006589

arith.constant7 f4 [48]
000000 b5 88 94 3e 64 31 b3 3d 8f e6 a4 3e f4 94 23 3e
       0.2901055 0.08749655 0.32207152 0.1597479
000010 d9 a6 25 3e 54 c0 a4 3d 0f 55 15 3e 85 ad 21 3d
       0.16176929 0.08044496 0.14583229 0.03947212
000020 31 e9 cd 3e 64 11 36 3e 8a 08 7d 3e 80 fe 8f bc
       0.40216973 0.17780071 0.24710289 -0.01757741
000030 6a 29 13 3e e3 f4 11 3e 78 2a c6 3d e6 bb 7c 3e
       0.14371267 0.14253573 0.09676069 0.24681053
000040 f6 30 06 be 27 78 80 be f4 71 9f be a2 85 20 3e
       -0.13104615 -0.2509167 -0.31141627 0.15675977
000050 b2 18 55 3e 47 58 6e 3e ee 47 fc 3e 69 bc d5 3d
       0.20810202 0.23275863 0.49273628 0.10436327
000060 5d 31 f4 3d 8f 22 8b 3d d7 a4 b2 bd 54 20 4e 3e
       0.11923478 0.06793701 -0.08722847 0.2012952
000070 ce 48 1e 3e f9 0f 2b 3e 48 80 bc 3e c3 9b fe 3d
       0.1545746 0.16705312 0.3681662 0.12432053
000080 bb 33 10 be c3 64 4c 3e 24 a1 86 3e ef a9 aa 3e
       -0.14082234 0.19960313 0.26294816 0.33332774
000090 30 bb 74 3d fe 21 24 3e 43 f0 b1 3e 32 51 c9 3d
       0.05974883 0.16028592 0.34753618 0.0982994
0000a0 ff 27 90 3e a8 9a 39 3e 6c e6 1c 3e cd 6d a6 be
       0.28155515 0.18125403 0.15322274 -0.32505646
0000b0 17 c4 45 3e fd b7 38 3e 25 4f 10 3e 83 62 0c 3e
       0.19313084 0.18038936 0.14092691 0.13709454

arith.constant8 f4 [48, 6]
000000 28 14 7b 3d d4 9c ca bd c4 61 07 3e 40 94 94 3e
       0.06129852 -0.09893194 0.13220888 0.29019356
000010 5a 8d 3c 3b 76 d3 e1 3c b5 3c 10 be fc 8e 13 3d
       0.0028770776 0.027566653 -0.14085658 0.036025032
000020 51 ce 8b 3d 17 87 e1 bd e0 8b 12 bc 1c 7e d2 3a
       0.06826461 -0.110120945 -0.008944482 0.0016059312
000030 5f bc be bc bf b9 0a bd dd 38 ef bd a0 cc a4 be
       -0.023283182 -0.033868548 -0.11680768 -0.32187366
000040 25 e7 5a 3f d8 60 ac 3b bd 74 6c 3e 61 03 0a bb
       0.8550895 0.005260568 0.23091407 -0.0021059143
000050 b4 3b 16 be 99 1c 9c bd 48 00 18 bd 43 8f 1e 3e
       -0.14671212 -0.07622642 -0.037109643 0.15484338
000060 31 f2 7d bd 9f 12 84 bc d8 f1 df 3d 95 54 90 3e
       -0.06199855 -0.01612216 0.109348 0.2818953
000070 a9 49 aa 3e 4f 71 0c 3e 2f 26 8c 3e 79 60 79 bd
       0.33259323 0.13715099 0.27372882 -0.06088302
000080 4a aa c4 bc 84 be 3e be bf a0 ee 3e 39 01 79 3d
       -0.024006981 -0.18627363 0.46607015 0.06079218
000090 ae 4a b7 bc 47 61 9b 3e 05 99 f7 3d 90 4c 2b 3e
       -0.022374477 0.30347654 0.12089733 0.16728425
0000a0 52 be 15 be 3a ae 67 3d f2 17 01 3e e6 1e 80 bd
       -0.14623383 0.05656264 0.1260679 -0.062558934
0000b0 47 60 e8 3d 24 91 48 be 74 c3 9a bd 26 d7 66 3e
       0.113464884 -0.19586617 -0.07556811 0.2254301
0000c0 b2 cc ae 3b 4b 52 96 bd 75 24 74 3e 70 48 4c bd
       0.00533446 -0.07339915 0.23842032 -0.04987377
0000d0 ed ef 0d bf 46 b5 5a be d4 f2 5d 3c 80 da 08 3e
       -0.5544422 -0.21358213 0.013546664 0.13364601
0000e0 9b e7 52 bd f5 3d 14 be 16 2f 16 be ae 4b a1 3e
       -0.051490407 -0.1447676 -0.146664 0.31503052
0000f0 9b e4 81 bd e4 1a aa bd 10 d1 9c 3d db c5 00 3e
       -0.06342431 -0.0830591 0.07657063 0.12575476
000100 61 8f cf be 9a 54 e8 3c 83 f2 b8 3d d7 ec f1 bd
       -0.40539077 0.028360654 0.090306304 -0.11812752
000110 56 68 ac ba 58 61 62 3e 5e 39 36 3f 45 2f 39 3e
       -0.0013153653 0.22107446 0.71181285 0.18084438
000120 07 1f ce bd 38 a5 32 be 94 ef 99 bd 8a 16 20 3c
       -0.10064512 -0.17445838 -0.07516399 0.009770999
000130 38 0f 06 be 01 87 8f 3e bb a7 ea 3d 14 39 1b be
       -0.13091743 0.28032687 0.11457773 -0.15158492
000140 20 1a 30 3d d1 48 67 3e a2 48 ac be 67 7c bc 3d
       0.042993665 0.22586371 -0.33649164 0.09203415
000150 6d 3b 27 be 0e 4a de bc e9 f5 93 bd ce e0 1d be
       -0.16331263 -0.027134921 -0.07224638 -0.15417787
000160 88 21 b6 3d 25 8e 84 3e 6f 46 8f 3d ae 3b 9c 3d
       0.08893114 0.25889698 0.06995856 0.076285705
000170 e5 8e 8d 3d c5 52 79 3e b4 04 42 be d8 c7 67 3e
       0.069120206 0.2434798 -0.18947107 0.22634828
000180 8e a2 a8 3d 40 f6 40 3d 61 58 0a 3e be 64 8e be
       0.0823413 0.047109842 0.13510276 -0.27811235
000190 82 a3 43 bf 92 25 5b 3e 12 6b c2 3a 21 5b 4a 3c
       -0.7642137 0.2140105 0.0014832935 0.012350828
0001a0 93 a4 0b 3d 58 93 ce be 65 43 08 3e 7f 7d c5 3e
       0.034092497 -0.4034679 0.13306959 0.38572308
0001b0 ca 16 c6 bd 67 c3 32 3e 68 51 86 bd c0 c9 2e be
       -0.096723154 0.17457353 -0.06558496 -0.17069149
0001c0 0c dc ef 3e 78 1d 1c 3e eb e4 34 be 29 2e 0d be
       0.4684757 0.15245616 -0.1766545 -0.1378714
0001d0 3f 8d 24 bb 04 57 30 3e 07 ce 71 3d d1 a9 fe 3d
       -0.0025108603 0.17220694 0.059034374 0.12434734
0001e0 e7 b5 b1 3e a1 d6 95 bc 16 b0 2e 3d 19 01 45 be
       0.34709093 -0.01829082 0.042648397 -0.192387
0001f0 37 80 04 be d9 35 f5 3d eb df c5 3d 78 a6 c2 3d
       -0.12939535 0.11973161 0.096618496 0.09504408
000200 d8 b7 e7 bd 58 f7 b7 3c 35 14 a3 3e 2f 42 1a 3e
       -0.11314362 0.02245681 0.31851354 0.1506431
000210 6c c5 25 be 4c 1b a6 3c 97 ba f6 bd 33 a7 3c bd
       -0.16188592 0.020276688 -0.12047308 -0.04605789
000220 01 85 80 3a c7 07 9d be 86 a7 9d 3d fd 1a 98 3c
       0.0009805263 -0.30669996 0.07697968 0.018567557
000230 7a 3b cc bd b8 84 3c be 82 0c fa 3e 52 8c cc bd
       -0.09972282 -0.18410003 0.48837668 -0.099877015
000240 40 ff f1 bc 49 89 dd ba 12 d2 87 3d c8 e6 9c 3d
       -0.029540658 -0.0016901876 0.066318646 0.076612055
000250 2f d3 d7 3e e5 ec e8 be bb d3 62 3d a8 ed 7c 3d
       0.42153308 -0.45493236 0.055377703 0.061750084
000260 5a 77 d1 bd 20 78 ea 3e d2 f3 ce 3c c2 3a a8 3d
       -0.10227843 0.45794773 0.025262747 0.08214332
000270 f2 f5 16 3e d1 30 9d bd 4f f5 c9 bd f9 4a 6e 3e
       0.14742258 -0.076753266 -0.09861242 0.23270787
000280 b2 1f e4 bd 0d 68 17 be 2d 09 72 bd d6 da ce bc
       -0.11138858 -0.14785786 -0.059090782 -0.025250833
000290 bf d3 a4 bd 63 f4 f3 be ca 81 b6 3d 13 66 03 3e
       -0.080482 -0.4764739 0.08911474 0.12831907
0002a0 c0 7e 3b 3d 48 46 16 3d cf b7 f5 bd 4b bc 05 bf
       0.045775175 0.03668812 -0.11997949 -0.5224044
0002b0 58 b0 9e 3e 43 2f a1 3d bf 5b 95 bc 45 fe 29 3e
       0.30993915 0.078703426 -0.018232225 0.16600902
0002c0 58 92 7b bc 71 d1 f5 bd 91 56 ac 3d fc bc b7 3e
       -0.015354715 -0.120028384 0.08414949 0.3588637
0002d0 44 e5 74 3d 80 0e 4f 3d 99 59 cc bc 56 13 07 be
       0.059788957 0.050550938 -0.024945067 -0.1319097
0002e0 0c 44 c4 3d bc 27 81 3e ca 45 95 3d 6c f9 5c 3d
       0.095832914 0.25225627 0.07288702 0.053948805
0002f0 ea 1d 83 3e a4 03 8b 3e 8b c1 f3 be bb 74 05 3e
       0.2560876 0.27151215 -0.476086 0.1303281
000300 f6 1a 7a bd e3 82 b3 bc 82 2f a1 3d 3e a1 48 bf
       -0.06106087 -0.021912998 0.078703895 -0.78371036
000310 fe 33 13 be 61 f6 00 3f 3a 74 13 bd 43 03 93 bd
       -0.14375302 0.50375944 -0.035999514 -0.071783565
000320 92 54 e9 bd c5 a1 ee be f1 12 41 3e c6 58 73 3e
       -0.11393084 -0.46607795 0.18854882 0.23764333
000330 ef 5d 8d bd 04 4b 53 3e 67 7e ed bd d7 da 49 3d
       -0.06902682 0.20634085 -0.11596375 0.049280968
000340 f3 dd 3c bc e6 a3 5c 3e 85 a4 de bd 17 1f 8e bd
       -0.011527526 0.21546897 -0.10871223 -0.06939524
000350 be c6 26 3d 90 72 87 be 9b 77 a2 3e b9 53 f3 3c
       0.04071688 -0.26454592 0.31731877 0.029703008
000360 e8 71 91 3d 99 47 ed bd 6d 98 2e bd 79 90 3c bd
       0.07101804 -0.11585922 -0.042625833 -0.046036217
000370 2b ba 92 3e 71 70 e4 bc bb 18 53 3d 75 48 50 bd
       0.2865766 -0.027885647 0.051537257 -0.05085035
000380 95 45 6b be e9 1a e2 be 59 ad 55 3f b3 9f b4 3d
       -0.22975762 -0.44161156 0.8346763 0.08819523
000390 0f a0 53 3c 7f 79 b8 bc 2a 9c 8e 3e 95 d7 3c 3e
       0.012916579 -0.022518871 0.2785352 0.18441613
0003a0 f3 b3 98 bd de 25 ec 3c 6d 06 89 bb ef f0 60 bd
       -0.074561976 0.02882665 -0.004181674 -0.054917272
0003b0 4a 4d 8f 3e 5b cd 54 3e c9 8c 4a be 04 ba 72 3c
       0.27988654 0.20781462 -0.19780268 0.014814857
0003c0 d0 ad 53 3e ca eb d4 bb 2f cf 4f 3b 33 4f 37 3e
       0.20671773 -0.006497835 0.0031709184 0.17901306
0003d0 2e e6 2a bf 18 63 f5 3d 19 b4 ca bd 1c fd 16 3e
       -0.66757476 0.11981791 -0.09897632 0.14744991
0003e0 0c 90 88 3d 74 d8 85 bd a7 9a 9a be 34 7e 9e bd
       0.066681 -0.06535426 -0.30196115 -0.07738915
0003f0 cb cc 2e 3e 58 b7 14 be 04 a8 b8 bd c2 ac 36 3e
       0.1707031 -0.14523065 -0.090164214 0.1783934

arith.constant9 f4 [48, 6]
000000 b5 20 2a 3e 8f e3 cd bd 6e ca 05 3e b6 13 8c 3d
       0.16614039 -0.10053169 0.13065502 0.06839697
000010 f4 39 1b 3d 92 af 6d 3b fd 6d a6 3d be ba 04 3d
       0.037897065 0.0036267978 0.08126447 0.032404654
000020 fd fa f8 bc 07 90 f0 3d 15 bc 9f 3e fc d2 52 3e
       -0.030393118 0.11746221 0.31198183 0.20588297
000030 d3 7d 45 be f9 2c be 3d df 97 c1 3c cb dc 0c be
       -0.1928628 0.092859216 0.023631988 -0.13756101
000040 cc 9c 0d 3e ed 4e 92 be 0a 1a ba 3d 83 33 29 3e
       0.13829345 -0.2857584 0.09086998 0.16523556
000050 51 98 2e 3e 41 06 1b be 65 2a 26 be 88 5c f1 3d
       0.17050292 -0.15139104 -0.1622711 0.11785227
000060 7c f5 92 3d b0 7b 99 3c 2c 95 07 be 51 81 b8 be
       0.07175729 0.018735737 -0.13240498 -0.3603616
000070 24 25 81 bb ce f6 9e 3e b4 9e 8b 3d 3d a6 85 3d
       -0.003941195 0.31047672 0.068173796 0.06525848
000080 e4 af 8b bd 90 70 7b be 22 65 54 3f be 71 cf 3e
       -0.06820658 -0.24554658 0.82966816 0.40516466
000090 f9 a7 6a 3d 2c 25 1f bd c1 54 bb 3d 9b 40 a1 3d
       0.057289097 -0.03885381 0.09147025 0.07873651
0000a0 7d 11 2e 3d 37 dc 5b 3d 60 67 05 3e 30 15 b0 3d
       0.042497147 0.05367681 0.13027716 0.08597791
0000b0 fc 6f 9f bd 3c f3 3f be 90 bd 1a 3f fd 47 4d bd
       -0.07785031 -0.1874513 0.604455 -0.05011748
0000c0 64 9a 7e 3d ae 9a d1 3d 4a 15 dd bd 12 72 65 bc
       0.062158957 0.10234581 -0.10795076 -0.014004247
0000d0 81 94 24 bf aa 50 81 3d 43 d0 d6 3d 5b a1 0c be
       -0.642891 0.063142136 0.104889415 -0.13733427
0000e0 b1 9f a8 3d 6f 61 36 bd a0 e7 23 be 82 8a 42 3e
       0.08233584 -0.044526514 -0.16006327 0.18998149
0000f0 e6 8b 37 3e b1 b7 68 3d a4 f6 62 bd 17 b2 10 3e
       0.17924461 0.056815807 -0.055410996 0.14130436
000100 eb e7 ad bd e6 58 f6 3d 7f ed 1c be e3 ea ba 3c
       -0.084915005 0.12028675 -0.15324973 0.02281708
000110 b3 8e 12 3e 41 3f 20 3f e2 1c 05 bf 09 6d 0b bf
       0.14312248 0.6259652 -0.51997197 -0.5446325
000120 11 01 1c bc 1a 3c ed bb 32 ac 1d bd d6 ba fc bb
       -0.009521739 -0.0072398307 -0.038494296 -0.0077127023
000130 af 4d aa bd 5f 4d 81 bd 28 99 ff ba e2 7d c7 3c
       -0.08315598 -0.063135855 -0.00195006 0.024352018
000140 d7 4b 6d bd 9a 42 2c be e1 6d bb 3e 47 ae 08 bf
       -0.057933655 -0.16822281 0.36607268 -0.53390926
000150 ee c3 8d bd 29 65 c9 3d 5f 81 df bd 5d 21 e2 be
       -0.06922136 0.09833748 -0.109133475 -0.4416608
000160 e8 54 00 3f ae bf b3 3d 3c 90 fe 3c e8 43 70 3d
       0.50129557 0.087767944 0.031074636 0.05865851
000170 c4 ce 47 bd d1 a6 64 3e 9b 82 02 bf 85 3c 63 be
       -0.04878117 0.2232926 -0.5098054 -0.22191055
000180 96 a6 56 be a9 2a 3f 3c 9f ed 97 3d 2f 18 06 be
       -0.20961985 0.011667886 0.074183695 -0.13095163
000190 a5 60 29 bd 93 e8 38 3e c3 8b 0f bb e0 44 3d b7
       -0.041351933 0.1805747 -0.0021903373 -1.1281314e-05
0001a0 b8 e6 24 3c 83 19 b9 bd 1e b1 12 bd 4b c2 90 be
       0.010064773 -0.09038069 -0.035813443 -0.28273234
0001b0 32 41 93 39 bb 9c 23 3b fc fd 41 3b 18 0b c3 bd
       0.000280866 0.0024965245 0.002960085 -0.095236
0001c0 85 db e6 bd b7 f0 39 be 86 f8 89 3d eb 0e 28 be
       -0.11272339 -0.18158232 0.06736855 -0.16411941
0001d0 94 d4 63 bc ba d5 a3 be 73 82 0c 3e 54 1b b3 3e
       -0.013905663 -0.31998998 0.13721637 0.34981787
0001e0 fd b1 1e 3e 5b f5 25 3c 7c 50 fe 3b c6 01 c0 be
       0.15497585 0.010129298 0.0077610593 -0.37501353
0001f0 14 7c 61 bd e2 c7 95 3d 4c 29 39 3e b2 2f e8 3d
       -0.05504997 0.07313515 0.1808216 0.11337222
000200 b1 15 15 be 75 7c ad bd 34 f3 e9 bd dd ac e8 3e
       -0.14559056 -0.08471004 -0.114233404 0.45444384
000210 c1 dd b2 3d 13 da b3 3d 06 ee dd bc 38 fb 7f be
       0.087337025 0.08781829 -0.027091037 -0.24998176
000220 90 58 6c 3f 07 75 09 3f 86 aa 90 bd 31 7a 8a 3d
       0.92322636 0.53694195 -0.07063775 0.067615874
000230 f6 43 94 bd 01 a8 9f 3e f8 ab 81 be d0 c5 3c bf
       -0.07239525 0.31182864 -0.25326514 -0.7373934
000240 af fc 7c 3d a6 d4 5d 3d 77 2c 20 3e 23 b6 ca be
       0.061764415 0.054157875 0.15641962 -0.39592084
000250 de 92 91 3d bf 84 a8 3e d8 39 14 3d fb 88 39 3d
       0.07108091 0.32913777 0.036187977 0.04529665
000260 17 8e 5f bc 59 0d 1c 3e 15 d2 ff bd 6d 12 40 be
       -0.013644717 0.15239467 -0.12491242 -0.18757029
000270 a2 1c 36 be f1 18 c1 bd 6f 21 a1 3d 05 01 bb be
       -0.1778436 -0.09428585 0.07867705 -0.36524215
000280 df b4 07 3f 4c d5 dc 3e aa ac 79 bc 0e bf c9 bb
       0.5301036 0.43131483 -0.01523892 -0.0061568087
000290 2f 90 b1 3b 90 17 96 be fe 7c 03 3f 3c 79 11 be
       0.0054187994 -0.29314852 0.513626 -0.14206403
0002a0 fb 0e 00 be c8 43 a4 3d 30 15 f9 bd b6 7d ea be
       -0.12505715 0.08020741 -0.12162244 -0.45799035
0002b0 3f 2d c2 3e 38 b8 e8 3e 46 2f e6 3d ae 6a 62 3e
       0.37925145 0.45453048 0.112394854 0.22111008
0002c0 13 42 0e 3e bb cc 80 bc 87 61 d6 be f7 0b e9 bd
       0.13892393 -0.015722623 -0.41871282 -0.11379235
0002d0 69 49 b1 3d f2 b8 24 3c 2f 0b 07 be 2d 3f b7 3e
       0.0865658 0.01005386 -0.1318786 0.35790387
0002e0 1e d6 45 3e a3 cc 92 be 45 ca 49 3d e7 1d f7 3d
       0.1931996 -0.2867175 0.049265165 0.1206625
0002f0 47 69 11 3e 47 2e 44 bd 7a 0e 05 3f b0 29 4d bd
       0.14200316 -0.047895696 0.51975214 -0.050088584
000300 53 7f 14 3e 2d 79 8f bc 50 c1 30 bd 54 b5 86 be
       0.14501695 -0.017513836 -0.043153107 -0.26310217
000310 57 cb e9 3d 7f e1 07 3e d5 16 38 bd d1 5a 20 be
       0.11415737 0.13269614 -0.04494365 -0.15659644
000320 68 8a 3e bc 55 cd ef 3d 00 45 8c be 86 36 25 3e
       -0.011629678 0.11709086 -0.27396393 0.1613408
000330 42 53 b4 3d 58 88 07 be 5a a7 a0 3d c9 d1 b8 3d
       0.08804943 -0.13235605 0.0784442 0.09024388
000340 71 e1 7d bd 09 e6 62 be 1f 7a 9a 3c cd 2c d7 bd
       -0.061982576 -0.22158064 0.01885706 -0.10506592
000350 86 7d f5 bd fd f0 29 3d d2 57 c0 3d ee cb a9 be
       -0.11986832 0.04148959 0.093917504 -0.33163399
000360 74 bc 18 bd 4b 9e ac 3d eb 48 4d 3d e7 82 79 be
       -0.037289098 0.084286295 0.050118368 -0.24366342
000370 8d 1a 05 3e 7d 37 0a 3e 8a 29 2f be 9b 33 c8 bd
       0.1299841 0.1349773 -0.1710569 -0.09775468
000380 45 bb d8 bd 6f ba 84 3e 39 b6 36 bf 80 15 90 be
       -0.10582594 0.25923488 -0.713718 -0.28141403
000390 29 e6 f5 3d ed 66 b0 3d 7c 47 0b be 2c 9b 86 bd
       0.1200679 0.086133815 -0.13601488 -0.065725654
0003a0 4c 2b b4 be 71 3e 66 be 38 b0 3f 3d 1e 2c 0f 3e
       -0.35189283 -0.22484757 0.046798915 0.13981673
0003b0 06 d6 58 3c 3b 37 59 be 53 10 c9 3d 35 76 f0 3d
       0.013234621 -0.21212475 0.09817567 0.11741296
0003c0 52 7c 77 3c bb 79 0f 3e 0a ae 13 3e ac fa 5e be
       0.015105324 0.1401128 0.1442186 -0.21775311
0003d0 74 45 43 be 55 d4 99 3d a5 5d 83 3d 35 d7 09 bc
       -0.19069463 0.07511202 0.06414346 -0.008413126
0003e0 94 07 57 bd bc 44 a9 3e bc 3a 3d 3b af 9e 28 3e
       -0.05249746 0.33060253 0.002887412 0.16466783
0003f0 c4 59 e2 bd 70 eb 22 be 1d ae 1f bd 10 bf 2c 3e
       -0.11052278 -0.15910125 -0.038984407 0.1686976
